rand_models/LeNet5/avgcl3/r_0.3.pth (torch, 250460 bytes, 10 tensors)

features.0.weight f4 [6, 1, 5, 5]
0	0x3f098819	0.53723294
1	0x3e66aad8	0.22526109
2	0xbf1e66ab	-0.6187541
3	0xbcf5006a	-0.029907424
4	0x3d9fccc2	0.07802726
5	0x3f4090c1	0.75220877
6	0xbe506513	-0.20351057
7	0xbfb208f2	-1.390898
8	0xbf3194e6	-0.69367826
9	0xbe8e231e	-0.27761167
10	0x3fa07408	1.253541
11	0xbe2056c7	-0.15658103
12	0xbfa4661e	-1.2843664
13	0xbf5bcb5d	-0.8585718
14	0xbf07ee12	-0.5309764
15	0x3f8cc98c	1.0999007
16	0x3eb8b7e1	0.36077788
17	0xbf13b683	-0.57700366
18	0xbe8ccba7	-0.27499124
19	0x3eb899dc	0.36054885
20	0x3f34d64e	0.70639503
21	0x3f1692aa	0.5881754
22	0xbd8a91d2	-0.06766094
23	0x3f155cfb	0.58345
24	0x3f113093	0.56714743
25	0xbeb508ef	-0.35358378
26	0x3e083bba	0.13304034
27	0xbd671275	-0.056414086
28	0x3e862bf0	0.26205397
29	0xbe93e386	-0.28884524
30	0x3f317250	0.6931505
31	0x3f330399	0.69927365
32	0x3f32ff39	0.6992069
33	0x3f4de2ac	0.80424
34	0x3da4c9bc	0.0804629
35	0x3efadaf9	0.48995188
36	0x3f0108a0	0.50403786
37	0x3f4ab761	0.79186064
38	0x3edd44f6	0.43216676
39	0xbd5c8e8f	-0.053846892
40	0x3e69f618	0.22847784
41	0x3e135d09	0.14390959
42	0x3e970c55	0.29501596
43	0x3d11f05d	0.03562962
44	0x3c383ad3	0.011244494
45	0xbe0a4bce	-0.1350548
46	0xbe891929	-0.26777008
47	0xbca13df2	-0.019682858
48	0xbec51f0d	-0.38500252
49	0x3ab44630	0.0013753828
50	0x3e4bfb33	0.19920044
51	0xbf06d482	-0.5266801
52	0x3f70b31f	0.9402332
53	0x3e0f902e	0.14019844
54	0xbeae57c2	-0.3405133
55	0xbedf6a49	-0.43635777
56	0xbf81378e	-1.0095079
57	0x3f941ae6	1.1570709
58	0x3f535301	0.8254853
59	0xbed8613c	-0.42261684
60	0xbf751ddb	-0.9574868
61	0xbf8c56cd	-1.096399
62	0x3fa6bc1c	1.3026156
63	0x3f132a67	0.57486576
64	0x3e12b65e	0.1432738
65	0xbe3b4016	-0.18286166
66	0xbf60ccef	-0.87812704
67	0x3f3a274e	0.72716224
68	0xbd63a64b	-0.05557851
69	0x3eb7570e	0.35808605
70	0x3d600b0d	0.05469804
71	0xbf19103f	-0.59790415
72	0xbddcd52d	-0.107828476
73	0x3e364ee4	0.17803532
74	0x3ea85683	0.32878503
75	0xbef523c2	-0.47878844
76	0xbe1969c1	-0.14981748
77	0x3dae349f	0.085061304
78	0x3ed75f9b	0.4206513
79	0xbeaf1871	-0.34198335
80	0xbe91f025	-0.28503528
81	0xbef41d3a	-0.47678548
82	0x3f111ffb	0.56689423
83	0x3f5039af	0.8133802
84	0x3ea4ec93	0.32211742
85	0xbf36e9f9	-0.71450764
86	0xbdc708d0	-0.09718478
87	0x3f158467	0.58405155
88	0x3f399ade	0.72501934
89	0x3e89fcce	0.26950687
90	0xbf2b4dba	-0.66915476
91	0x3edb7de6	0.4286949
92	0x3db57bbb	0.0886149
93	0x3f0592e0	0.5217724
94	0x3d6e9ef3	0.058257055
95	0xbeb836c3	-0.3597928
96	0x3f3e909b	0.744394
97	0x3e1fba31	0.1559837
98	0x3ea733d8	0.3265674
99	0x3d9fc337	0.07800906
100	0xbf2f0bf6	-0.68377626
101	0xbe229e55	-0.15880711
102	0x3cf857cc	0.030315302
103	0x3d8f45b7	0.06995719
104	0x3db5f52b	0.08884653
105	0xbf0628ac	-0.5240581
106	0xbc9b6334	-0.018968202
107	0x3f2f1722	0.6839467
108	0x3f3eb288	0.7449117
109	0x3ea58a29	0.3233197
110	0x3e85fba6	0.26168555
111	0x3f3918b7	0.72303337
112	0x3f63a498	0.88923025
113	0x3d69d057	0.057083454
114	0xbdbb1756	-0.0913531
115	0x3e5fe2c3	0.21863846
116	0x3f2b8371	0.6699744
117	0x3ead690f	0.33869216
118	0xbe49367f	-0.19649695
119	0x3c237a19	0.009977841
120	0x3e6b3211	0.22968318
121	0x3e84c697	0.25932762
122	0x3e8be202	0.27320868
123	0xbdcd01cc	-0.10010108
124	0x3daff730	0.08592069
125	0x3e9f9810	0.31170702
126	0x3f1c90d0	0.61158466
127	0x3ed0e5f6	0.40800446
128	0x3e14a976	0.14517769
129	0x3ea69b85	0.32540527
130	0x3e93271a	0.2874077
131	0x3de447a4	0.11146477
132	0xbd1b8755	-0.03797086
133	0x3e59aa60	0.21256399
134	0x3d862523	0.06550052
135	0x3d9c7775	0.07639972
136	0x3e07ef8e	0.13274977
137	0xbc989cf1	-0.018629523
138	0x3ea4036e	0.32033867
139	0x3de646ee	0.112439975
140	0xbe9ea22d	-0.30983105
141	0x3e98bab2	0.29829937
142	0x3ee58358	0.4482677
143	0xbe79b826	-0.24386653
144	0x3e0c5a7e	0.13706395
145	0xbeb11beb	-0.34591612
146	0xbeab51b5	-0.33460775
147	0x3ead1bd1	0.33810285
148	0xbdf733cd	-0.12070427
149	0xbe1d9d9d	-0.15392156

features.0.bias f4 [6]
0	0x3d6a45cb	0.057195466
1	0xbbd0a9a1	-0.0063678776
2	0xbd9b968f	-0.07597076
3	0xbd80c7aa	-0.06288083
4	0xbd27fb32	-0.041011043
5	0x3c85b74c	0.016322754

features.3.weight f4 [16, 6, 5, 5]
0	0x3ed2cbf9	0.41171244
1	0x3d3e187e	0.046410076
2	0xbe5fc031	-0.21850659
3	0xbecb6035	-0.39721838
4	0xbc28cd07	-0.010302789
5	0xbd0e4e9c	-0.034742936
6	0xbe583a31	-0.21115948
7	0xbe5e9078	-0.21734798
8	0xbe04d3c7	-0.12971412
9	0x3dc6dd7d	0.09710214
10	0xbe94288e	-0.2893719
11	0xbe6b1ee8	-0.22961009
12	0xbdfe0def	-0.12405001
13	0xbdeb192f	-0.11479413
14	0xbd66f1ee	-0.056383066
15	0xbe6d309f	-0.23163079
16	0xbe55f1a6	-0.20892963
17	0xbea8841f	-0.329133
18	0xbd4273b4	-0.047473624
19	0x3d433623	0.04765905
20	0xbeb820d7	-0.35962555
21	0xbe166cfd	-0.14690013
22	0xbec81af0	-0.39083052
23	0xbe0eb530	-0.13936305
24	0xbdd1f06c	-0.10250935
25	0xbede860b	-0.43461642
26	0xbf326ad5	-0.6969426
27	0xbec1ce72	-0.37852818
28	0xbdb13a09	-0.086536475
29	0x3e8392ba	0.2569788
30	0xbcf6ce88	-0.030127779
31	0x3e179a1a	0.14804879
32	0x3d09326e	0.03349536
33	0xbd9ececd	-0.07754288
34	0x3df2ff2c	0.118650764
35	0xbdd4ba22	-0.103870645
36	0xbd04cd35	-0.032422263
37	0xbb316b5a	-0.0027072043
38	0x3db91f53	0.09039178
39	0x3db3f3b5	0.08786718
40	0x3cf5df06	0.030013572
41	0x3e0d1d84	0.1378079
42	0x3e346313	0.17615919
43	0x3dfdad84	0.12386611
44	0xbd8dc3a5	-0.06922082
45	0x3ea3bd6e	0.3198046
46	0x3f171898	0.590219
47	0x3ed973cc	0.42471159
48	0x3e586877	0.211336
49	0x3e48e17d	0.19617267
50	0xbe98f855	-0.29876962
51	0xbe93e234	-0.28883517
52	0xbe4ec1c9	-0.2019111
53	0x3d36bf08	0.044615775
54	0x3e25ccd9	0.16191424
55	0xbe5422f4	-0.20716459
56	0xbe853ea1	-0.26024345
57	0xbde24d47	-0.11049896
58	0xbe564347	-0.20924102
59	0x3e304edc	0.17217582
60	0xbdebc6d7	-0.11512535
61	0xbe1c4627	-0.15261136
62	0xbd97b562	-0.07407643
63	0xbe1033dd	-0.14082284
64	0x3d9bc69e	0.076062426
65	0xbda2ea4e	-0.07954846
66	0xbe99977b	-0.29998383
67	0xbe86071b	-0.26177296
68	0xbe908a26	-0.282304
69	0xbc14169b	-0.009038593
70	0xbd98503f	-0.07437181
71	0xbe4e91f7	-0.20172869
72	0xbeaf7dea	-0.34275752
73	0xbdd52bca	-0.10408743
74	0x3d8f5684	0.069989234
75	0xbee71921	-0.4513636
76	0xbe8f7b52	-0.28023773
77	0xbd1ae6d3	-0.037817787
78	0xb94f007e	-0.00019741242
79	0x3c512b12	0.012766616
80	0xbd875b31	-0.0660919
81	0x3d3043dc	0.043033466
82	0xbe06093e	-0.13089463
83	0x3df8b90c	0.1214467
84	0x3b311774	0.0027022036
85	0xbd8a296e	-0.06746183
86	0x3cf9d2f1	0.030496093
87	0xbdb3a310	-0.08771336
88	0x3bea7fe0	0.007156357
89	0xbe3cf573	-0.18453006
90	0x3e305a62	0.17221978
91	0xbe0d14a2	-0.13777402
92	0xbe1cf3a3	-0.15327315
93	0xbe6b07fa	-0.22952262
94	0xbd731b7b	-0.05935238
95	0x3ebe85ac	0.3721136
96	0xbd59e578	-0.053197354
97	0xbd13c730	-0.036078632
98	0xbe72af48	-0.23699677
99	0x3d6d2fd9	0.05790696
100	0xbed0cf87	-0.4078333
101	0xbed4831d	-0.41506281
102	0xbde4893c	-0.11158988
103	0x3b011fd6	0.0019702814
104	0x3e4064ae	0.18788406
105	0xbd556246	-0.052095674
106	0xbd1b8197	-0.037965383
107	0x3e21b9d5	0.15793546
108	0x3e236b9f	0.15959023
109	0x3db55d19	0.088556476
110	0xbe323e39	-0.17406549
111	0xbd954e1a	-0.07290287
112	0x3ba68d17	0.005082737
113	0x3e3a3a00	0.18186188
114	0x3c2ac8f1	0.010423885
115	0x3e2fb16f	0.1715753
116	0x3dc71370	0.09720504
117	0x3dd10649	0.10206277
118	0x3ca25855	0.01981751
119	0x3db21a10	0.08696377
120	0x3e137faf	0.14404176
121	0x3e68f013	0.22747831
122	0x3e8e6f4b	0.27819285
123	0x3da455b6	0.080241606
124	0x3dad5eba	0.08465333
125	0xbe023a3e	-0.1271753
126	0xbe256ed4	-0.16155559
127	0xbdb8d267	-0.09024506
128	0x3dccf82b	0.10008272
129	0x3d5f2d60	0.054486632
130	0xbe2d7f19	-0.16943015
131	0xbd1af09a	-0.03782711
132	0xbc38f1b6	-0.011288097
133	0x3d910826	0.07081632
134	0x3d0aceb7	0.033888545
135	0x3da96034	0.082703024
136	0x3c1fadb0	0.009746
137	0x3e39ea77	0.18155847
138	0xbd9c0d62	-0.0761974
139	0x3dbaf0d3	0.09127965
140	0xbca49c88	-0.020094171
141	0xbd697f8a	-0.057006396
142	0xbdabcb5e	-0.083883986
143	0x3cbe8188	0.023255125
144	0xbda525bd	-0.08063839
145	0x3dbd8f74	0.09255877
146	0x3e526ff4	0.20550519
147	0x3dd7b2ef	0.10532176
148	0x3ca7cd3e	0.02048361
149	0xbcb874a2	-0.022516552
150	0xbea53e93	-0.32274303
151	0xbe86a2ba	-0.26296026
152	0xbe131fed	-0.14367647
153	0xbe964c91	-0.2935529
154	0xbe0c6be5	-0.13713033
155	0xbe9065d1	-0.2820268
156	0xbccb8bfd	-0.024847025
157	0x3cab75b4	0.020930149
158	0x3e2c7b02	0.16843799
159	0x3e70c423	0.2351232
160	0xbe1dff46	-0.1542941
161	0x3c35e4f2	0.011101948
162	0xbe1a083f	-0.15042208
163	0x3c4437d9	0.011976206
164	0x3e4fa93b	0.202794
165	0xbe81ef94	-0.25378096
166	0xbdb0e59b	-0.08637544
167	0xbeb6639a	-0.35622865
168	0xbe576d2f	-0.21037744
169	0x3d74248c	0.059605166
170	0xbd8ea865	-0.069657125
171	0xbe96f805	-0.294861
172	0xbe7f18dd	-0.24911828
173	0xbe714894	-0.23562843
174	0x3da640c8	0.08117825
175	0xbd3e8ada	-0.046519138
176	0x3ec20960	0.37897778
177	0x3d46b19b	0.04850922
178	0x3c15cc39	0.009142929
179	0x3e49dba8	0.19712698
180	0xbb2b2d1b	-0.0026119414
181	0x3d0855a2	0.03328479
182	0xbead2877	-0.33819935
183	0xbf347b6e	-0.7050084
184	0xbf2c6ec2	-0.67356503
185	0x3e80f3be	0.2518596
186	0x3e8a2b6c	0.26986253
187	0x3e49b50e	0.19697973
188	0xbd922e58	-0.071377456
189	0xbec9aca7	-0.39389536
190	0xbe0ed630	-0.13948894
191	0x3cd8cbc3	0.026464349
192	0x3e854ba7	0.2603428
193	0x3ea24fac	0.3170141
194	0x3d942c08	0.07234961
195	0xbe1d0306	-0.15333185
196	0x3bddd779	0.006770071
197	0x3eb45dd7	0.35227844
198	0x3e7fe9b3	0.24991493
199	0x3e83430c	0.2563709
200	0xbe8b3fff	-0.27197263
201	0x3d6358ce	0.055504613
202	0xbd89a7ad	-0.06721435
203	0x3dc3c68e	0.09559356
204	0x3dfe61af	0.124209754
205	0x3e6e5afd	0.23276897
206	0xbc9d54bc	-0.019205444
207	0xbe2e173e	-0.17001054
208	0xbe90b71f	-0.2826471
209	0x3cea169f	0.02857524
210	0x3ea77dc4	0.3271314
211	0x3bcb5ca6	0.006206113
212	0xbe0a9869	-0.13534702
213	0xbe8e5f3f	-0.27807042
214	0xbe08c819	-0.13357581
215	0x3c877ccd	0.016539002
216	0xbc21db34	-0.009878922
217	0xbebb0246	-0.36525172
218	0xbdfe24ed	-0.12409387
219	0xbe9fd07d	-0.3121375
220	0x3e3cf9cb	0.18454663
221	0x3dfbc2af	0.12292992
222	0xbe8853b0	-0.26626348
223	0x3c85d16d	0.016335214
224	0xbec24715	-0.37944856
225	0x3e934a4a	0.28767616
226	0x3e411d35	0.18858798
227	0xbdc9279c	-0.09822008
228	0xbe18ed62	-0.14934304
229	0xbdd9a1ed	-0.10626588
230	0x3e204928	0.15652907
231	0x3b1a1d73	0.0023516088
232	0xbe757825	-0.23971613
233	0xbf057c0c	-0.52142406
234	0xbec28990	-0.37995577
235	0x3e64ac1c	0.2233128
236	0x3cff8aa8	0.031194046
237	0xbd204030	-0.039123714
238	0xbe3bee79	-0.18352689
239	0xbe773379	-0.24140729
240	0xbd1ba7cc	-0.03800182
241	0x3d89aaac	0.06722006
242	0x3de8c44d	0.113655664
243	0x3ca078de	0.019588884
244	0xbcb83479	-0.022485958
245	0xbe3180a9	-0.17334236
246	0x3d9b5ff9	0.07586665
247	0xbad353af	-0.0016122962
248	0xbda3a156	-0.07989757
249	0xbd1e3152	-0.038621254
250	0x3d82a050	0.063782334
251	0x3ccadd09	0.0247636
252	0xbe447a31	-0.19187237
253	0xbd272587	-0.040807273
254	0xbdad3bf8	-0.08458704
255	0x3deabb24	0.114614755

features.3.bias f4 [16]
0	0xbd1251a4	-0.03572239
1	0x3e0c40e6	0.13696632
2	0x3ea3259f	0.3186464
3	0x3d92daa4	0.07170609
4	0x3e0b3f91	0.13598467
5	0xbcc891b3	-0.024483537
6	0xbd05fcea	-0.0327119
7	0x3b5777d1	0.0032877813
8	0x3e2d669c	0.16933674
9	0x3e6a4db0	0.22881198
10	0x3e01149b	0.12605517
11	0x3de1ce4d	0.11025677
12	0x3defceb4	0.11709347
13	0xbe5d6c89	-0.21623434
14	0xbe60d7e4	-0.21957356
15	0xbe05c7eb	-0.13064544

classifier.0.weight f4 [120, 400]
0	0xbcc822ac	-0.024430595
1	0xbd8733ac	-0.066016525
2	0xbd2e0297	-0.04248294
3	0x3a0b9291	0.00053242693
4	0xbd4d7414	-0.05015953
5	0xbd19b6c3	-0.03752781
6	0x3c9d0801	0.019168856
7	0xbc860398	-0.016359136
8	0x3d337dc2	0.043821104
9	0xbc41e06c	-0.0118332915
10	0xbd5de39e	-0.05417215
11	0x3c8d7d9d	0.017271811
12	0xbcc448e7	-0.023960544
13	0x3bc44954	0.0059901867
14	0xbd17d363	-0.03706683
15	0xbc955d58	-0.018232986
16	0xbb51c52b	-0.003200839
17	0x3d113835	0.035453994
18	0x3d267f10	0.04064852
19	0xbc9fe572	-0.019518588
20	0xbd7c1f12	-0.06155307
21	0xbcd5bb78	-0.026090369
22	0x3c883fd4	0.016631998
23	0xbc9b006f	-0.018921105
24	0xbcae89f2	-0.021306012
25	0x3c54813d	0.012970266
26	0x3c8fda55	0.017560164
27	0x3d5b2339	0.053500388
28	0x3b5f6fe4	0.0034093792
29	0xbb8ba6ea	-0.004261841
30	0xbd14b129	-0.036301766
31	0xbc386863	-0.0112553565
32	0x3c8daa73	0.01729319
33	0xbd219c10	-0.039455473
34	0xbce44fc6	-0.02787007
35	0xbc1779ab	-0.0092453165
36	0xbce706a5	-0.02820141
37	0xbcd3e79f	-0.025867281
38	0x3d885142	0.06656124
39	0xbcb18839	-0.021671401
40	0x3bb9324f	0.005651749
41	0xbd50bec3	-0.050963175
42	0xbcfaa722	-0.030597273
43	0x3cfc3c78	0.030790552
44	0x3d745f50	0.05966121
45	0xbca5e368	-0.020250037
46	0xbc864d85	-0.016394386
47	0xbd2b03d8	-0.041751713
48	0xbcfb027a	-0.03064083
49	0x3aba1f3a	0.001419998
50	0x3c611474	0.013737787
51	0x3d31b765	0.04338779
52	0xbd08b1d7	-0.033372726
53	0xbc13ee64	-0.009029005
54	0xbcbb3e61	-0.022856893
55	0xbb1037ac	-0.002200584
56	0x3d7d7c90	0.06188637
57	0x3d99c6be	0.0750861
58	0x3c8abf41	0.0169369
59	0xbcea56f6	-0.02860592
60	0xbb94bcf1	-0.004539125
61	0x3d8b91ab	0.06814893
62	0x3d55b9d2	0.052179165
63	0xbd202e79	-0.03910682
64	0xbd4c0cf7	-0.04981705
65	0x3cf0fbe3	0.029416984
66	0xbc8709ea	-0.01648422
67	0x3c980a61	0.018559637
68	0xbc59da57	-0.013296685
69	0xbd4657b1	-0.048423473
70	0xbbe9aecf	-0.0071314345
71	0x3c0f02fc	0.008728739
72	0xbc666ec5	-0.014064495
73	0x3d2272a0	0.039660096
74	0x3a25e6dd	0.0006328652
75	0xbc846a43	-0.01616395
76	0xbd2a3714	-0.041556433
77	0xbd16f2fe	-0.03685283
78	0x3d40260d	0.046911288
79	0xbccf23d6	-0.025285643
80	0x3cb3ebd1	0.021963032
81	0x3c884c0a	0.01663782
82	0xbd00ff31	-0.03149337
83	0x3d2394c9	0.039936814
84	0xbd08b13e	-0.033372156
85	0x3c34e959	0.011041963
86	0xbcd58e8a	-0.026068944
87	0xbd0c4844	-0.034248605
88	0x396e6c79	0.00022737858
89	0xbb9f1f10	-0.004855998
90	0xbc966dcf	-0.018362908
91	0x3d2ec151	0.04266483
92	0x3d188ae6	0.03724184
93	0x3c32ca91	0.010912553
94	0xbc8588c0	-0.016300559
95	0xbd12e4dd	-0.035862792
96	0xbca878a4	-0.020565338
97	0xbc4756c6	-0.0121666845
98	0x3cd3e4ef	0.025866
99	0x3c155628	0.0091147795
100	0xbd86ccfb	-0.06582066
101	0x3ce82c61	0.028341474
102	0x3d985fa7	0.07440119
103	0x3d465746	0.048423074
104	0xbbdf9a00	-0.006823778
105	0xbbb28567	-0.0054480317
106	0x3d321811	0.043479983
107	0x3cdfd00c	0.027320884
108	0xbc935e53	-0.017989313
109	0x3cdaeba2	0.026723687
110	0x3d1679c9	0.036737237
111	0xbd182ca5	-0.03715195
112	0xbd05fd6a	-0.032712378
113	0x3d469020	0.048477292
114	0x3ad38c16	0.0016139771
115	0xbae1e448	-0.0017234171
116	0xbc291730	-0.01032047
117	0xbd123128	-0.03569141
118	0x3c3fea0d	0.011713517
119	0x3d98f568	0.074686825
120	0x3d3ed3bc	0.046588644
121	0x3ce26fa9	0.027641134
122	0x3c9c1001	0.0190506
123	0x3d8bfabd	0.06834934
124	0x3ca13554	0.01967875
125	0xbd1a8c9b	-0.037731748
126	0x3c9d4fad	0.019203031
127	0x3e119e70	0.14220595
128	0xbcafe907	-0.02147342
129	0x3cba1389	0.022714393
130	0x3c390e14	0.01129486
131	0xbd59c8b2	-0.053169914
132	0x3dcb3ac8	0.09923321
133	0xba3f5e08	-0.00073000835
134	0xbc03ecb8	-0.008052044
135	0x3d124565	0.03571071
136	0x3c0403a3	0.008057508
137	0x3b4d044a	0.0031283074
138	0x3d67bac7	0.05657461
139	0xbd6d76a0	-0.057974458
140	0xbd2771a7	-0.04087987
141	0xbbb3c83c	-0.0054865163
142	0xbbcf16d7	-0.0063198614
143	0x3c86da61	0.016461553
144	0xbbca2fd4	-0.0061702523
145	0xbdb77c7e	-0.08959292
146	0x3d828988	0.06373888
147	0xbd5e7cfd	-0.054318417
148	0x3d500015	0.05078133
149	0x3dce6b27	0.100790314
150	0xbd39af58	-0.045333236
151	0x3caa14bd	0.020761842
152	0x3c168fdb	0.009189571
153	0xbd4945fd	-0.04913901
154	0xbc815645	-0.015788207
155	0xbd190505	-0.037358303
156	0x3d3300a7	0.043701794
157	0xbcaae52d	-0.020861233
158	0xbceb3760	-0.028712928
159	0xbd3afdc7	-0.045652177
160	0xbc6fdca6	-0.014640009
161	0xbcb41197	-0.021981044
162	0x3d3257b5	0.043540675
163	0xbce1a811	-0.02754596
164	0xbccd4d36	-0.025061231
165	0xbd25689e	-0.040382974
166	0x3ba5fce3	0.005065547
167	0x3b3cb2b7	0.0028793046
168	0x3d2251df	0.03962886
169	0x3c71d2c6	0.014759725
170	0x3c65d518	0.014027856
171	0xbcef6e50	-0.029227406
172	0x3c977df9	0.018492686
173	0x3c4caf97	0.012493036
174	0xba8da7e7	-0.0010807485
175	0x3cc724d1	0.024309548
176	0xbdaa025a	-0.0830123
177	0x3bc24042	0.0059280703
178	0xbccf65b1	-0.025317045
179	0xbd4a62c4	-0.049410596
180	0xbd2286ba	-0.039679267
181	0xbd85e228	-0.065372765
182	0x3dcdb9ec	0.100452274
183	0xbd9afc18	-0.07567614
184	0xbc515dd4	-0.012778718
185	0x3d10c851	0.035347287
186	0xbd2689e8	-0.04065886
187	0xbbb98946	-0.005662116
188	0x3cf1c024	0.029510565
189	0xbccd4c02	-0.025060657
190	0x3c803077	0.01564811
191	0x3d34f9e9	0.044183645
192	0xbcca5efd	-0.024703497
193	0xbc5f6ea5	-0.01363722
194	0x3dbb0fe9	0.09133894
195	0xbd8a3e7e	-0.06750201
196	0xbc0512e5	-0.008122181
197	0xbca9cc39	-0.020727264
198	0x3cb97843	0.022640353
199	0x3b920560	0.004456207
200	0x3d47e118	0.04879865
201	0xbd4d04f9	-0.05005357
202	0xbd209237	-0.03920194
203	0xbd0a3bf5	-0.033748586
204	0x3c536ee4	0.012904856
205	0x3c468378	0.0121163055
206	0x3cf14568	0.02945204
207	0xbca1afe0	-0.019737184
208	0x3e1006de	0.1406512
209	0xbd7d01be	-0.06176924
210	0x3ba7d699	0.0051220176
211	0x3d37f9c7	0.04491594
212	0x3d90230e	0.07037936
213	0x3c9de2c2	0.019273166
214	0xbbe1cb72	-0.0068907076
215	0xbc3f635c	-0.011681404
216	0x3d2bf2f1	0.041979734
217	0x3d525635	0.051351745
218	0xbcdb8c13	-0.026800191
219	0xbd77e9a6	-0.06052556
220	0xbc1e8ea7	-0.009677566
221	0x3d4e50cb	0.05037002
222	0x3dc87624	0.097881585
223	0xbd304c5a	-0.043041565
224	0xbc38aadb	-0.011271204
225	0xbd4732f7	-0.04863259
226	0xbcd77354	-0.02630011
227	0xbd192131	-0.03738517
228	0xbc5ed152	-0.013599711
229	0x3d640e62	0.05567778
230	0x3c5fb919	0.013654971
231	0xbc4befd6	-0.012447318
232	0x3c027ffd	0.007965085
233	0x3d040d72	0.032239385
234	0x3cd0da98	0.025494859
235	0xbcb81c11	-0.02247432
236	0xbd4b6dbb	-0.049665194
237	0x3c830c92	0.015997205
238	0x3ccfa251	0.025345953
239	0x3c128cf0	0.008944735
240	0xba86f657	-0.0010296804
241	0xbd17ba60	-0.037042975
242	0xbacb069f	-0.0015489644
243	0xbcbd07cd	-0.023075009
244	0xbc97d7a7	-0.018535448
245	0xbd457d13	-0.048214983
246	0x3ce74ad9	0.028233932
247	0x3cf2519b	0.029579928
248	0xbd535b50	-0.051600754
249	0xbcd6cd10	-0.026220828
250	0xbcf4a138	-0.029862031
251	0x3d216671	0.039404336
252	0x3a8ea0d8	0.0010881675
253	0xbd0aa01a	-0.03384409
254	0x3d181ed5	0.03713878
255	0xbc27ebb1	-0.010249064

classifier.0.bias f4 [120]
0	0x3d3d80a6	0.046265267
1	0x3d5a1b27	0.05324855
2	0xbce05ba9	-0.027387457
3	0xbd30aa21	-0.043130998
4	0xbc2c9521	-0.010533602
5	0x3d540c6c	0.05176966
6	0xbd967229	-0.07345993
7	0xbb8e3b85	-0.0043405914
8	0xbe4004d0	-0.18751836
9	0xbd753fd9	-0.059875343
10	0xbd885e8b	-0.06658658
11	0x3d3bf38b	0.045886558
12	0x3c2ed8cd	0.0106718065
13	0x3d9a702b	0.075409256
14	0x3dbcd585	0.09220413
15	0xbcec7de2	-0.02886862
16	0xbe22a549	-0.15883364
17	0x3c0d006a	0.008606056
18	0x3c4286a5	0.011872922
19	0x3d91ae5a	0.07113333
20	0x3c4958ae	0.012289209
21	0xbd1692b3	-0.036760997
22	0xbdb1f515	-0.08689324
23	0x3dd23d2c	0.10265574
24	0x3d189fe4	0.03726186
25	0xbc6aea72	-0.014338123
26	0xbbf6e4a6	-0.0075345812
27	0xbd4dd249	-0.05024937
28	0x3d0b3d20	0.03399384
29	0x3c84d9f1	0.016217204
30	0x3c212f05	0.0098378705
31	0x3c03cda4	0.008044634
32	0x3d3763a7	0.04477277
33	0xbe0d20a7	-0.13781987
34	0xbd6a7e5e	-0.05724942
35	0xbc063a55	-0.008192618
36	0x3d25b6f7	0.040457692
37	0xbd8c322d	-0.06845508
38	0xbb81484b	-0.0039453856
39	0x39f4b35c	0.0004667294
40	0xbd7db157	-0.061936703
41	0xbc72425f	-0.014786332
42	0xbd9c9db2	-0.076472655
43	0xbdc34a81	-0.09535695
44	0x3d256989	0.04038385
45	0x3c6ff98e	0.014646901
46	0xbe4bd162	-0.19904092
47	0x3e21c951	0.15799452
48	0x3bef8603	0.0073096766
49	0xbcc55d09	-0.024092214
50	0xbbd4a5f6	-0.0064895106
51	0x3d63ac69	0.055584345
52	0xbbaf37a8	-0.005347211
53	0xbd6328b8	-0.055458754
54	0x3d11972f	0.03554457
55	0x3e1fd553	0.1560872
56	0x3d9d1c0d	0.07671366
57	0xbd5d33e6	-0.054004572
58	0x3bea7ab9	0.007155743
59	0x3dd1311b	0.10214444
60	0xbd1f19ba	-0.038842894
61	0x3d3e3ae4	0.04644288
62	0x3c9697e3	0.018382972
63	0x3d723a0e	0.059137397
64	0xbca09cf5	-0.019606093
65	0xbbcdf7b4	-0.006285632
66	0x3c6253ef	0.013813957
67	0x3e044647	0.12917434
68	0xbd5b5aa1	-0.053553227
69	0xbcc3cbfd	-0.02390098
70	0xbc948138	-0.018128023
71	0xbd3a65fc	-0.045507416
72	0xbc412778	-0.011789195
73	0xbd1532d2	-0.03642542
74	0xbc7faa24	-0.0156045295
75	0xbcad9619	-0.021189736
76	0x3b411c47	0.0029466318
77	0x3d924208	0.07141501
78	0x3bea0d4d	0.007142699
79	0xbdb922dd	-0.09039853
80	0xbe342762	-0.17593148
81	0x3db5148a	0.08841808
82	0xbd9723e4	-0.073798925
83	0xbca9f7fd	-0.020748133
84	0x3d9fc25d	0.07800744
85	0xbd60715e	-0.054795615
86	0xbd36d90f	-0.044640597
87	0xbbe3ce4a	-0.006952082
88	0xbdcf26fc	-0.101148576
89	0xbd0e635a	-0.034762718
90	0xbbdc95ce	-0.0067317253
91	0xbd03ba24	-0.03215994
92	0x3c90a264	0.017655559
93	0xbbc3ea7e	-0.0059788814
94	0x3d382af4	0.04496284
95	0xbb63d52e	-0.0034764516
96	0xbc8f2ec6	-0.017478358
97	0xbd38a1b2	-0.04507608
98	0xbd2456b2	-0.04012174
99	0x3a0bc763	0.000533214
100	0xbde90578	-0.11377996
101	0xbd396a7c	-0.045267567
102	0x3d4682c1	0.04846454
103	0xbc020664	-0.007936094
104	0xbd604748	-0.05475548
105	0x3d5d1346	0.05397346
106	0x3d0a8b05	0.033823986
107	0x3c3ca77f	0.011514544
108	0x3db4f5a9	0.088359185
109	0xbcd1c842	-0.025608186
110	0x3d0c81aa	0.034303345
111	0xbe14d4b1	-0.1453426
112	0xbb32fa03	-0.0027309663
113	0x3dede766	0.116164014
114	0x3c35237a	0.011055822
115	0xbab52fa0	-0.0013823397
116	0x3bdd4a10	0.0067532137
117	0x3d250da3	0.040296208
118	0x3bd3e815	0.0064668753
119	0x3c8dbc87	0.01730181

classifier.2.weight f4 [84, 120]
0	0xbe026c76	-0.12736687
1	0xbe0b05eb	-0.13576476
2	0x3d7d3012	0.06181342
3	0x3d941986	0.07231431
4	0x3d13445b	0.03595386
5	0xbcdd83a2	-0.027040306
6	0x3e382345	0.17982204
7	0xbceb3127	-0.028709961
8	0x3e14b0cd	0.14520569
9	0xbcfaf22b	-0.030633053
10	0xbc4e6e9f	-0.012599616
11	0x3dc102e4	0.094243795
12	0xbcc44d14	-0.023962535
13	0xbdfe7d36	-0.12426226
14	0xbe4cc27b	-0.19996063
15	0xbd5d2f23	-0.05400003
16	0xbda5e2af	-0.08099877
17	0xbd112f1b	-0.035445314
18	0xbe359b29	-0.1773497
19	0xbdd8e2e2	-0.105901495
20	0x3db951f6	0.09048836
21	0xbc2229bc	-0.009897646
22	0x3e46b61a	0.19405404
23	0x3dfa25ce	0.12214242
24	0x3db271ef	0.08713137
25	0x3cf592fc	0.029977314
26	0x3df0281e	0.11726402
27	0x3e282b3d	0.16422744
28	0xbd78b649	-0.060720716
29	0x3da7aa5c	0.0818679
30	0x3b81124b	0.0039389483
31	0x3e705cb5	0.23472865
32	0xbd7d8f62	-0.06190432
33	0x3e527aa7	0.205546
34	0x3af7788f	0.0018880534
35	0xbd84330f	-0.06455051
36	0xbdee3bb4	-0.11632481
37	0x3e2ed87a	0.17074767
38	0xbc8c9a52	-0.01716343
39	0x3d6f54c8	0.058430463
40	0x3d27de72	0.040983625
41	0x3e9841c0	0.29737663
42	0x3dea788a	0.11448772
43	0xbd63a1c9	-0.055574212
44	0x3caaa7bc	0.020831935
45	0xbdbfa173	-0.09356966
46	0x3e3e43a9	0.18580498
47	0x3e1eb687	0.15499316
48	0x3c844ba4	0.01614935
49	0x3d0b09d5	0.033944923
50	0x3d61f0f9	0.05516145
51	0xbd52e800	-0.051490784
52	0x3dbaec6b	0.091271244
53	0x3d67458d	0.056462813
54	0xbda148b0	-0.07875192
55	0xbcb58f12	-0.022162948
56	0xbe49afd6	-0.19695982
57	0xbe47905f	-0.19488667
58	0x3c8c9564	0.017161079
59	0xbdf7c86d	-0.12098775
60	0x3dab507d	0.08364961
61	0xbe23f6e6	-0.16012153
62	0xbbd963f0	-0.006634228
63	0x3d9fcad2	0.07802357
64	0xbd44d47a	-0.048054196
65	0xbd64e422	-0.055881627
66	0x3e00acc7	0.1256591
67	0x3b323a0b	0.002719524
68	0xbe11da3f	-0.1424341
69	0x3e1990b7	0.1499661
70	0xbcfa6fa5	-0.030570814
71	0xbe1aafcb	-0.15106122
72	0xbd22266d	-0.039587427
73	0xbd1a2698	-0.037634462
74	0xbe00f414	-0.12593108
75	0x3db1bce7	0.086786084
76	0xbd7e6015	-0.06210335
77	0xbd94ba48	-0.07262093
78	0x3d95b1a5	0.07309274
79	0x3c86e909	0.016468542
80	0x3df6577c	0.12028405
81	0x3e252658	0.16127908
82	0x3dd45eda	0.10369654
83	0xbd4902ee	-0.04907506
84	0xbe336c33	-0.17521743
85	0xbd4dcc27	-0.050243523
86	0xbd8666d7	-0.06562584
87	0x3c055c7c	0.008139726
88	0x3e2cf8e1	0.16891815
89	0xbd1ab967	-0.03777447
90	0xbcf87926	-0.030331206
91	0x3cb98d73	0.022650456
92	0x3d8e201e	0.069397196
93	0xbe2e90a5	-0.17047365
94	0xbe43d127	-0.19122754
95	0x3dcf7d1a	0.10131283
96	0x3d07ca15	0.033151705
97	0xbe261551	-0.16219069
98	0x3e2720ed	0.16321154
99	0xbca926dd	-0.020648414
100	0xbba1442e	-0.0049214577
101	0xbd41a300	-0.04727459
102	0x3cc37b27	0.023862435
103	0x3eb5c45a	0.35501367
104	0x3e3b602b	0.18298404
105	0x3dbb8afd	0.09157369
106	0x3c922d30	0.017843813
107	0x3d4990d0	0.04921037
108	0x3c0a9cc6	0.008460229
109	0x3c86c989	0.016453521
110	0xbc6f6f52	-0.014613943
111	0x3c0bf026	0.008541143
112	0xbd66b8bd	-0.056328524
113	0xbcc5ce2e	-0.024146166
114	0xbd424095	-0.04742487
115	0x3e5f911c	0.21832699
116	0x3d6348e8	0.05548945
117	0x3da4ef18	0.08053416
118	0xbd7223e8	-0.059116274
119	0x3dc38f4b	0.09548815
120	0x3d9c0112	0.07617392
121	0x3d2418e7	0.04006281
122	0xbd24e10f	-0.040253695
123	0x3d27d16c	0.040971205
124	0x3d7a5eb5	0.061125476
125	0xbd0a135f	-0.03370988
126	0xbcd603e0	-0.026124895
127	0x3d207a3b	0.039179068
128	0xbd83b89a	-0.06431694
129	0x3d205c2e	0.03915041
130	0xbca56f03	-0.020194536
131	0x3a3803a6	0.00070195866
132	0xbd91fd1a	-0.071283534
133	0xbd99c2fc	-0.075078934
134	0xbd93dbce	-0.07219659
135	0xbd00fadc	-0.03148924
136	0x3d212a61	0.039347056
137	0x3d70cf5c	0.058791503
138	0xbd3dd130	-0.046342075
139	0xba54d7b9	-0.00081193034
140	0xbd9841ac	-0.07434401
141	0xbd9ae989	-0.075640745
142	0x3d5b1077	0.0534825
143	0x3d100e58	0.03516993
144	0xbd8d7842	-0.06907703
145	0xbd6c32e1	-0.05766571
146	0x3c57a525	0.013161932
147	0xbda62a2d	-0.08113513
148	0xb8f875de	-0.00011847516
149	0x3d6f26d3	0.058386635
150	0x3c2ff66b	0.010739903
151	0xbdabd488	-0.083901465
152	0xbce7a3f5	-0.028276423
153	0x3cf589b6	0.029972892
154	0xbbcb265b	-0.0061996407
155	0x3b87b453	0.0041413694
156	0xbd522673	-0.0513062
157	0x3ba76a94	0.0051091406
158	0x3d70142e	0.058612995
159	0xbd9ab477	-0.07553952
160	0xbd67d211	-0.05659682
161	0x3d56c3c8	0.052432805
162	0xbd3aa2fc	-0.04556559
163	0xbdaf3202	-0.0855446
164	0x3d99eabb	0.075154744
165	0xbd5fe6f6	-0.05466362
166	0xbd300747	-0.04297569
167	0xbd76c3bb	-0.060245257
168	0x3d9dc39f	0.077033274
169	0xbd8dda00	-0.06926346
170	0x3c8926b3	0.016742086
171	0x3c95af6f	0.01827213
172	0xbd449714	-0.04799564
173	0xbd4bdb21	-0.049769524
174	0x3cd1a925	0.02559335
175	0xbd39c692	-0.045355387
176	0x3d33cd5f	0.04389703
177	0x3c95b940	0.01827681
178	0x3d729552	0.059224434
179	0xbcb4b3e8	-0.022058442
180	0x3a167175	0.00057389523
181	0xbd9aced8	-0.075589836
182	0xbd280aa9	-0.04102579
183	0x3ba5ef5b	0.005063934
184	0x3d5a9948	0.053368837
185	0x3d96f1cf	0.0737034
186	0xbc587019	-0.01321032
187	0xbd9d4b7f	-0.07680415
188	0xbdbe7399	-0.09299392
189	0xbd7f9ebe	-0.062407248
190	0xbd2e5095	-0.042557318
191	0xbda5f502	-0.08103372
192	0x3da4dc3c	0.08049819
193	0xbd8db593	-0.06919398
194	0xbd104533	-0.035222244
195	0xbcb5cc7c	-0.022192232
196	0x3db9e55f	0.09076952
197	0xbd4d9cfc	-0.05019854
198	0x3c6c8059	0.014434897
199	0xbc9ecbde	-0.01938432
200	0xbd82ad12	-0.06380667
201	0xbd7abb2d	-0.06121366
202	0xbcc5611e	-0.02409416
203	0xbbac32c3	-0.0052550747
204	0x3d6c2397	0.05765113
205	0xbd91806c	-0.07104573
206	0x3d4add7d	0.049527634
207	0x3c495298	0.012287758
208	0xbc06c9c5	-0.008226817
209	0xbc0b73c2	-0.0085114855
210	0xbcf6f787	-0.030147327
211	0x3d4ef78b	0.050529044
212	0x3d968139	0.07348866
213	0x3ceec51e	0.029146727
214	0xbcc543cd	-0.024080181
215	0xbcf9915f	-0.030464826
216	0xbda7fe1d	-0.08202765
217	0xbd71e7a4	-0.0590588
218	0xbd281f97	-0.04104575
219	0xba85fc58	-0.0010222299
220	0xbd2ac6e8	-0.041693598
221	0x3d7767f3	0.060401868
222	0x3c87f0f9	0.016594397
223	0xbca9b468	-0.020715907
224	0x3b501233	0.0031749129
225	0x3cfa314b	0.030541083
226	0xbdafcc1d	-0.085838534
227	0xbd789e42	-0.0606978
228	0x3d9f59fe	0.077808365
229	0xbd955e93	-0.07293429
230	0xbd5ca99f	-0.0538727
231	0xbd1d5ae9	-0.038416777
232	0x3b9cb8dc	0.004782779
233	0x3d28332f	0.041064437
234	0xbd2c9094	-0.042130068
235	0xbd65777e	-0.05602216
236	0x3d715ee8	0.0589284
237	0x3d2d6001	0.042327885
238	0xbd4dd016	-0.050247274
239	0xbd53d205	-0.051713962
240	0xbd1ed9bf	-0.038781878
241	0xbdb55769	-0.08854563
242	0x3ba67c94	0.005080769
243	0xbe20c1aa	-0.15698877
244	0xbd9b9e10	-0.075985074
245	0xbd58cf96	-0.052932344
246	0x3da4091a	0.080095485
247	0x3dcf44cb	0.10120543
248	0x3e6cde94	0.23131782
249	0x3c9e1530	0.019297212
250	0x3e0e34ea	0.13887373
251	0x3d542bf5	0.051799733
252	0xbcbc7b50	-0.023008019
253	0xbd76bec4	-0.060240522
254	0xbdb7ab6c	-0.08968243
255	0x3df4da6a	0.11955722

classifier.2.bias f4 [84]
0	0xbe1a0ff0	-0.15045142
1	0xbc8d38cb	-0.017238995
2	0xbe60589f	-0.21908806
3	0x3db264e0	0.08710647
4	0xbce7503c	-0.0282365
5	0x3dc6440b	0.09680947
6	0x3d97bd06	0.074091
7	0xbe1539bf	-0.1457281
8	0xbbbed7ea	-0.005824079
9	0x3b90a3c8	0.0044140555
10	0xbd018d97	-0.03162917
11	0xbca57c4b	-0.020200869
12	0x3db1e2c7	0.086858325
13	0xbd13f803	-0.036125194
14	0x3dcd0232	0.10010184
15	0xbc141f14	-0.009040613
16	0xbdda974b	-0.10673388
17	0x3b9f7fed	0.004867545
18	0xbd84dfd0	-0.06488001
19	0xbd8ab901	-0.06773568
20	0x3cf13e5f	0.029448686
21	0x3dbcc9e0	0.09218192
22	0x3ce3b17c	0.027794592
23	0xbd8e41b3	-0.06946125
24	0x3be7a678	0.007069405
25	0xbe856540	-0.2605381
26	0x3c91ada0	0.017782986
27	0xbd481184	-0.04884483
28	0x3e0565dc	0.13027138
29	0x3df33ceb	0.118768536
30	0xbe014e7c	-0.12627596
31	0xbda7589c	-0.08171198
32	0x3bd1c7a5	0.0064019733
33	0x3e4312f1	0.19050194
34	0x3d7000de	0.058594577
35	0x3d683c76	0.056698285
36	0x3e3221f8	0.1739577
37	0x3c1a0fb5	0.009403159
38	0xbcb60715	-0.022220174
39	0x3cccc09d	0.024994189
40	0xbddf0719	-0.10890026
41	0xbd165331	-0.03670043
42	0xbc668556	-0.014069876
43	0xbba0ecbe	-0.0049110344
44	0x3dac4bab	0.0841287
45	0x3d040d7e	0.03223943
46	0x3d68339b	0.05668984
47	0xbe3dd4ae	-0.18538162
48	0x3da53ed2	0.08068623
49	0xbd9de4fd	-0.07709692
50	0x3e5cfb4e	0.2158024
51	0x3df9295f	0.12166094
52	0xbd58b8ff	-0.0529108
53	0xbcc2dde0	-0.023787439
54	0x3b80bc74	0.0039287154
55	0x3e89fb4d	0.2694954
56	0xbd8f07a2	-0.06983878
57	0xbd978b14	-0.07399574
58	0x3cd9023a	0.02649032
59	0xbc5569bd	-0.013025698
60	0xbd8409d8	-0.0644719
61	0x3c97242d	0.018449867
62	0x3dde403a	0.10852094
63	0xbd3a3f8b	-0.045470756
64	0x3e1ecd12	0.15507916
65	0x3e03a580	0.12856102
66	0x3c91a3f0	0.017778367
67	0x3d7522ab	0.059847515
68	0xbd9d13fa	-0.07669826
69	0x3e6613f1	0.22468545
70	0x3c2619c6	0.010137981
71	0xbe179255	-0.14801915
72	0x3df4e2e4	0.119573385
73	0x3d6c9352	0.057757683
74	0xbe0e236f	-0.13880704
75	0x392e4103	0.00016618152
76	0xbe13c4d0	-0.14430547
77	0x3d7d3652	0.061819382
78	0xbacf5f02	-0.0015821161
79	0x3e39e0df	0.18152188
80	0x3cb5a375	0.022172669
81	0xbb814600	-0.003945112
82	0x3dc46726	0.095899865
83	0xbdac8814	-0.08424392

fc.weight f4 [10, 84]
0	0xbe1d8677	-0.15383326
1	0xbdae25e4	-0.08503321
2	0xba7e6c86	-0.00097055023
3	0xbe2caa7e	-0.16861913
4	0xbd27a9ac	-0.040933296
5	0xbe9678f9	-0.2938917
6	0x3e493390	0.19648576
7	0x3d9f6ecf	0.07784807
8	0x3e453e01	0.19261934
9	0xbd29a666	-0.041418456
10	0x3efbe2ed	0.49196568
11	0x3df3a8b4	0.11897412
12	0xbd93cd4e	-0.07216893
13	0xbccca324	-0.024980135
14	0x3e342508	0.17592251
15	0x3d902078	0.07037443
16	0xbe4b7f3c	-0.19872755
17	0x3bad9e3a	0.005298403
18	0xbdf2f1da	-0.11862536
19	0xbd895bc0	-0.06706953
20	0xbeb0b9c4	-0.34516728
21	0x3e1f3b7e	0.15550038
22	0xbeee7eb0	-0.4658103
23	0xbd20208a	-0.03909353
24	0x3e255503	0.1614571
25	0xbe4e3f64	-0.20141369
26	0x3ec29fa2	0.38012415
27	0x3ec6d728	0.38836026
28	0x3bb82376	0.0056194616
29	0xbcdcbb49	-0.026944773
30	0xbd3e6c0c	-0.04648976
31	0x3e414b00	0.18876266
32	0x3eefba04	0.46821606
33	0x3e82bf65	0.25536647
34	0x3eed6734	0.463678
35	0xbed153fa	-0.40884382
36	0x3e151c06	0.14561471
37	0xbe6d0024	-0.23144585
38	0x3e157f33	0.14599304
39	0xbe695bb6	-0.22788891
40	0xbe935329	-0.28774384
41	0x3d9aaf37	0.07552951
42	0xbf2a61c6	-0.6655544
43	0xbde46e1e	-0.11153816
44	0x3e4f299e	0.2023072
45	0xbcc9a822	-0.024616305
46	0xbd66458e	-0.056218676
47	0xbe424766	-0.18972549
48	0x3eecdb86	0.46261233
49	0xbc625e1e	-0.013816385
50	0x3e96bc41	0.294405
51	0x3cb3a443	0.021928912
52	0xbca2da1c	-0.019879393
53	0xbf2eecd0	-0.683301
54	0xbf09dbef	-0.5385122
55	0x3ec55cf3	0.38547477
56	0xbe140319	-0.14454307
57	0xbe3418c4	-0.17587572
58	0x3e6bee91	0.23040225
59	0xbdfaef03	-0.12252619
60	0xbdc8aec5	-0.0979896
61	0xbf242414	-0.6411755
62	0xbe1c65bd	-0.15273185
63	0x3c8e2e3b	0.017356029
64	0xbd2f159c	-0.042745218
65	0xbd0bad84	-0.034101024
66	0xbd8ba328	-0.06818229
67	0xbcf61f02	-0.030044083
68	0x3e2b6fe4	0.16741902
69	0x3e80c6c1	0.25151637
70	0x3d03b3d0	0.032153904
71	0x3e019858	0.12655771
72	0x3e85898f	0.2608151
73	0x3d83504e	0.06411801
74	0xbe9c9eed	-0.3059
75	0xbe8caa58	-0.27473712
76	0xbe0e28a7	-0.13882695
77	0xbe88e665	-0.26738277
78	0x3e4ee8e6	0.20206031
79	0xbe269ed3	-0.16271524
80	0x3ec5d219	0.38636854
81	0x3e7c11f7	0.24616228
82	0xbe800b34	-0.25008547
83	0x3de1f6e9	0.110334225
84	0x3ec96656	0.3933589
85	0xbd8886ae	-0.06666313
86	0x3ed6d847	0.41961882
87	0xbdaba655	-0.08381335
88	0x3d7c76f0	0.061636865
89	0xbdf4096f	-0.11915862
90	0x3d675dcb	0.056485932
91	0xbd8a974d	-0.067671396
92	0xbd31889c	-0.04334317
93	0xbd216863	-0.03940619
94	0xbec8a0c4	-0.39185154
95	0x3d9d0569	0.076670475
96	0xbd86cd94	-0.0658218
97	0x3e0619c0	0.1309576
98	0xbdaed31e	-0.08536361
99	0x3db13605	0.086528815
100	0x3ed0f026	0.4080822
101	0x3d8f9984	0.07011703
102	0xbc466c8c	-0.0121108405
103	0x3d269e76	0.040678464
104	0xbe542212	-0.20716122
105	0xbe924f4d	-0.28576127
106	0xbdc774f5	-0.09739105
107	0xbdbc4d49	-0.091944285
108	0x3e8f318f	0.27967498
109	0xb98a38d2	-0.00026363746
110	0x3ec6942a	0.38784915
111	0x3e82701b	0.25476155
112	0x3d19f8eb	0.037590902
113	0xbd49adc4	-0.04923798
114	0xbd83c5a1	-0.06434179
115	0x3d9236d3	0.07139363
116	0xbf082d3a	-0.5319401
117	0xbcb3e179	-0.0219581
118	0xbcfb1fd6	-0.030654829
119	0xbd9330d0	-0.071870446
120	0x3ed05160	0.40687084
121	0x3e65f3a1	0.22456218
122	0x3ee3225b	0.4436215
123	0xbd6d54fc	-0.057942376
124	0x3d76c175	0.06024309
125	0xbd2c1160	-0.042008758
126	0xbeead6da	-0.45867044
127	0x3e7e10c6	0.24811086
128	0xbe9137f1	-0.28362992
129	0xbdb9147d	-0.09037111
130	0xbe1a5555	-0.15071614
131	0xba14dbb7	-0.0005678492
132	0xbbb1a388	-0.005421106
133	0x3d6da140	0.058015108
134	0xbdb43cdc	-0.088006705
135	0xbe1c301f	-0.15252732
136	0xbe85a04d	-0.26098862
137	0xbd8f1139	-0.06985707
138	0xbe85bc37	-0.2612016
139	0xbd7553fa	-0.05989454
140	0x3e51f3b8	0.20503128
141	0x3e0956e0	0.13412046
142	0xbd29ac76	-0.041424237
143	0x3e413499	0.1886772
144	0xbd81dcb5	-0.06340925
145	0xbe64064c	-0.22268027
146	0xbe5ce032	-0.21569899
147	0xbd684297	-0.05670413
148	0x3c471753	0.012151557
149	0xbced6533	-0.02897892
150	0xbe4ef324	-0.20209938
151	0x3dc75f52	0.09734978
152	0x3e8d54d6	0.27603787
153	0x3d941944	0.072313815
154	0x3e63ed8c	0.22258586
155	0xbe50fdae	-0.20409271
156	0xbe29b9e7	-0.16574822
157	0xbe30b9a7	-0.17258321
158	0x3e942509	0.28934506
159	0xbe0b1c21	-0.13584949
160	0x3ce8d9af	0.028424112
161	0x3e1cc947	0.15311156
162	0xbde6d234	-0.11270562
163	0xbdb9d7c6	-0.09074359
164	0x3e870e38	0.26378036
165	0xbe4f1596	-0.20223078
166	0x3e7242fd	0.23658367
167	0xbde14b22	-0.110006586
168	0x3e99f905	0.300728
169	0x3dbcc8ec	0.0921801
170	0xbea788a3	-0.32721433
171	0x3d539f61	0.051665667
172	0xbd5e0b74	-0.05421014
173	0x3c236234	0.009972144
174	0x3c92c836	0.017917734
175	0xbe8e9a0a	-0.27851897
176	0x3e97ecd1	0.29672864
177	0x3d766a33	0.060159873
178	0xbec66be0	-0.38754177
179	0x3d2d418d	0.042298842
180	0xbe890c56	-0.26767224
181	0x3dce5e9d	0.1007664
182	0x3ef046c0	0.46928978
183	0xbf0c7896	-0.548715
184	0x3eb15d46	0.34641474
185	0x3d53c927	0.051705506
186	0xbe5efe08	-0.21776593
187	0xbda4990c	-0.08037004
188	0xbed2cc35	-0.41171423
189	0xbdcdb4fc	-0.10044286
190	0x3e7b8804	0.24563605
191	0xbdd83d09	-0.105585165
192	0xbe22601e	-0.15856978
193	0xbe91a566	-0.28446501
194	0x3e875eb9	0.26439455
195	0xbed9e5ed	-0.42558232
196	0xbd6f7522	-0.058461316
197	0xbe974f8b	-0.29552874
198	0xbe925088	-0.28577065
199	0xbea2101f	-0.31652924
200	0xbed318e0	-0.41229916
201	0x3e8d85c1	0.2764111
202	0x3ead3147	0.33826658
203	0x3e9b5f13	0.30345973
204	0xbe2b486b	-0.16726844
205	0x3ec14936	0.37751168
206	0xbe951d2c	-0.2912382
207	0xbeb22978	-0.34797263
208	0xbda6e5a6	-0.08149271
209	0x3daf039f	0.085456125
210	0x3ecb35b8	0.39689422
211	0x3ecce746	0.40020198
212	0x3ef0f616	0.4706275
213	0x3c5ff054	0.0136681385
214	0xbdc50938	-0.09620899
215	0xbf538472	-0.8262397
216	0x3dc931d3	0.09823956
217	0x3e3e4fb1	0.18585087
218	0x3e5d2d30	0.21599269
219	0xbe26f547	-0.16304503
220	0xbe126953	-0.1429799
221	0x3c0a8fc8	0.008457132
222	0xbd1bcb74	-0.038035825
223	0x3ef85497	0.48502037
224	0x3d7d0ee7	0.06178179
225	0x3da14234	0.07873955
226	0xbc6a9cec	-0.01431964
227	0xbe0e0bbd	-0.13871665
228	0x3cbcd39d	0.023050124
229	0x3e89f3ea	0.26943904
230	0x3cf61daf	0.030043451
231	0xbda4e604	-0.080516845
232	0x3f1349f5	0.57534724
233	0x3d116a07	0.035501506
234	0x3de0310b	0.10946854
235	0xbd6d092a	-0.057870068
236	0xbec47f07	-0.38378164
237	0x3ec6fd38	0.38865066
238	0xbd616504	-0.055027977
239	0xbe3e0fdf	-0.18560742
240	0xbe73f3b7	-0.23823439
241	0x3e5d1ad0	0.2159226
242	0xbee54b93	-0.4478422
243	0x3e5447f7	0.20730577
244	0x3dc03507	0.09385114
245	0x3f0733ae	0.5281323
246	0xbb689110	-0.0035486855
247	0xbea722ce	-0.3264374
248	0xbe585927	-0.21127759
249	0xbed67974	-0.41889536
250	0x3c9528de	0.018207964
251	0xbdac2ae3	-0.084066175
252	0x3e29ba97	0.16575085
253	0xbdc38db1	-0.0954851
254	0x3eaea540	0.3411045
255	0x3df6b327	0.12045889

fc.bias f4 [10]
0	0x3de88c24	0.11354855
1	0x3c2e892f	0.010652824
2	0x3e09141d	0.13386579
3	0x3e2e63c1	0.1703024
4	0xbf1ff852	-0.6248828
5	0x3e558d45	0.20854671
6	0x3e888dd2	0.266707
7	0x3e1c035f	0.15235661
8	0xbe1dd351	-0.15412642
9	0xbe84b264	-0.2591735
