rand_models/LeNet5/avgcl3/r_0.5.pth (torch, 250460 bytes, 10 tensors)

features.0.weight f4 [6, 1, 5, 5]
0.35907197 -0.34502152 0.15901186 0.3382721 -0.33215702 0.2115424 0.018033082 0.29967168
0.4051687 -1.0559803 0.6427571 -0.52458906 0.25788373 0.738457 -0.7007413 0.51308566
-0.44137096 0.529619 0.5745713 -0.19439337 0.06339313 -0.51436836 -0.09286442 0.71097225
0.05860579 -0.3846765 0.14491448 0.9485356 0.8476538 -0.7651327 0.1695012 0.6138326
0.45142746 0.8358928 0.3731734 0.20015961 0.7693195 0.8826916 0.4202915 0.651046
0.12937386 0.2618778 0.57529855 0.06531032 0.43679845 -0.07110989 0.34065837 -0.076325685
0.11276962 0.062011637 0.00862793 -0.011308385 -0.5725386 0.11897828 0.7701468 -0.49291068
-0.78942525 -0.8768527 0.39478353 0.9152944 -0.54976946 -0.8871805 -0.9294698 0.10796561
1.220485 -0.1706483 -0.22990634 -0.5549636 0.21759202 0.8313228 0.87949526 -0.07481214
0.19807845 0.25042218 0.37249964 0.4813921 1.0327696 1.0095135 0.09525895 0.06584723
0.32874015 -0.09592948 -0.13840051 -0.20780134 0.22379756 -0.12588899 -0.797083 -1.1762339
-0.5982579 0.25380436 -0.09736101 -0.5959021 -1.1546222 -0.6819982 0.28187695 0.28068537
0.3250837 0.011100656 0.24013807 0.57361674 0.118246585 -0.12547472 -0.34862053 0.5132488
0.043009315 0.008400549 -0.33225954 -0.43460464 0.67539537 0.23896411 0.26521045 -0.04069431
-0.36738878 0.34220636 0.061308723 -0.18720363 0.32063448 -0.24643861 0.35022202 -0.013083308
0.07932942 0.0016992537 -0.34990814 0.4893514 0.010572691 -0.05965361 0.20713115 0.02439236
-0.15684387 -0.107597366 -0.14361002 -0.10674244 -0.018780356 -0.16176286 -0.013144455 0.039146896
0.04696207 -0.12732987 0.15445484 -0.018085795 -0.17572485 -0.18152043 -0.17930771 0.1051458
-0.11401429 -0.022888936 -0.07191756 -0.032057546 0.08619258 -0.13637857
00000000: 48d8 b73e a9a6 b0be 01d4 223e 0032 ad3e
00000010: 7c10 aabe 929e 583e 1dba 933c 916e 993e
00000020: 4672 cf3e 5d2a 87bf bb8b 243f 784b 06bf
00000030: 5609 843e 850b 3d3f c863 33bf 9559 033f
00000040: 60fb e1be 1c95 073f 1b17 133f 0e0f 47be
00000050: 42d4 813d a5ad 03bf b32f bebd 4702 363f
00000060: a00c 703d 51f4 c4be 7664 143e 3bd3 723f
00000070: d7ff 583f bddf 43bf b991 2d3e 2224 1d3f
00000080: 8021 e73e 12fd 553f 9510 bf3e a4f6 4c3e
00000090: 1ff2 443f 14f8 613f 7330 d73e f3aa 263f
000000a0: 957a 043e d914 863e c446 133f 6bc1 853d
000000b0: 0ca4 df3e 10a2 91bd c66a ae3e a450 9cbd
000000c0: c2f3 e63d eaff 7d3d 295c 0d3c ce46 39bc
000000d0: e491 12bf e2aa f33d 5728 453f ca5e fcbe
000000e0: c617 4abf 6b79 60bf 1121 ca3e bc50 6a3f
000000f0: b1bd 0cbf 431e 63bf bcf1 6dbf 131d dd3d
00000100: da38 9c3f 6ebe 2ebe 916c 6bbe 1812 0ebf
00000110: 71d0 5e3e 92d1 543f 9a26 613f 1b37 99bd
00000120: 14d5 4a3e 5637 803e 46b8 be3e 0679 f63e
00000130: cb31 843f bd37 813f 2017 c33d eada 863d
00000140: a150 a83e ad76 c4bd ddb8 0dbe e0c9 54be
00000150: 302b 653e 0be9 00be a20d 4cbf d58e 96bf
00000160: 6e27 19bf a5f2 813e 3665 c7bd 0a8d 18bf
00000170: a9ca 93bf 6f97 2ebf 2d52 903e feb5 8f3e
00000180: 5f71 a63e 87df 353c c1e6 753e 8cd8 123f
00000190: 442b f23d 727c 00be 647e b2be 4664 033f
000001a0: 892a 303d 75a2 093c ec1d aabe 8084 debe
000001b0: b6e6 2c3f 02b3 743e aac9 873e 14af 26bd
000001c0: 621a bcbe ac35 af3e db1e 7b3d 4fb2 3fbe
000001d0: 342a a43e 675a 7cbe 4d50 b33e 5f5b 56bc
000001e0: 7777 a23d 7eb9 de3a 2927 b3be 448c fa3e
000001f0: 1539 2d3c 5857 74bd 301a 543e 7dd2 c73c
00000200: ae9b 20be 025c dcbd 810e 13be c89b dabd
00000210: 43d9 99bc 2aa5 25be d75b 57bc 7f58 203d
00000220: 4d5b 403d c362 02be 6929 1e3e a928 94bc
00000230: 37f1 33be 7ee0 39be 719c 37be ae56 d73d
00000240: 5380 e9bd 9481 bbbc 8449 93bd c64e 03bd
00000250: bc85 b03d d3a6 0bbe

features.0.bias f4 [6]
-0.04605629 -0.059825838 0.71690357 0.54505056 -0.28877196 -0.038570188
00000000: 85a5 3cbd f00b 75bd fe86 373f 6f88 0b3f
00000010: ebd9 93be c6fb 1dbd

features.3.weight f4 [16, 6, 5, 5]
0.015198365 -0.034326285 -0.09804698 0.03145069 -0.02096285 -0.041376103 0.063848734 -0.017827371
-0.06439649 0.050613597 0.045248605 -0.03797878 0.019515298 0.067629375 0.06297621 0.123319544
0.08076801 0.05171481 0.042606156 0.03775561 0.092505075 0.053461336 -0.009076081 0.028238876
-0.06509632 -0.11364566 -0.12528433 -0.066431135 -0.03346269 -0.08529584 -0.09299376 -0.035783213
0.030402359 -0.019058594 -0.117548086 -0.05603719 -0.06479966 -0.074325085 0.015812358 -0.1608134
0.052940216 0.05353743 0.0691951 -0.11653663 -0.15369904 -0.026624255 0.117106654 0.1861335
-0.13822651 -0.17789404 0.021414338 0.045390073 0.05596866 -0.069163226 0.036647536 0.07481928
0.047093403 -0.019091811 -0.10258315 -0.018483886 0.14267568 0.15395017 0.06865412 -0.06588563
-0.044997115 0.015899926 0.17756294 -0.074752115 0.0022441351 -0.05037041 0.09906744 0.19382648
-0.12813263 0.055983543 0.11018364 0.1239013 -0.0071383864 0.03627623 -0.025420029 0.024074292
0.025403405 0.05321268 -0.025892476 -0.029346302 -0.03727135 0.08577179 0.016433315 0.08171245
0.046694748 0.0048519806 0.0413938 0.04994793 -0.07866372 -0.01618944 -0.03949232 0.0759522
-0.040187486 -0.079094365 0.051807106 0.012863319 -0.0026652887 0.037432317 0.027392225 0.0057443734
0.05405316 -0.0279076 0.08017346 0.059251923 -0.08258933 -0.0076771597 -0.001797679 -0.037553225
-0.04500705 -0.045205448 -0.013972032 0.03919253 0.004769184 -0.05329429 -0.0025032167 0.068192974
0.04616346 0.033412833 -0.030370614 -0.009704182 -0.006378881 0.05063535 0.04350845 0.01769792
0.014757355 -0.019431077 -0.03304996 0.050061245 0.017998505 0.08002586 0.053808156 -0.055584077
-0.01082083 -0.07038423 -0.06917108 -0.026184667 -0.003157721 0.02241262 -0.012998837 0.052309476
0.029692488 -0.012057427 -0.014052044 -0.030933362 0.034328956 0.008182771 0.058712095 -0.04144402
0.099516384 -0.12744913 -0.09592177 0.18041775 0.07346807 0.059889264 -0.13185517 0.06998975
0.13218549 0.04457195 0.004064907 -0.12718369 0.071358986 0.32545495 -0.0057542524 -0.026070038
-0.21485479 0.010906788 0.09367403 0.0159641 -0.13039224 -0.43026596 0.11294253 -0.15794936
0.31645456 0.07992782 -0.14032422 -1.0061345 -0.17925414 -0.012995839 -0.31660256 -0.056689385
-0.3401223 -0.20278552 0.23103039 -0.18915817 0.07119852 0.25299016 -0.13760391 0.19261716
0.22610341 0.42388666 0.2776192 -0.1581742 0.22929469 0.099781394 0.5462438 0.56928676
0.4383371 -0.011299624 -0.54825926 -0.40455988 -0.22758898 0.42332458 -0.14257987 0.031359777
0.12519337 -0.1477759 -0.020158656 0.04534873 -0.13146146 -0.10970003 -0.07547368 0.1262525
0.011243699 -0.11683025 -0.26911297 -0.08394005 0.12242906 -0.31155872 -0.31237116 -0.35887086
-0.19167095 -0.0025042663 -0.09505683 -0.05282375 -0.019954989 0.04743816 0.15907697 -0.2458848
0.058900494 -0.009781818 -0.118377134 -0.01117019 0.016874209 0.09575498 -0.073407404 -0.10725246
0.06054716 -0.2417424 -0.25444123 -0.17285515 -0.013607213 0.15998827 0.20656934 -0.023857592
0.12071833 0.0693809 0.18351097 0.0144686345 -0.21091777 -0.119670674 -0.19342051 -0.035145473
00000000: 9002 793c b899 0cbd dbcc c8bd 70d2 003d
00000010: 48ba abbc fd79 29bd 20c3 823d b50a 92bc
00000020: 4fe2 83bd 3450 4f3d 9a56 393d a38f 1bbd
00000030: 8cde 9f3c 4581 8a3d acf9 803d f58e fc3d
00000040: b369 a53d e9d2 533d cb83 2e3d a0a5 1a3d
00000050: 4d73 bd3d 46fa 5a3d d8b3 14bc 3755 e73c
00000060: 3851 85bd 0ebf e8bd 894a 00be 0c0d 88bd
00000070: 2c10 09bd 96af aebd 8373 bebd 6b91 12bd
00000080: 5e0e f93c c520 9cbc 0dbd f0bd 4187 65bd
00000090: afb5 84bd c037 98bd eb88 813c 45ac 24be
000000a0: d7d7 583d 104a 5b3d 29b6 8d3d c2aa eebd
000000b0: 4863 1dbe 1c1b dabc 9dd5 ef3d c899 3e3e
000000c0: 408b 0dbe db29 36be 1f6d af3c f1ea 393d
000000d0: 653f 653d 73a5 8dbd ba1b 163d da3a 993d
000000e0: 03e5 403d 6e66 9cbc 1d17 d2bd 856b 97bc
000000f0: 9319 123e 1da5 1d3e 889a 8c3d 0cef 86bd
00000100: e54e 38bd 9040 823c 0fd3 353e a317 99bd
00000110: 5712 133b 3451 4ebd dfe3 ca3d 737a 463e
00000120: 3335 03be 004f 653d f6a7 e13d f7bf fd3d
00000130: 20e9 e9bb 6296 143d aa3d d0bc 7337 c53c
00000140: cd1a d03c 8af5 593d 751c d4bc a867 f0bc
00000150: d8a9 18bd 1fa9 af3d 299f 863c db58 a73d
00000160: fe42 3f3d 5dfd 9e3b 8c8c 293d 3396 4c3d
00000170: 721a a1bd b79f 84bc b3c2 21bd d48c 9b3d
00000180: a29b 24bd 3afc a1bd b033 543d acc0 523c
00000190: 20ac 2ebb a152 193d a965 e03c 4c3b bc3b
000001a0: d966 5d3d 7b9e e4bc fc31 a43d 25b2 723d
000001b0: 9824 a9bd af90 fbbb 19a0 ebba 69d1 19bd
000001c0: 5059 38bd 5929 39bd f3ea 64bc 5988 203d
000001d0: d146 9c3b 1d4b 5abd 020d 24bb c2a8 8b3d
000001e0: e515 3d3d e5db 083d cbcb f8bc 4afe 1ebc
000001f0: ef05 d1bb 0367 4f3d eb35 323d 3afb 903c
00000200: d5c8 713c ec2d 9fbc 655f 07bd 050d 4d3d
00000210: 9a71 933c 99e4 a33d f165 5c3d 21ac 63bd
00000220: da49 31bc 9b25 90bd 91a9 8dbd 3a81 d6bc
00000230: c4f1 4ebb ac9a b73c 13f9 54bc 7642 563d
00000240: a93d f33c 848c 45bc 8b3a 66bc f667 fdbc
00000250: 859c 0c3d 0711 063c 187c 703d 34c1 29bd
00000260: 3fcf cb3d 0682 02be a272 c4bd 6ebf 383e
00000270: 6d76 963d 724e 753d 0b05 07be c956 8f3d
00000280: a25b 073e 1491 363d e932 853b 713c 02be
00000290: a924 923d 08a2 a63e 2b8e bcbb d590 d5bc
000002a0: e502 5cbe 62b2 323c 2bd8 bf3d 25c7 823c
000002b0: 8b85 05be d24b dcbe 6a4e e73d 7abd 21be
000002c0: 5506 a23e 32b1 a33d 27b1 0fbe 04c9 80bf
000002d0: 668e 37be 80ec 54bc bb19 a2be 2133 68bd
000002e0: 8324 aebe 02a7 4fbe 3b93 6c3e aeb2 41be
000002f0: 88d0 913d ed87 813e 0ae8 0cbe 6f3d 453e
00000300: a787 673e ac07 d93e 1b24 8e3e 6bf8 21be
00000310: 3acc 6a3e 305a cc3d a2d6 0b3f c7bc 113f
00000320: b86d e03e 0f22 39bc b85a 0cbf 7922 cfbe
00000330: 160d 69be 00be d83e 7500 12be 1c73 003d
00000340: b132 003e 9152 17be c423 a5bc 97bf 393d
00000350: d59d 06be 69aa e0bd f291 9abd 5648 013e
00000360: 7e37 383c b344 efbd 2dc9 89be c3e8 abbd
00000370: 16bc fa3d a084 9fbe 1def 9fbe ecbd b7be
00000380: 6445 44be 9e1e 24bb 28ad c2bd b75d 58bd
00000390: a578 a3bc 844e 423d 13e5 223e 3ac9 7bbe
000003a0: a541 713d eb43 20bc b66f f2bd 2c03 37bc
000003b0: c83b 8a3c 301b c43d 9f56 96bd 2ea7 dbbd
000003c0: 4d00 783d 528b 77be 1f46 82be f100 31be
000003d0: caf0 5ebc f7d3 233e ea86 533e ff70 c3bc
000003e0: 2c3b f73d 9317 8e3d 4dea 3b3e da0d 6d3c
000003f0: d4fa 57be e615 f5bd 0710 46be b3f4 0fbd

features.3.bias f4 [16]
-0.053181477 -0.02742436 -0.018222244 -0.039478227 0.042881537 0.01109207 0.024426946 -0.068572246
0.14837752 0.085371 -0.041500956 -0.041055873 0.13397466 0.17123006 -0.007152646 0.073259264
00000000: d2d4 59bd 0da9 e0bc d146 95bc ecb3 21bd
00000010: 8da4 2f3d 83bb 353c 051b c83c 9b6f 8cbd
00000020: 47f0 173e fed6 ae3d e8fc 29bd 342a 28bd
00000030: a730 093e ef56 2f3e be60 eabb f408 963d

classifier.0.weight f4 [120, 400]
0.012765161 0.04368751 -0.030681951 0.00058391027 0.061319422 0.020192042 -0.0032114729 0.028545486
0.051265888 0.0439765 -0.022913588 0.00074606336 -0.03298438 0.039326906 0.03517021 0.05238834
0.00040858335 -0.049142025 0.0038666888 0.000637686 -0.01026654 0.011341905 -0.031219656 0.02477076
0.015124575 0.04396562 -0.13761805 -0.15205462 -0.035768826 -0.06313147 0.16010009 -0.07572049
0.10005942 0.0054300716 0.10010992 -0.039709885 -0.047492113 0.10539369 0.041082673 0.0033143517
-0.12474968 0.018003218 0.17450419 -0.049775757 -0.18091649 -0.110343836 0.061984412 0.13139795
0.00019899067 0.0874459 0.051403195 -0.07672692 -0.08299592 -0.030995686 0.004856498 -0.074132964
-0.045934614 -0.13644385 -0.012545615 0.015113777 -0.102273636 0.07606737 0.06704405 -0.04889772
0.15047106 -0.0573955 -0.008689113 -0.019271452 -0.039996956 0.020314395 0.0078075323 0.1973884
-0.06173114 -0.051694315 -0.0019347259 0.0013962878 0.09621296 -0.12564632 0.028285868 0.0021466312
0.0021294954 0.02367218 -0.067904755 0.040162373 0.024866821 0.01998043 0.018685224 -0.035228346
-0.013542513 -0.035207003 -0.034797635 -0.034038972 0.0013544359 -0.00863418 -0.010699812 0.036611658
0.008277975 -0.0347425 -0.012116038 0.058861364 0.08573854 0.011150101 -0.04525442 -0.029627342
0.2110371 -0.0453179 0.008007766 -0.026711198 -0.0010668824 0.076378584 0.033740897 -0.008572674
0.0692496 -0.0235684 -0.07866847 -0.022038303 -0.020699624 -0.0026095677 -0.033837046 -0.08196539
-0.017451325 0.021544412 -0.041629847 -0.08753668 -0.1612599 0.0003618929 0.03291729 -0.035536695
0.052014384 0.0050144815 -0.120456845 -0.032062553 -0.1130284 -0.042889368 -0.013971941 -0.00013453027
-0.0965831 -0.07796243 0.04731246 0.04207775 -0.09067089 -0.106929354 0.031136185 0.040820364
-0.023573956 -0.17673492 -0.18317953 0.053259064 0.23133807 0.011609431 0.013464204 0.15184273
-0.031411234 -0.0018823004 -0.053805396 0.032905497 0.118522435 0.027897911 0.0054451423 0.012245519
-0.05685994 0.08036796 -0.037929017 0.04226617 0.004026074 -0.090505235 -0.023176389 -0.046007205
-0.04342124 0.11202485 0.07364443 0.025621139 -0.036476523 -0.025682038 -0.043053843 0.068528116
0.014779013 -0.039523087 -0.027165586 -0.021452604 -0.069436595 0.13548356 0.1101969 0.07316239
-0.001999497 -0.085572556 0.032041438 0.01784917 -0.0040817666 0.065700404 -0.052446026 -0.028306935
0.025412407 0.08538159 0.1098093 -0.09814486 -0.024903681 -0.08212466 -0.048080556 -0.051719345
0.020238645 0.19321091 -0.13513969 0.033129994 -0.057240035 0.0649134 0.07388915 0.15389152
0.031974792 0.05788325 -0.055369284 -0.006693041 0.01266138 -0.011116269 0.13104078 -0.011543716
-0.041542664 -0.10758652 -0.04263995 0.01442245 0.030365046 0.07528185 -0.03179973 0.15697746
0.054997645 -0.06291386 0.06361021 -0.10988416 0.19765371 -0.108323306 0.03958721 -0.044656225
-0.022402178 0.10609719 0.041903418 -0.03606854 3.6972557e-05 -0.038169328 0.012236856 -0.010149615
-0.035954904 -0.0039834357 -0.005735567 0.018139608 -0.14349793 0.05792098 0.034271903 0.0032457255
-0.017834537 0.022582408 0.04080229 -0.01640556 0.019185802 0.12154902 0.04702622 0.0021794818
00000000: f724 513c adf1 323d b758 fbbc 8e11 193a
00000010: 132a 7b3d c869 a53c 9377 52bb 39d8 e93c
00000020: 2efc 513d b420 343d 47b5 bbbc 7793 433a
00000030: a11a 07bd 4015 213d a30e 103d 2895 563d
00000040: 2137 d639 2649 49bd 4668 7d3b 622a 273a
00000050: fd34 28bc 66d3 393c 5dc0 ffbc 0dec ca3c
00000060: 11cd 773c 4b15 343d bfeb 0cbe 35b4 1bbe
00000070: 5582 12bd 124b 81bd 47f1 233e 5813 9bbd
00000080: f4eb cc3d beee b13b 6e06 cd3d d5a6 22bd
00000090: 1787 42bd a6d8 d73d 4e46 283d 9835 593b
000000a0: c37c ffbd 7c7b 933c 3ab1 323e aae1 4bbd
000000b0: 2c42 39be f3fb e1bd 5ee3 7d3d 2f8d 063e
000000c0: 27a8 5039 d616 b33d 288c 523d 0123 9dbd
000000d0: c4f9 a9bd aaea fdbc 4223 9f3b 06d3 97bd
000000e0: ef25 3cbd f0b7 0bbe 208c 4dbc c69f 773c
000000f0: d774 d1bd 36c9 9b3d 644e 893d fa48 48bd
00000100: 1615 1a3e 8b17 6bbd c85c 0ebc 2adf 9dbc
00000110: d9d3 23bd 606a a63c 54d6 ff3b 2f20 4a3e
00000120: cbd9 7cbd 6bbd 53bd a196 fdba a503 b73a
00000130: 4d0b c53d 6ea9 00be c4b7 e73c 7fae 0c3b
00000140: 018f 0b3b 29ec c13c a611 8bbd 4d81 243d
00000150: 81b5 cb3c 00ae a33c c111 993c 994b 10bd
00000160: 6be1 5dbc 3835 10bd f787 0ebd 736c 0bbd
00000170: 5487 b13a 6076 0dbc 444e 2fbc 1bf6 153d
00000180: 58a0 073c 274e 0ebd 5982 46bc 9d18 713d
00000190: b097 af3d eaae 363c b35c 39bd 0ab5 f2bc
000001a0: 1c1a 583e 439f 39bd 0133 033c 71d1 dabc
000001b0: a2d6 8bba 606c 9c3d e533 0a3d 6774 0cbc
000001c0: bcd2 8d3d 8412 c1bc ef1c a1bd ac89 b4bc
000001d0: 4292 a9bc 4805 2bbb b798 0abd 78dd a7bd
000001e0: 15f6 8ebc e87d b03c 0f84 2abd 6e46 b3bd
000001f0: 5121 25be 71bc bd39 48d4 063d ed8e 11bd
00000200: 090d 553d 8550 a43b 14b2 f6bd 0654 03bd
00000210: 6f7b e7bd c3ac 2fbd 91ea 64bc b210 0db9
00000220: 5ccd c5bd c4aa 9fbd b6ca 413d b859 2c3d
00000230: a9b1 b9bd c7fd dabd 5011 ff3c 4133 273d
00000240: 2b1e c1bc 00fa 34be 6a93 3bbe 2d26 5a3d
00000250: e3e3 6c3e 7c35 3e3c f798 5c3c a97c 1b3e
00000260: 11a9 00bd 85b7 f6ba 0c63 5cbd eac7 063d
00000270: e4bb f23d 298a e43c 2a6d b23b 6ea1 483c
00000280: f8e5 68bd f597 a43d 755b 1bbd 4b1f 2d3d
00000290: 28ed 833b cf5a b9bd 69dc bdbc 0d72 3cbd
000002a0: 78da 31bd 496d e53d e4d2 963d 6ce3 d13c
000002b0: 6868 15bd 2363 d2bc 3a59 30bd 7858 8c3d
000002c0: ac23 723c f6e2 21bd 5d8a debc 5fbd afbc
000002d0: c634 8ebd 34bc 0a3e eaae e13d 2ad6 953d
000002e0: fe09 03bb aa40 afbd e23d 033d 6c38 923c
000002f0: 57c0 85bb ef8d 863d a5d1 56bd f2e3 e7bc
00000300: ae2d d03c 8bdc ae3d b3e3 e03d 2c00 c9bd
00000310: ce02 ccbc f930 a8bd 1ef0 44bd aad7 53bd
00000320: 84cb a53c 15d9 453e 0f62 0abe 51b3 073d
00000330: 8774 6abd 51f1 843d 3253 973d bd95 1d3e
00000340: 00f8 023d fd16 6d3d e7ca 62bd 4c51 dbbb
00000350: ad71 4f3c 0321 36bc 8e2f 063e db21 3dbc
00000360: a428 2abd 5256 dcbd 3aa7 2ebd 244c 6c3c
00000370: 1ec0 f83c 5f2d 9a3d 6f40 02bd b3be 203e
00000380: 3645 613d fbd8 80bd 1246 823d f20a e1bd
00000390: bc65 4a3e 9cd8 ddbd 3326 223d 72e9 36bd
000003a0: c684 b7bc 7c49 d93d eba2 2b3d 9bbc 13bd
000003b0: fb12 1b38 7157 1cbd 187d 483c 924a 26bc
000003c0: 7345 13bd 7b87 82bb 6cf1 bbbb 8499 943c
000003d0: 1ff1 12be 8d3e 6d3d b260 0c3d 3db6 543b
000003e0: bc19 92bc befe b83c 4d20 273d f464 86bc
000003f0: 8b2b 9d3c b1ee f83d 919e 403d a3d5 0e3b

classifier.0.bias f4 [120]
0.013987844 -0.03891884 0.031474087 0.07518464 0.005458311 -0.15811281 -0.038376793 -0.043214425
-0.07121132 -0.055161644 0.052277993 0.019864291 0.010028943 0.0730334 0.012078426 -0.033973392
-0.01749469 -0.09147658 -0.010097859 -0.06100044 0.020316534 0.04507328 -0.02937831 0.03607538
0.061567165 0.05049852 -0.02514954 -0.06366842 0.020098515 -0.01196203 -0.038698852 0.027872553
0.04501181 -0.10524734 -0.020370532 -0.021256568 0.020656982 0.021750376 -0.021260416 0.099235564
-0.02971006 -0.024700372 0.048447303 0.009191166 0.044698186 -0.0057629733 0.0071611274 0.017204888
-0.013697716 0.12972203 -0.0041528023 0.040102158 0.076069355 0.048385724 -0.026182828 -0.010498831
-0.041143943 0.042509735 0.0036792636 -0.03484503 -0.09582846 -0.049426015 0.029780721 0.0051205247
-0.052032217 0.04304834 0.0782944 0.0323884 0.061728705 -0.03842145 0.021134807 -0.076317064
-0.008943255 0.016639302 0.049240172 0.031161072 -0.025454244 -0.053953703 -0.0090579605 -0.04313794
0.08652769 0.014058488 -0.03347524 0.08397243 0.05665709 0.08236485 4.767099e-05 0.016993232
-0.11592019 0.025028586 0.037146233 -0.010026813 0.06325612 -0.05056491 0.0135943685 -0.0016588937
-0.014109984 -0.053366765 -0.023262156 -0.025985697 0.11505471 -0.101919256 -0.024667079 -0.017818864
0.10098587 -0.058637682 -0.04152482 -0.03953911 -0.04924572 0.009383959 -0.067736745 -0.11032221
-0.03651676 0.040992804 0.010577701 -0.08897769 -0.041514896 -0.02734635 -0.01987255 -0.02129136
00000000: 452d 653c 5d69 1fbd f9ea 003d 68fa 993d
00000010: a2db b23b 53e8 21be fc30 1dbd 9c01 31bd
00000020: 3ed7 91bd 2df1 61bd 7321 563d 70ba a23c
00000030: 7050 243c 8992 953d 97e4 453c af27 0bbd
00000040: 0651 8fbc 1358 bbbd 7e71 25bc 99db 79bd
00000050: dc6e a63c c29e 383d c8aa f0bc c7c3 133d
00000060: da2d 7c3d 89d7 4e3d 6806 cebc 9764 82bd
00000070: a4a5 a43c 64fc 43bc b082 1ebd fb54 e43c
00000080: 4e5e 383d eb8b d7bd 1ae0 a6bc 4122 aebc
00000090: d538 a93c d82d b23c 532a aebc 043c cb3d
000000a0: 8362 f3bc 6f58 cabc ae70 463d 8b96 163c
000000b0: 7215 373d 53d7 bcbb e4a7 ea3b 44f1 8c3c
000000c0: 636c 60bc dad5 043e 3b14 88bb 2942 243d
000000d0: 40ca 9b3d 1c30 463d 5f7d d6bc 4a03 2cbc
000000e0: 8d86 28bd b01e 2e3d cd1f 713b aab9 0ebd
000000f0: b641 c4bd ef72 4abd b3f6 f33c 13ca a73b
00000100: bc1f 55bd 7553 303d d058 a03d b3a9 043d
00000110: 3dd7 7c3d cf5f 1dbd e722 ad3c 1f4c 9cbd
00000120: bb86 12bc 254f 883c 10b0 493d 8145 ff3c
00000130: 6b85 d0bc 8ffe 5cbd d767 14bc 69b1 30bd
00000140: 6e35 b13d 9355 663c 551d 09bd bdf9 ab3d
00000150: 4411 683d e7ae a83d 56f2 4738 6435 8b3c
00000160: 9167 edbd c008 cd3c a626 183d 8047 24bc
00000170: 6d8c 813d 271d 4fbd eaba 5e3c 3c6f d9ba
00000180: 902d 67bc 1c97 5abd 4790 bebc f5df d4bc
00000190: cea1 eb3d 0bbb d0bd 9d12 cabc def8 91bc
000001a0: aed1 ce3d 112e 70bd ee15 2abd c3f3 21bd
000001b0: e1b5 49bd 2dbf 193c 90b9 8abd 9cf0 e1bd
000001c0: 9992 15bd 12e8 273d 184e 2d3c ef39 b6bd
000001d0: 860b 2abd 7405 e0bc c2cb a2bc 386b aebc

classifier.2.weight f4 [84, 120]
-0.036356896 0.020256061 -0.112999536 -0.0125145335 0.047761474 0.043636814 -0.077317916 -0.060531776
0.067066364 0.03202942 0.06387589 0.024802256 -0.09159528 0.0661649 -0.020832602 0.06626237
0.03249429 0.106501006 -0.04008975 -0.045411028 0.06781934 -0.07555818 -0.08529865 -0.01949725
-0.020866575 0.09216912 0.023748474 -0.08241686 -0.120596565 0.048830464 -0.05083631 0.0009021665
0.049966298 0.18367827 -0.08647593 -0.071236104 -0.05443464 -0.004126274 0.13758631 0.0686982
0.04912948 -0.016909767 -0.089787915 -0.07620325 -0.014387153 -0.015501105 0.06705536 -0.050243106
0.03269123 0.11939898 0.07167468 0.0776861 0.055869333 0.028015511 0.014251976 0.045797486
0.043977197 -0.07628714 -0.03691967 0.120316885 0.04282029 -0.0856068 -0.04246692 0.058842044
0.012786969 -0.033175055 0.09325666 0.022017706 0.074061185 -0.055923883 -0.03285002 0.06810218
-0.07871396 -0.08033387 -0.097798675 -0.082583256 0.04617639 0.022222256 -0.04490421 0.037075017
0.0797384 0.07093415 -0.03972671 0.03541026 -0.0816584 -0.011368959 0.0677246 -0.08415728
-0.092032306 -0.08709357 0.05766595 0.08231889 -0.04839108 0.11317047 -0.093101166 0.08032142
-0.024175132 -0.0081635555 0.027780052 -0.044730753 -0.024637215 0.04284757 -0.005368029 0.0028608642
-0.032248404 0.07418306 0.01969157 0.05920368 -0.024716066 -0.06827353 0.07155194 0.05291802
-0.04664165 -0.036165174 0.046584006 0.050853256 -0.11674963 -0.082310684 0.048492648 -0.032468636
-0.16360328 0.011580175 0.29785773 -0.15007773 -0.09204985 -0.18219167 0.06921899 -0.25544873
-0.07346857 0.21483564 0.13593473 -0.07344674 -0.12196736 0.09835626 -0.03940144 0.0097215725
-0.052966498 0.04102065 0.060818803 0.046972 0.12832895 -0.04573331 -0.14836045 -0.054965757
-0.06390967 0.1531951 0.09648043 -0.23116119 -0.057110906 0.02159362 0.17029022 0.14722402
-0.20133588 -0.05202767 0.089858174 -0.07133495 -0.06071433 0.17266938 0.11605841 -0.081042886
0.0861691 -0.029802999 0.112453446 -0.085684836 -0.053149734 -0.21276979 0.2643785 0.023314567
0.0842899 0.045636665 0.03166388 0.20804939 -0.2347046 -0.0009057544 -0.10298405 0.21897985
0.046531923 0.106995076 0.06133155 -0.11905184 -0.17743136 0.018410113 0.19203362 -0.07519205
-0.040352948 0.23079367 -0.15931343 -0.014904463 -0.095335566 -0.16540001 0.04835014 0.17492461
0.28792596 0.21306826 -0.11308255 0.11024195 0.04798157 0.07185537 -0.058268797 -0.028020503
0.2096218 -0.070263706 -0.1421636 0.0016648202 -0.064071305 -0.26590908 -0.07171347 -0.0024806806
0.19798076 -0.3988147 0.09772822 0.0029052675 0.29006943 0.12169304 -0.014937193 0.063168846
-0.0678831 -0.18137547 -0.076903954 -0.09555946 -0.028845124 -0.04695637 0.05204798 -0.09623913
-0.17822556 -0.23115121 0.087315425 -0.061266363 -0.0418948 -0.023261014 0.13847926 0.025090188
-0.016290152 -0.03071454 -0.08525625 0.21227399 -0.024473747 0.06834286 -0.24911164 -0.12483945
0.115246095 0.004305682 -0.045384 0.017242014 -0.057980455 -0.030590944 -0.08799678 0.06447647
-0.0059305704 -0.02262575 0.006785531 -0.010066595 0.06225175 -0.016608175 -0.007141297 0.036819227
00000000: f8ea 14bd 0af0 a53c 4d6c e7bd c209 4dbc
00000010: 89a1 433d 84bc 323d db58 9ebd 2bf0 77bd
00000020: 175a 893d 4831 033d 5dd1 823d 1a2e cb3c
00000030: 4e96 bbbd 7781 873d 22a9 aabc 91b4 873d
00000040: bc18 053d 331d da3d 2635 24bd ea00 3abd
00000050: dee4 8a3d 3fbe 9abd 0fb1 aebd b2b8 9fbc
00000060: 61f0 aabc 2ac3 bc3d 298c c23c 2cca a8bd
00000070: 55fb f6bd 7402 483d bc39 50bd 5e7f 6c3a
00000080: 76a9 4c3d 2816 3c3e 4b1a b1bd 3ce4 91bd
00000090: dbf6 5ebd b235 87bb 6de3 0c3e a4b1 8c3d
000000a0: fe3b 493d 5a86 8abc bae2 b7bd 7310 9cbd
000000b0: 18b8 6bbc 59f8 7dbc 5254 893d b7cb 4dbd
000000c0: 3de7 053d 7487 f43d 2dca 923d e419 9f3d
000000d0: 3ed7 643d c980 e53c 1f81 693c 2596 3b3d
000000e0: 6f21 343d 6f3c 9cbd 1439 17bd b368 f63d
000000f0: 5464 2f3d 9e52 afbd cbf1 2dbd 5b04 713d
00000100: 6f80 513c 91e2 07bd 59fd be3d 7a5e b43c
00000110: 64ad 973d 7110 65bd be8d 06bd 2879 8b3d
00000120: c934 a1bd 1686 a4bd ac4a c8bd 6921 a9bd
00000130: 7423 3d3d 730b b63c 7aed 37bd f9db 173d
00000140: e34d a33d ec45 913d 7ab8 22bd 590a 113d
00000150: 853c a7bd df44 3abc 32b3 8a3d a75a acbd
00000160: 6f7b bcbd 1d5e b2bd 2233 6c3d ce96 a83d
00000170: ba35 46bd ebc5 e73d d3ab bebd 8f7f a43d
00000180: ed0a c6bc 6fc0 05bc fe92 e33c 9837 37bd
00000190: fcd3 c9bc ef80 2f3d 4ae6 afbb 567d 3b3b
000001a0: e716 04bd 4aed 973d 3750 a13c 8f7f 723d
000001b0: 5979 cabc fed2 8bbd d389 923d 91c0 583d
000001c0: 510b 3fbd ef21 14bd dfce 3e3d 814b 503d
000001d0: 6e1a efbd 8192 a8bd 3aa0 463d d5fd 04bd
000001e0: 9e87 27be c6ba 3d3c cf80 983e faad 19be
000001f0: a284 bcbd 7490 3abe b0c2 8d3d 2dca 82be
00000200: b176 96bd e0fd 5b3e 7932 0b3e 3f6b 96bd
00000210: 06ca f9bd 026f c93d 6863 21bd 3b47 1f3c
00000220: 66f3 58bd 4505 283d 231d 793d b665 403d
00000230: aa68 033e da52 3bbd cdeb 17be c623 61bd
00000240: 13e3 82bd 2ddf 1c3e 8897 c53d 85b5 6cbe
00000250: 20ed 69bd 1ae5 b03c 8f60 2e3e e5c1 163e
00000260: fe2a 4ebe f71a 55bd 9007 b83d 0f18 92bd
00000270: 97af 78bd 3ed0 303e 08b0 ed3d d0f9 a5bd
00000280: 6d79 b03d 6b25 f4bc fe4d e63d 887b afbd
00000290: 89b3 59bd 53e0 59be 9e5c 873e 31fe be3c
000002a0: 2fa0 ac3d 83ed 3a3d fcb1 013d e60a 553e
000002b0: 6756 70be 2670 6dba 4de9 d2bd 413c 603e
000002c0: 4298 3e3d 3c20 db3d cb36 7b3d 73d1 f3bd
000002d0: 91b0 35be ced0 963c 76a4 443e 4afe 99bd
000002e0: 2249 25bd 2d55 6c3e 0f23 23be d931 74bc
000002f0: 4b3f c3bd 9f5e 29be cc0a 463d 701f 333e
00000300: 086b 933e 912e 5a3e d397 e7bd 88c6 e13d
00000310: 5388 443d e928 933d 43ab 6ebd 418b e5bc
00000320: 19a7 563e 6be6 8fbd 5693 11be 1936 da3a
00000330: d137 83bd 3c25 88be 83de 92bd ea92 22bb
00000340: 78bb 4a3e 7131 ccbe bc25 c83d 4d66 3e3b
00000350: fb83 943e 333a f93d 21bb 74bc ab5e 813d
00000360: 4b06 8bbd 7eba 39be d27f 9dbd aeb4 c3bd
00000370: 9c4c ecbc 5355 40bd 4330 553d 0519 c5bd
00000380: c380 36be e7b2 6cbe 6ed2 b23d 70f2 7abd
00000390: e299 2bbd e28d bebc 82cd 0d3e f089 cd3c
000003a0: ed72 85bc 0f9d fbbc d49a aebd 5a5e 593e
000003b0: 2b7d c8bc 57f7 8b3d 1f17 7fbe d3ab ffbd
000003c0: 2506 ec3d ae16 8d3b 93e4 39bd 203f 8d3c
000003d0: ea7c 6dbd dc99 fabc a837 b4bd 3d0c 843d
000003e0: 3b55 c2bb a359 b9bc 2959 de3b 5cee 24bc
000003f0: b1fb 7e3d de0d 88bc 8b01 eabb c2cf 163d

classifier.2.bias f4 [84]
-0.095789365 0.12086124 -0.017359475 0.037537474 -0.030480018 -0.10584754 -0.006471813 0.013237027
0.10129693 0.009241201 -0.057949375 0.037784785 -0.03035659 0.011128332 0.108342476 -0.07209689
-0.07867492 0.1147779 0.030823467 0.112290874 -0.034953088 -0.09879305 -0.01224797 -0.1112937
-0.13777173 -0.0539641 -0.04656488 -0.22232822 -0.019368365 -0.0991018 0.15861559 -0.03070265
-0.036998905 0.08579787 -0.027955368 0.11684318 0.15174912 -0.050419357 -0.026607096 0.15785788
-0.056841474 0.06131254 0.06766021 -0.03160544 -0.13914128 0.042009164 -0.014257594 -0.10952132
0.11570549 -0.07186137 0.18015206 -0.0089496635 0.0996132 -0.014272367 0.0680256 0.0617662
-0.013301416 -0.037104107 0.0060468554 -0.07043014 0.09344114 0.00947388 -0.026413001 0.12293189
0.043963596 -0.07109173 -0.09656243 -0.06445341 0.004329408 -0.069763385 -0.07215114 -0.11305906
-0.035954993 0.08040887 0.1362207 0.047137897 -0.013962736 -0.04201196 0.062165067 -0.01749536
-0.043026224 0.038853217 -0.07999843 0.0229751
00000000: 372d c4bd 1986 f73d 7535 8ebc e5c0 193d
00000010: 3bb1 f9bc 98c6 d8bd 8111 d4bb 1ee0 583c
00000020: c474 cf3d 6868 173c 535c 6dbd 38c4 1a3d
00000030: 62ae f8bc 9b53 363c a9e2 dd3d 89a7 93bd
00000040: 5120 a1bd ad10 eb3d 7f81 fc3c c2f8 e53d
00000050: f82a 0fbd 0354 cabd b6ab 48bc f4ed e3bd
00000060: 0814 0dbe 7609 5dbd d1ba 3ebd 02aa 63be
00000070: 68aa 9ebc e2f5 cabd 206c 223e 2084 fbbc
00000080: 2a8c 17bd cbb6 af3d a802 e5bc 7a4b ef3d
00000090: 1f64 1b3e 8784 4ebd 20f7 d9bc 7fa5 213e
000000a0: 9bd2 68bd dc22 7b3d 7091 8a3d b574 01bd
000000b0: 0d7b 0ebe cd11 2c3d af98 69bc b74c e0bd
000000c0: 00f7 ec3d 0e2c 93bd c879 383e 9ca1 12bc
000000d0: 0102 cc3d a5d6 69bc 0151 8b3d 8efe 7c3d
000000e0: 2fee 59bc 7afa 17bd b324 c63b ad3d 90bd
000000f0: 125e bf3d 5538 1b3c 1460 d8bc b7c3 fb3d
00000100: 2c13 343d 8a98 91bd 86c2 c5bd 2600 84bd
00000110: b5dd 8d3b 1be0 8ebd fac3 93bd 828b e7bd
00000120: 8b45 13bd 68ad a43d 707d 0b3e ab13 413d
00000130: f6c3 64bc bc14 2cbd cca0 7e3d 6e52 8fbc
00000140: 443c 30bd 8d24 1f3d 38d6 a3bd 4736 bc3c

fc.weight f4 [10, 84]
0.08983273 -0.27678838 -0.17949896 -0.20205869 -0.1445825 -0.4170764 0.37871698 0.16429897
-0.40129653 0.09367175 -0.026110545 -0.059876233 -0.0071409997 -0.05521649 0.22832529 0.19987673
-0.1444088 0.044449143 -0.10916685 -0.23256199 0.18573347 0.07363581 -0.06613909 -0.0027143825
-0.054236982 -0.296887 -0.33040088 -0.35397512 0.090890154 -0.25501552 0.18541458 0.0051537477
0.14889207 0.48360762 0.012102594 0.21166763 0.045975536 0.12355018 0.09338439 0.53210205
0.0024700821 0.15487795 -0.31073156 -0.2358051 0.34732047 -0.15653817 0.0724049 -0.29176682
-0.12454955 0.13589305 -0.35415143 -0.18295206 0.16275309 0.22205834 0.3057001 0.199689
0.009371686 0.29385817 0.008281334 0.12637296 -0.039961845 -0.20741425 0.36422375 -0.175826
-0.14887074 -0.042280067 -0.09305026 0.70883304 -0.06377841 0.048007637 0.17173795 -0.23499958
0.2632353 -0.115863144 0.15666512 0.34697685 -0.5589 0.09163059 -0.046428535 0.16625655
-0.2604783 -0.26972517 -0.09956991 -0.030145383 0.037721515 -0.114873275 -0.064579375 -0.044664863
0.033120424 -0.11742149 0.06022629 -0.06343349 0.01170264 0.07965556 -0.014053121 -7.762448e-05
0.101210766 -0.03211967 0.08797977 -0.09303587 0.04731218 0.08815231 0.037614387 -0.016222399
0.0974239 -0.11091198 -0.08246306 0.019628718 0.03437112 -0.09828999 0.032861836 0.09156932
0.03119714 -0.06419916 -0.10236633 0.07652354 -0.11104456 -0.016683303 -0.10670028 0.02834902
-0.09890678 0.08826639 0.07536493 -0.080940895 -0.008490686 -0.056455527 -0.042681493 -0.12142855
0.0912897 0.103106044 0.035383068 -0.09410627 0.06399943 -0.043527268 -0.102427244 -0.004273741
-0.060667623 0.03376667 -0.10974895 0.026815793 -0.05771815 0.0834052 -0.012497262 -0.08084325
0.07136607 0.037491262 0.079048656 0.043342605 -0.0825318 0.025943255 -0.113745704 0.051834587
-0.048210192 -0.08910191 0.061847586 -0.009674941 0.02011565 -0.039414264 0.023411004 -0.14014639
0.025625125 -0.02913251 0.10011117 -0.042842533 -0.040404286 -0.09550343 -0.08298808 -0.016263824
-0.074455366 -0.5917764 0.12846123 -0.20368907 -0.3122604 0.32997784 0.14940889 -0.2643822
0.4207024 0.13297865 0.071514755 -0.31652874 0.17953846 0.07103067 0.21289967 -0.25386778
0.10724008 0.12468718 -0.16472508 0.37759563 -0.12429218 -0.082600676 0.18200725 0.039471515
-0.15687338 -0.12451697 0.018547144 0.17978024 -0.18941271 0.53382295 0.22393669 0.0068980483
0.3243933 0.56961584 -0.024643509 -0.1088119 0.3358909 0.28431758 0.20194098 0.10246988
0.058292616 0.35063973 0.31081706 -0.5271373 -0.09838257 0.15146573 0.1132328 -0.13935377
0.3093754 0.105197616 0.52177334 0.23960166 0.30488026 -0.09071846 -0.023167139 -0.34899628
-0.018826379 -0.41246697 -0.17155789 -0.079889275 -0.17525034 -0.20048967 0.26472396 0.19505459
0.043710977 -0.014132305 -0.30117106 -0.8967518 0.027040016 -0.095305525 0.07006741 -0.5142856
0.31439367 0.1425245 0.45958614 -0.033373743 -0.0858846 0.11904267 0.05574162 -0.3055187
0.34438795 -0.28210807 -0.040760763 0.20027822 0.18229914 -0.27583802 0.0106333485 0.39881045
00000000: 39fa b73d 35b7 8dbe 93ce 37be 79e8 4ebe
00000010: 6f0d 14be 0a8b d5be 31e7 c13e fd3d 283e
00000020: bd76 cdbe f9d6 bf3d c8e5 d5bc c840 75bd
00000030: 0cff e9bb b02a 62bd 1bce 693e 7cac 4c3e
00000040: e7df 13be 4e10 363d df92 dfbd bb24 6ebe
00000050: ea30 3e3e 5fce 963d ee73 87bd c8e3 31bb
00000060: 9927 5ebd 9301 98be 4e2a a9be 3a3c b5be
00000070: 9e24 ba3d 6591 82be 52dd 3d3e c5e0 a83b
00000080: 2a77 183e 6b9b f73e f549 463c 66bf 583e
00000090: d850 3c3d e007 fd3d 5140 bf3d d737 083f
000000a0: 1ae1 213b 5398 1e3e 3518 9fbe e476 71be
000000b0: fdd3 b13e 8b4b 20be 0549 943d 7662 95be
000000c0: d613 ffbd 8c27 0b3e 5653 b5be c957 3bbe
000000d0: bfa8 263e 4363 633e b984 9c3e 467b 4c3e
000000e0: b38b 193c 9474 963e 6fae 073c ea67 013e
000000f0: 08af 23bd 6764 54be 897b ba3e bb0b 34be
00000100: 9271 18be dd2d 2dbd 2291 bebd 1576 353f
00000110: 419e 82bd a8a3 443d 13dc 2f3e bba3 70be
00000120: c7c6 863e a849 edbd d26c 203e f3a6 b13e
00000130: 1214 0fbf d2a8 bb3d d92b 3ebd 283f 2a3e
00000140: 695d 85be 6b19 8abe 4feb cbbd 73f3 f6bc
00000150: e081 1a3d ae42 ebbd 3142 84bd 81f2 36bd
00000160: 48a9 073d ae7a f0bd d8af 763d 6be9 81bd
00000170: 6ebc 3f3c 7422 a33d 103f 66bc 53ca a2b8
00000180: 9747 cf3d ea8f 03bd bd2e b43d 9789 bebd
00000190: 6bca 413d 3389 b43d 8b11 1a3d d6e4 84bc
000001a0: 2f86 c73d d225 e3bd 65e2 a8bd 68cc a03c
000001b0: bbc8 0c3d 434c c9bd 229a 063d b288 bb3d
000001c0: 2591 ff3c d97a 83bd 70a5 d1bd 60b8 9c3d
000001d0: 556b e3bd 6cab 88bc ad85 dabd 343c e83c
000001e0: a38f cabd 02c5 b43d ee58 9a3d 57c4 a5bd
000001f0: 851c 0bbc e93d 67bd cad2 2ebd 88af f8bd
00000200: 18f6 ba3d 4329 d33d d6ed 103d caba c0bd
00000210: 2212 833d a649 32bd 60c5 d1bd bd0a 8cbb
00000220: 9d7e 78bd eb4e 0a3d 0fc4 e0bd cbac db3c
00000230: de69 6cbd 58d0 aa3d 51c1 4cbc 2591 a5bd
00000240: 6028 923d 7090 193d 43e4 a13d 0488 313d
00000250: 6f06 a9bd f386 d43c 82f3 e8bd 8150 543d
00000260: 0d78 45bd 107b b6bd e553 7d3d a583 1ebc
00000270: 93c9 a43c da70 21bd 6fc8 bf3c 8982 0fbe
00000280: c8eb d13c 4da7 eebc 1607 cd3d a77b 2fbd
00000290: f77e 25bd 4d97 c3bd a8f5 a9bd b63b 85bc
000002a0: 0e7c 98bd a87e 17bf 578b 033e de93 50be
000002b0: 98e0 9fbe dbf2 a83e a5fe 183e 1b5d 87be
000002c0: 4e66 d73e 8e2b 083e 5476 923d 0e10 a2be
000002d0: eed8 373e 8778 913d 5f02 5a3e f5fa 81be
000002e0: b0a0 db3d fe5b ff3d b1ad 28be 3754 c13e
000002f0: e68c febd 8b2a a9bd 1c60 3a3e e2ac 213d
00000300: 6aa3 20be c102 ffbd 2ef0 973c 5018 383e
00000310: 68f5 41be 9fa8 083f a94f 653e 0609 e23b
00000320: e116 a63e 58d2 113f 2fe1 c9bc c6d8 debd
00000330: e4f9 ab3e 1392 913e 9ec9 4e3e badb d13d
00000340: 3dc4 6e3d 0d87 b33e 6a23 9f3e 78f2 06bf
00000350: cd7c c9bd d519 1b3e 99e6 e73d c1b2 0ebe
00000360: 7466 9e3e d971 d73d f092 053f 235a 753e
00000370: 4419 9c3e 9aca b9bd 03c9 bdbc a4af b2be
00000380: c739 9abc df2e d3be dfac 2fbe fd9c a3bd
00000390: d374 33be 2a4d 4dbe e689 873e 64bc 473e
000003a0: 480a 333d 2f8b 67bc 1833 9abe 8791 65bf
000003b0: 0683 dd3c 8b2f c3bd 817f 8f3d 39a8 03bf
000003c0: 35f8 a03e f1f1 113e e04e eb3e e8b2 08bd
000003d0: 44e4 afbd a5cc f33d 5351 643d f26c 9cbe
000003e0: 9e53 b03e 7870 90be c2f4 26bd bc15 4d3e
000003f0: a0ac 3a3e a43a 8dbe 7f37 2e3c e230 cc3e

fc.bias f4 [10]
-0.005293309 -0.116777055 0.286266 0.06385511 -0.41788268 0.27971995 0.06903433 -0.101754904
0.028637607 -0.2547744
00000000: 7f73 adbb cf28 efbd 7591 923e 78c6 823d
00000010: b8f4 d5be 7437 8f3e df61 8d3d e064 d0bd
00000020: 6a99 ea3c ca71 82be
