rand_models/LeNet5/avgcl3/r_0.1.pth (torch, 250460 bytes, 10 tensors)

features.0.weight f4 [6, 1, 5, 5]
0	0xbf774f71	-0.9660559
1	0xbf198d37	-0.599811
2	0xbe6dc581	-0.23219873
3	0x3f56ec15	0.8395398
4	0x3e7d7d96	0.24754938
5	0xbea8c0cf	-0.329596
6	0x3cc2621b	0.023728421
7	0xbecc92ec	-0.39955842
8	0x3f62d606	0.88607824
9	0x3da6c294	0.081425816
10	0xbf229ee5	-0.63523704
11	0x3df2f56d	0.118632175
12	0xbe611066	-0.21978912
13	0x3f8643a1	1.0489389
14	0xbec8a994	-0.39191878
15	0xbdf0facd	-0.117665865
16	0x3e9bdbe3	0.30441198
17	0xbe7d893b	-0.2475938
18	0x3f53fba6	0.8280586
19	0xbe8c0087	-0.27344152
20	0xbebadefd	-0.36498252
21	0x3d8ecc23	0.0697253
22	0xbf1344ff	-0.57527155
23	0x3f437e4e	0.763646
24	0x3ec0b4b7	0.37637874
25	0x3ea395ab	0.31950125
26	0xbed284fa	-0.41117078
27	0x3ec1a916	0.37824315
28	0xbefe4fc7	-0.4967024
29	0xbf6d8687	-0.927834
30	0xbdcfd0c1	-0.101472385
31	0xbecd53fa	-0.40103132
32	0x3e0907de	0.13381907
33	0x3e454186	0.19263276
34	0xbf082aae	-0.53190124
35	0x3d926d2d	0.0714973
36	0xbf2783be	-0.654354
37	0xbea0ad73	-0.3138233
38	0xbc7c39d5	-0.015394648
39	0x3ec5ea93	0.38655528
40	0x3ef39e7c	0.4758185
41	0xbeb627c0	-0.35577202
42	0x3e5033dc	0.20332283
43	0xbe07f35d	-0.1327643
44	0xbd616fba	-0.05503819
45	0xbcb4da2c	-0.022076689
46	0x3ee14f3f	0.44005772
47	0x3f890564	1.070477
48	0x3da7aa79	0.08186812
49	0xbe4e2439	-0.20131005
50	0x3d4d4225	0.05011191
51	0xbe407a58	-0.1879667
52	0xbe8ccce4	-0.2750007
53	0x3ed1089b	0.40826878
54	0x3f1d0967	0.6134247
55	0x3cfc6af0	0.03081271
56	0xbf0ab811	-0.54187113
57	0xbf142f53	-0.5788471
58	0x3e2b38c3	0.16720872
59	0x3f5ab616	0.8543409
60	0xbd9c66ab	-0.0763677
61	0xbdacfdaf	-0.08446824
62	0xbfc8c528	-1.5685167
63	0xbea5f406	-0.32412738
64	0x3ff34b7e	1.9007413
65	0xbdf00721	-0.1172011
66	0xbecf8f50	-0.40539026
67	0xbf8bdfc2	-1.092766
68	0xbc9b1204	-0.018929489
69	0x3fc0dc67	1.5067261
70	0x3e61995d	0.2203116
71	0xbf0deb48	-0.55437136
72	0xbf6db57c	-0.9285505
73	0x3e34b36b	0.17646568
74	0x3f857333	1.0425781
75	0x3f3232bd	0.6960867
76	0x3f1e4e22	0.6183797
77	0x3ef97876	0.48724717
78	0x3eba0369	0.36330727
79	0xbe179654	-0.1480344
80	0x3eab2afb	0.3343123
81	0x3ee67780	0.45013046
82	0x3e9d15b8	0.30680633
83	0x3ebf9c0b	0.3742374
84	0xbe2bbdac	-0.16771573
85	0xbec5d803	-0.38641366
86	0xbebac1a1	-0.36475852
87	0xbe9b60e6	-0.30347365
88	0xbe3eed6a	-0.18645254
89	0xbe8dcd2d	-0.276956
90	0xbeea0c77	-0.45712635
91	0xbe9eb9d5	-0.31001154
92	0xbe783c60	-0.24241781
93	0xbd252680	-0.04031992
94	0xbe8d6df0	-0.27622938
95	0xbf05d478	-0.52277327
96	0xbeabd636	-0.33561867
97	0xbebe86bd	-0.37212172
98	0xbe2ed3ad	-0.17072935
99	0x3e7d7ce6	0.24754676
100	0x3e8584c9	0.2607787
101	0x3e9473fe	0.28994745
102	0x3c90d907	0.017681612
103	0x3d664759	0.056220386
104	0xbe816962	-0.25275713
105	0xbece2458	-0.40262103
106	0xbe7cee68	-0.2470032
107	0xbeb05ec2	-0.34447294
108	0xbe409b9c	-0.1880936
109	0xbe8a7a0d	-0.27046242
110	0xbf07ebcf	-0.5309419
111	0xbcbdad5d	-0.023153955
112	0xbf0c7517	-0.54866165
113	0xbf1cde08	-0.6127629
114	0xbf364dfb	-0.7121274
115	0xbeca89c8	-0.39558244
116	0xbbad1f30	-0.005283259
117	0x3e978457	0.29593155
118	0xbe752753	-0.23940782
119	0xbd78eca7	-0.060772564
120	0x3f165b89	0.5873342
121	0xbda5fc1a	-0.08104725
122	0x3ee0c347	0.43898985
123	0x3eae4498	0.34036708
124	0x3e2117f9	0.15731801
125	0x3c14c476	0.009080043
126	0x3e677c9b	0.22606127
127	0x3f056f01	0.52122504
128	0x3f3753f4	0.7161248
129	0xbe9f1844	-0.310732
130	0xbe9a5e4c	-0.30150068
131	0x3f16bcc6	0.58881795
132	0x3e8259ae	0.25459045
133	0x3f8d7422	1.1051066
134	0x3f18beba	0.59666026
135	0xbde8f879	-0.113755174
136	0x3ee92e8a	0.4554332
137	0x3f1be0f2	0.60890114
138	0x3f4f50f2	0.8098289
139	0x3f5d87fb	0.86535615
140	0xbd9212da	-0.07132502
141	0x3e92b837	0.2865617
142	0x3f7b4093	0.9814541
143	0x3d5f06a8	0.054449707
144	0x3ddca44a	0.10773523
145	0x3d39b4f8	0.0453386
146	0x3e80f142	0.25184065
147	0x3de1c812	0.110244885
148	0xbdde7018	-0.10861224
149	0xbf2251f7	-0.6340632

features.0.bias f4 [6]
0	0x3e7efae4	0.24900395
1	0x3f6c61ca	0.92336714
2	0x3d9f9cfb	0.077936135
3	0x3e831dc7	0.25608656
4	0x3f219d30	0.63130474
5	0xbd85e64c	-0.06538066

features.3.weight f4 [16, 6, 5, 5]
0	0x3cf65929	0.030071812
1	0x3e7e8ea7	0.24859105
2	0x3de4e71a	0.111768916
3	0xbebb9384	-0.36635983
4	0xbd3d8e3a	-0.046278216
5	0xbd0b5696	-0.03401812
6	0x3d920405	0.07129673
7	0xbdf401c3	-0.119143985
8	0xbedb8760	-0.4287672
9	0xbe6d9ff7	-0.23205553
10	0x3dbda003	0.092590354
11	0xbdb3396d	-0.087511875
12	0xbbdb7f89	-0.006698553
13	0xbe13439a	-0.14381257
14	0xbdb30dca	-0.087428644
15	0x3e7b79a5	0.24558122
16	0xbdc02f5b	-0.09384032
17	0x3c9985f3	0.01874063
18	0xbdf55680	-0.11979389
19	0x3d9f5fd8	0.077819526
20	0xbdb742a9	-0.08948261
21	0xbe619a6f	-0.22031568
22	0xbdad32c1	-0.08456946
23	0xbeb72dda	-0.3577717
24	0x3e0fed94	0.14055473
25	0xbd55c2d3	-0.052187752
26	0xbcab7ae9	-0.020932632
27	0x3d4b6f8f	0.049666937
28	0x3dddb001	0.10824586
29	0x3dcbfc44	0.09960225
30	0x3df43463	0.119240545
31	0xbe3eadfa	-0.18621054
32	0xbe07159e	-0.1319184
33	0x3d806ed8	0.06271142
34	0x3e11d784	0.14242369
35	0x3db49c96	0.08818929
36	0xbc5b8d59	-0.013400399
37	0x3ddab991	0.10679925
38	0x3e92d3a6	0.286771
39	0x3cae45b5	0.021273473
40	0xbe16cea6	-0.14727268
41	0x3e2ba08a	0.1676046
42	0x3e3f3766	0.18673477
43	0x3c2c928c	0.010532986
44	0xbcff36f9	-0.031154143
45	0xbcc30a04	-0.023808487
46	0xbda12460	-0.07868266
47	0xbc249509	-0.010045298
48	0xbddfba7b	-0.1092424
49	0xbcec3887	-0.028835548
50	0x3dc581c6	0.09643893
51	0x3e42ceea	0.19024244
52	0xbec28d5e	-0.3799848
53	0xbed1ee7d	-0.41002265
54	0xbd7954dd	-0.060871948
55	0x3bb632eb	0.005560269
56	0x3c5365ce	0.01290269
57	0xbeadc1d8	-0.33936954
58	0xbe3419c6	-0.17587957
59	0x3dffcac3	0.124898456
60	0xbe60d49a	-0.21956101
61	0xbd7ed634	-0.062216
62	0xbeb695fd	-0.35661307
63	0xbdf1af51	-0.11801017
64	0x3e52450e	0.20534155
65	0xbe4dd8ff	-0.20102309
66	0xbce62f43	-0.028098708
67	0xbe8c4c7f	-0.27402112
68	0x3d396ad1	0.045267884
69	0x3d848158	0.06469983
70	0x3e42f860	0.1904006
71	0x3dfc7266	0.12326507
72	0xbd8347ab	-0.06410154
73	0xbe275935	-0.16342624
74	0xbdcf0b5f	-0.10109591
75	0x3e0514e6	0.12996253
76	0x3d3486f2	0.044074006
77	0xbe4f0218	-0.20215642
78	0xbd597ee6	-0.053099535
79	0x3ca4a85c	0.020099811
80	0xbc9f63be	-0.01945674
81	0x3be36e2e	0.0069406247
82	0xbda91c70	-0.08257377
83	0x3beb0b23	0.0071729585
84	0x3d2637d1	0.040580574
85	0xbd8fa602	-0.07014085
86	0xbe4fd3d5	-0.20295651
87	0xbe0f3651	-0.13985564
88	0xbacbd8da	-0.0015552298
89	0x3dcefe02	0.10107042
90	0x3e20629e	0.1566262
91	0x3b0120ee	0.0019703466
92	0xbe13e404	-0.1444245
93	0xbdafcc7f	-0.085839264
94	0xbe1dc5de	-0.15407512
95	0x3d8af4d2	0.06784977
96	0x3de1efcd	0.110320665
97	0x3e0d3862	0.1379104
98	0xbc7ebc72	-0.015547859
99	0x3dc02d05	0.09383587
100	0x3c1ce9ae	0.009577198
101	0xbd58ecfa	-0.052960373
102	0xbe8640bc	-0.26221263
103	0xbe0858c7	-0.13315116
104	0xbc336e86	-0.010951644
105	0x3e074f72	0.132139
106	0xbd4cd90b	-0.050011676
107	0x3d1be770	0.038062513
108	0xbb3dcb98	-0.0028960463
109	0xbd420c23	-0.047374856
110	0xbdbcfa25	-0.09227399
111	0x3db0535c	0.086096495
112	0x3c936c4e	0.01799598
113	0xbcdc36df	-0.026881633
114	0xbd8aca65	-0.06776885
115	0xbe693b31	-0.22776486
116	0xbdd78d11	-0.10524953
117	0xbd403700	-0.046927452
118	0xbd9c0593	-0.07618251
119	0xbdefb595	-0.11704556
120	0xbe507547	-0.20357238
121	0x3d49194c	0.04909639
122	0xbe02da21	-0.12778522
123	0xbd899220	-0.06717324
124	0x3cd4dc82	0.025984053
125	0xbed17527	-0.40909693
126	0x3ef75475	0.48306623
127	0x3f82ccbf	1.0218734
128	0x3e36fb24	0.1786924
129	0xbe9d65b0	-0.30741644
130	0xbeeda4fa	-0.4641493
131	0x3db3c59e	0.08777927
132	0x3e37563c	0.1790399
133	0xbead8622	-0.33891398
134	0xbf344429	-0.70416504
135	0xbdcd5a57	-0.100269966
136	0x3bad1628	0.0052821822
137	0x3d1ba624	0.03800024
138	0xbee1bf74	-0.4409138
139	0xbdb8198f	-0.0898925
140	0x3e92ce99	0.28673247
141	0x3eaa2361	0.33230117
142	0x3e1405b7	0.14455305
143	0xbe0da10e	-0.13830969
144	0x3e9fd6d3	0.31218585
145	0xbe31aa17	-0.1735004
146	0xbc901b59	-0.017591165
147	0x3e557ed3	0.20849161
148	0x3d031bb5	0.032008845
149	0x3d55ac2c	0.05216615
150	0x3e191cf7	0.14952455
151	0x3d67ba49	0.05657414
152	0x3d0a999d	0.033837903
153	0xbd8f1e5d	-0.06988213
154	0x3d2ae648	0.04172352
155	0xbb0e05d0	-0.0021670945
156	0x3da5bef9	0.08093066
157	0x3de96e32	0.11397971
158	0x3d14d405	0.03633501
159	0x3d165e5e	0.03671109
160	0xbe04b0dc	-0.12958091
161	0xbc82dd4b	-0.015974661
162	0x3e19b71e	0.1501126
163	0xbe02ff20	-0.12792635
164	0x3de54fec	0.111968845
165	0x3c373cc4	0.011183921
166	0x3caf3ae1	0.02139038
167	0x3e03c5f7	0.12868486
168	0xbd665962	-0.056237586
169	0x3e03a526	0.12855968
170	0xbcdc0341	-0.02685702
171	0x3e492721	0.19643833
172	0xbd71b9fd	-0.059015263
173	0xbcd40c7b	-0.025884857
174	0x3df574fa	0.11985202
175	0x3d97a9e4	0.07405451
176	0x3da9894e	0.08278142
177	0x3ccc5f5d	0.024947817
178	0x3dd05f22	0.10174395
179	0x3e53b592	0.20674732
180	0x3d2336eb	0.039847296
181	0x3bea7621	0.0071551953
182	0x3d33baa8	0.04387918
183	0x397ecfc0	0.0002430072
184	0x3e57007f	0.20996283
185	0x3e0a0f81	0.13482477
186	0xbd9b3520	-0.07578492
187	0x3d92414e	0.07141362
188	0x3d2fab25	0.042887826
189	0x3db24f7f	0.08706569
190	0x3dd82c53	0.10555329
191	0x3d7bc7c6	0.061469816
192	0xbd188503	-0.037236225
193	0xbd9a9f10	-0.0754987
194	0x3e21a612	0.15786007
195	0x3d0113db	0.031513076
196	0xbd153d81	-0.036435608
197	0x3e0dc00e	0.13842794
198	0x3e023a86	0.12717637
199	0x3daa0bd5	0.08303038
200	0xbe346270	-0.17615676
201	0x3e1797c5	0.14803989
202	0x3e42523f	0.18976687
203	0x3cfa5bcc	0.03056135
204	0x3def225a	0.11676474
205	0xbe2004b9	-0.15626802
206	0x3d6a5b20	0.05721581
207	0x3e2710cd	0.16315003
208	0xbd5874ae	-0.05284565
209	0x3d6752f3	0.05647559
210	0xbe5576db	-0.20846121
211	0x3d827e9f	0.06371807
212	0xbd29c98d	-0.04145198
213	0x3dd44a7b	0.103657685
214	0xbce3954b	-0.02778115
215	0xbde0c8b9	-0.10975785
216	0x3dd99541	0.10624171
217	0xbe2fa22c	-0.17151707
218	0x3d877381	0.066138275
219	0xbe042799	-0.1290573
220	0x3d14ebc0	0.03635764
221	0x3da376cf	0.07981645
222	0xbec63266	-0.38710326
223	0x3e5d2586	0.21596345
224	0x3e164245	0.14673717
225	0x3bb6536c	0.005564144
226	0x3ce3d244	0.027810223
227	0x3e198dbd	0.14995475
228	0x3d5578f1	0.05211729
229	0x3d91a5bf	0.07111692
230	0x3d87ecfd	0.06636999
231	0xbd41b3f5	-0.04729076
232	0x3d536afd	0.051615704
233	0x3c89ddeb	0.016829452
234	0x3d39cb5b	0.04535995
235	0x3e0125f1	0.1261213
236	0x3cd5ffd1	0.02612296
237	0x3d1cf0b7	0.0383155
238	0x3d169db4	0.03677149
239	0x3d3e04a1	0.046391133
240	0x3d34793c	0.04406093
241	0xbdf8922b	-0.12137254
242	0x3bbf168e	0.005831546
243	0x3d8b0a50	0.06789076
244	0x3d081ab4	0.03322859
245	0xbcb21a0d	-0.021740938
246	0xbb058618	-0.0020374116
247	0x3d8bc3e6	0.06824474
248	0x3c946f03	0.01811934
249	0x3d818c01	0.06325532
250	0x3c819fc6	0.015823256
251	0x3d2ebff0	0.042663515
252	0x3d3b407e	0.0457158
253	0xbc5408e3	-0.012941572
254	0x3d886389	0.0665961
255	0x3c1c0265	0.009522055

features.3.bias f4 [16]
0	0x3e46ffbf	0.19433497
1	0x3cc32b77	0.023824437
2	0x3d4fa48c	0.050694034
3	0x3d374707	0.04474547
4	0xbdf8342e	-0.121193275
5	0xbd331d60	-0.043729186
6	0x3d80b70e	0.06284915
7	0x3ca64cb2	0.020300243
8	0xbce29fb5	-0.027664045
9	0x3da8bb17	0.082388096
10	0x3e6177cf	0.2201836
11	0x3dd1fb25	0.1025298
12	0x3ca92245	0.020646224
13	0xbda8a814	-0.08235183
14	0x3b0d4f41	0.0021562132
15	0xbdb3fd9b	-0.08788606

classifier.0.weight f4 [120, 400]
0	0xbdd5a4f3	-0.10431852
1	0xbdf9e344	-0.122015506
2	0x3e496782	0.19668391
3	0x3e03611a	0.1283001
4	0xbdeb3acc	-0.11485824
5	0xbdb8a7ae	-0.09016357
6	0xbdd4c986	-0.1039
7	0x3d4c1d26	0.049832486
8	0x3d9ba541	0.07599879
9	0xbdb8eef5	-0.090299524
10	0xbd9570d8	-0.07296914
11	0x3c0583f2	0.008149134
12	0x3d9792d3	0.07401051
13	0xbce94384	-0.028474577
14	0x3db8f888	0.090317786
15	0x3dcc8644	0.09986547
16	0x3d3a14ce	0.045429997
17	0xbc254ada	-0.010088647
18	0xbb96f5d7	-0.004606943
19	0x3d357e4b	0.044309895
20	0xbdfcf17a	-0.123507455
21	0x3ccf1b47	0.025281562
22	0xbdb5f425	-0.088844575
23	0x3e08bde7	0.13353692
24	0x3cbdd8c0	0.023174644
25	0xbd00057a	-0.031255223
26	0xbcbeef50	-0.023307472
27	0xbc31ca3d	-0.01085144
28	0xbd8f30c8	-0.06991726
29	0x3d5d6c53	0.054058384
30	0x3d1ccff7	0.03828427
31	0xbb811fcd	-0.0039405585
32	0xbd65af89	-0.056075606
33	0xbc221478	-0.009892575
34	0xbae0ace2	-0.0017141367
35	0x39108023	0.00013780645
36	0x3d0ae9d2	0.033914395
37	0xbd8610a0	-0.0654614
38	0x3b56dc8f	0.0032785272
39	0x3cb971c4	0.022637255
40	0x3cad5cd0	0.02116242
41	0xbd5b4f4d	-0.053542424
42	0xbcb9eb6b	-0.022695264
43	0xbc17b2d2	-0.009258943
44	0xbd5bf2d8	-0.05369839
45	0xbde7258b	-0.11286458
46	0x3c30610d	0.010765326
47	0x3c67c242	0.014145436
48	0xbbc949f3	-0.0061428486
49	0x3b9c3e4e	0.0047681695
50	0xbd932dd4	-0.071864754
51	0xba87df92	-0.0010366312
52	0x3c82c968	0.015965179
53	0x3d5d47f1	0.054023687
54	0xbe15ce5d	-0.14629503
55	0xbd9864ab	-0.07441076
56	0x3de5aca9	0.11214573
57	0x3ddfb97e	0.10924052
58	0xbda6f987	-0.08153062
59	0xbe30cb3e	-0.1726503
60	0xbe049c03	-0.12950139
61	0x3c5101eb	0.012756805
62	0x3c9b7596	0.018976968
63	0xbd4a05aa	-0.049321808
64	0xbdb42bcf	-0.08797418
65	0xbda3679e	-0.07978748
66	0xbc9554b1	-0.01822886
67	0x3da7e3a4	0.08197716
68	0x3ba58c70	0.005052142
69	0xbcb892ab	-0.022530874
70	0xbe7043d5	-0.23463376
71	0x3cb38c1d	0.021917397
72	0x3da4909c	0.080353945
73	0xbdcee4f3	-0.10102262
74	0x3e36168f	0.17782043
75	0xbd46cdba	-0.04853604
76	0x3dbefa05	0.09325031
77	0xbe2b050d	-0.16701145
78	0x3d4756bb	0.048666697
79	0xbdad06de	-0.084485754
80	0x3e136589	0.14394201
81	0xbca156b0	-0.019694656
82	0x3c8c7eea	0.017150361
83	0x3d94cf71	0.07266129
84	0xbdbb0cd1	-0.09133304
85	0xba08e721	-0.0005222429
86	0xbbd0a9e4	-0.006367909
87	0x3d00f028	0.03147903
88	0xbb0ff3ad	-0.002196531
89	0xbd951a8d	-0.07280455
90	0xbc6c82ab	-0.014435451
91	0xbcac3fac	-0.021026455
92	0xbcd4b9af	-0.025967447
93	0xbdaf9531	-0.08573378
94	0x3cdea42f	0.027177898
95	0xbc143840	-0.009046614
96	0x3da2579e	0.07926868
97	0xbd05ae47	-0.032636907
98	0xbbcfcdf6	-0.006341691
99	0xbe084d3a	-0.1331071
100	0xbc692550	-0.014230087
101	0x3bcd8721	0.006272212
102	0xbd1c6ea1	-0.03819144
103	0x3c88ac19	0.016683625
104	0x3d10602a	0.03524796
105	0x3d4e9d8f	0.05044323
106	0xbcb1bb9b	-0.021695903
107	0xbc23635c	-0.00997242
108	0x3d9ac474	0.07557002
109	0x3bb17ff4	0.0054168645
110	0x3d1a6c34	0.037700847
111	0xbd1bae5c	-0.03800808
112	0x3d1d07be	0.03833746
113	0xbc1d3abf	-0.009596526
114	0xbc09dc3b	-0.008414323
115	0xbc087571	-0.008328781
116	0x3cbef3c4	0.023309596
117	0xb92f643f	-0.00016726645
118	0xbc960046	-0.018310677
119	0x3cbe4bb2	0.023229454
120	0xbc63bbc2	-0.013899745
121	0x3d0ffdc1	0.035154108
122	0xbdb28635	-0.08717004
123	0x3d7187c0	0.058967352
124	0xbc8e1984	-0.017346151
125	0xbd950ddb	-0.07278033
126	0xbe08bbfb	-0.13352959
127	0xbe136cba	-0.14396945
128	0x3d5fbd36	0.054623805
129	0xbcd614f2	-0.026133034
130	0x3cf0228a	0.029313345
131	0x3d92c829	0.07167084
132	0xbd2f9980	-0.042871
133	0x3e448ce4	0.1919437
134	0x3b44f036	0.0030050403
135	0x3dde18a0	0.108445406
136	0x3cd18198	0.02557449
137	0x3b594af1	0.003315624
138	0x3cb282d2	0.021790896
139	0x3aa40b61	0.0012515598
140	0xbd4351c6	-0.047685407
141	0xbc18b5a4	-0.00932065
142	0x3d302692	0.043005534
143	0xbd95be87	-0.07311731
144	0xbd82a96b	-0.0637997
145	0xbd278c69	-0.04090539
146	0x3d31acb3	0.04337759
147	0xbb677c31	-0.0035321827
148	0xbd0b3a18	-0.03399095
149	0xbca468eb	-0.02006956
150	0xbde88ff9	-0.113555856
151	0xbe387f69	-0.18017353
152	0x3e00126a	0.12507024
153	0x3e41885c	0.18899673
154	0xbc93fb9a	-0.018064309
155	0x3b2e1fe6	0.0026569306
156	0x3db73e73	0.08947458
157	0xbd1da1bd	-0.038484324
158	0x3dbf25d9	0.09333391
159	0xbd67dd41	-0.05660749
160	0x3d8f1d6c	0.06988034
161	0xbd081651	-0.033224408
162	0x3d09f9d7	0.03368553
163	0x3da56c5f	0.08077311
164	0x3e06e343	0.13172631
165	0xbe0c1aa0	-0.13682032
166	0xbd7757cd	-0.060386468
167	0x3d180656	0.037115417
168	0x3dab96a3	0.08378341
169	0xbc487f60	-0.0122374
170	0xbe0746cf	-0.13210605
171	0xbd9b292a	-0.07576211
172	0x3c427e87	0.011870987
173	0xbda12324	-0.07868031
174	0xbcba96ed	-0.022777045
175	0xbe4f9358	-0.20271051
176	0xbd2d17ee	-0.04225915
177	0x3dacb258	0.08432454
178	0x3d79aca5	0.060955662
179	0xbe01328f	-0.12616943
180	0xbd28257f	-0.041051384
181	0x3da05bd7	0.07830017
182	0x3e3d867a	0.1850833
183	0x3d4081c3	0.04699875
184	0xbddd9ecf	-0.10821306
185	0x3d428499	0.047489736
186	0x3d432b16	0.04764851
187	0x3d92bf4c	0.07165393
188	0x3d77818a	0.060426272
189	0xbd399f30	-0.04531783
190	0x3d0f309f	0.034958478
191	0xbc873d09	-0.016508596
192	0x3d827f51	0.0637194
193	0xbd409ff5	-0.047027547
194	0xbcf75f0b	-0.030196687
195	0xbe4ee100	-0.20203018
196	0x3d5027b1	0.050819103
197	0x3d9a3948	0.07530457
198	0xbdc042e8	-0.09387761
199	0x3db9692e	0.090532646
200	0xbd910d88	-0.07082659
201	0xb9f7e95d	-0.0004728538
202	0xbd4b3189	-0.049607787
203	0xbae57edf	-0.0017509124
204	0x3cc1fdf7	0.02368067
205	0xbb865b51	-0.004100241
206	0x3ba71252	0.0050986195
207	0xbda9c690	-0.08289826
208	0xbd18907d	-0.03724717
209	0xbcf5e2f1	-0.03001544
210	0x3dc72188	0.097231925
211	0x3d043189	0.032273803
212	0x3cd976a0	0.026545823
213	0xbb665d5e	-0.0035150866
214	0x3c2454e2	0.010030003
215	0x3d5020e3	0.050812613
216	0x3c295173	0.01033436
217	0x3d0bbf15	0.034117777
218	0x3ce5cc6e	0.028051581
219	0xbd019621	-0.031637315
220	0xbdd6d38e	-0.104895696
221	0x3d08bd28	0.03338352
222	0x3d9888fe	0.07448004
223	0xbc5fa9f7	-0.013651363
224	0xbcdbce5a	-0.026831795
225	0x3cc299d9	0.023755
226	0xbce7953a	-0.028269399
227	0xbe07d581	-0.13265039
228	0xb9bef7fb	-0.00036424384
229	0xbc1c4829	-0.009538689
230	0xbc7d0197	-0.015442274
231	0xbc58b9ef	-0.013227924
232	0xbde0d73d	-0.109785534
233	0xbcf34186	-0.02969433
234	0xbd6d2f93	-0.0579067
235	0x3d6f45e4	0.058416262
236	0x3d4d626e	0.050142698
237	0xba334fa1	-0.0006840174
238	0x3cb7cd51	0.02243677
239	0x3d13f480	0.036121845
240	0x3b6319ea	0.0034652897
241	0x3d1bfbce	0.038081937
242	0xbd426660	-0.047460914
243	0x3c4bd311	0.012440459
244	0x3c7f252d	0.015572828
245	0xbd5b2f1b	-0.05351172
246	0xbdc16edf	-0.09444975
247	0xbc1d9108	-0.009617098
248	0xbcf23071	-0.029564114
249	0x3dcbb420	0.099464655
250	0x3cf85457	0.030313654
251	0x3d55aa23	0.05216421
252	0xbc16cfe9	-0.009204843
253	0x3b109447	0.0022061036
254	0x3d46e0b4	0.048554137
255	0x3c1dad8c	0.009623896

classifier.0.bias f4 [120]
0	0xbd1361f9	-0.035982106
1	0x3af92c1c	0.0019010338
2	0xbbdbea63	-0.0067112907
3	0xbd0ad4c5	-0.03389432
4	0x3bbed3c1	0.005823583
5	0x3cdb515a	0.02677219
6	0x3d5ece6f	0.05439609
7	0x3c15d041	0.00914389
8	0xbc051bbf	-0.008124291
9	0xbc2b1979	-0.010443085
10	0x3c9b949e	0.018991765
11	0x3d427669	0.047476206
12	0xbcc33045	-0.023826728
13	0x3d58729f	0.052843686
14	0x3d3be9b3	0.04587717
15	0x3cc9ab69	0.024617868
16	0x3ba3f9ce	0.0050041443
17	0xbd374aa5	-0.04474892
18	0x3cf9d74a	0.030498166
19	0x3ce57c7a	0.028013457
20	0xbb326087	-0.002721818
21	0x3d59bb73	0.05315728
22	0xbc98a174	-0.018631674
23	0xbb8c2dc1	-0.004277915
24	0x3caf317e	0.021385904
25	0x3d6f91d3	0.05848868
26	0x3d02a1aa	0.031892456
27	0xbc3208fe	-0.010866402
28	0xbd9d6067	-0.07684403
29	0xbd52cdc5	-0.05146577
30	0xbd9fbbf7	-0.07799523
31	0x3c15be2b	0.009139578
32	0x3ca4783c	0.020076863
33	0xbd861259	-0.06546468
34	0xbe0d8598	-0.13820493
35	0x3cb22d83	0.021750217
36	0x3e061abb	0.13096134
37	0xbbb529b3	-0.0055286526
38	0x3d22f8e7	0.039788153
39	0x3bcb93ab	0.0062126718
40	0x3ca15daa	0.019697983
41	0xbd333ee8	-0.043761164
42	0x3de5cd9a	0.11220856
43	0xbce0df36	-0.027450185
44	0x3e1d90aa	0.15387216
45	0xbca474b5	-0.020075181
46	0x3db2614e	0.08709966
47	0x3ce1e8c6	0.027576815
48	0x3d593b50	0.05303508
49	0x3bc61580	0.0060450435
50	0x3beba257	0.0071909833
51	0x3e06d91d	0.1316876
52	0x3deb14f7	0.11478608
53	0xbcefe90d	-0.029285932
54	0x3dcb95b7	0.09940665
55	0x3c454585	0.0120405005
56	0x3bb01c4a	0.005374466
57	0xbe1e56ea	-0.15462843
58	0xbd4604b6	-0.048344336
59	0xbd3b0068	-0.045654684
60	0xbcfaae9c	-0.030600838
61	0xbcee8933	-0.029118156
62	0x3cdb45b4	0.026766635
63	0xbcf20efc	-0.02954816
64	0xbcc2f08d	-0.023796344
65	0x3d5ab818	0.05339822
66	0xbcb74f06	-0.022376548
67	0x3c74d7fd	0.014944074
68	0xbcd90a36	-0.026494127
69	0xbbf29570	-0.0074030682
70	0xbd66e82e	-0.056373768
71	0xbcf1d524	-0.029520579
72	0x3d82db3e	0.063894734
73	0xbcc4a807	-0.024005903
74	0xbc0d765a	-0.008634174
75	0x3cdc43b9	0.026887761
76	0x3e1889bb	0.1489629
77	0x3dc0a8d5	0.09407202
78	0xbd06cd4b	-0.032910626
79	0xbd5238d9	-0.051323745
80	0x3ddd40e4	0.108033925
81	0x3e257e15	0.16161378
82	0x3d3f7b38	0.04674837
83	0xbb97905a	-0.0046253623
84	0x3b3a721e	0.0028449367
85	0xbd58f4b0	-0.052967727
86	0xbc0c133e	-0.00854951
87	0xbdcd8ad5	-0.10036246
88	0x3dd99abe	0.10625218
89	0x3cf2f982	0.02965999
90	0xbc514f0e	-0.012775196
91	0x3d779227	0.060442116
92	0xbd7b0274	-0.061281636
93	0x3c2cb49f	0.01054111
94	0x3c6fd544	0.014638249
95	0x3d602b57	0.054728832
96	0xbdf659eb	-0.12028869
97	0xbdd1938a	-0.10233219
98	0xbd11bbe6	-0.035579585
99	0x3d36e50a	0.044652022
100	0xbd88db7f	-0.066824906
101	0xbd06b0c5	-0.032883424
102	0x3ce0fb5c	0.027463607
103	0x3dcd9db4	0.10039845
104	0xbcfb4496	-0.030672353
105	0xbd120231	-0.03564662
106	0x3bf653ab	0.007517298
107	0x3cd93988	0.02651669
108	0x3da2a9fe	0.0794258
109	0x3ce45917	0.027874513
110	0x3d411949	0.047143254
111	0x3d8d767a	0.06907363
112	0x3d0017b3	0.0312726
113	0x3d06e499	0.03293285
114	0xbda194f6	-0.0788974
115	0xbdf0e499	-0.117623515
116	0x3df411d9	0.11917467
117	0x3dc8e8a9	0.098100014
118	0x3d22110c	0.03956704
119	0xbd698d42	-0.05701948

classifier.2.weight f4 [84, 120]
0	0xbda94523	-0.0826514
1	0x3d8d5f07	0.06902891
2	0xbde5ba55	-0.11217181
3	0x3c3d29ef	0.011545642
4	0xbe2e4d9d	-0.17021795
5	0xbe0ecb42	-0.13944724
6	0x3d8f3578	0.0699262
7	0xbd43c0ee	-0.047791414
8	0x3dc3e816	0.09565751
9	0xbdb6ef0e	-0.08932315
10	0x3d8e77af	0.069564216
11	0xbc8af6cb	-0.016963383
12	0x3d717cbc	0.058956847
13	0xbd3c9a21	-0.046045426
14	0x3d5e4aea	0.054270662
15	0x3e6e6b59	0.23283137
16	0x3cc96c98	0.024587914
17	0xbd816870	-0.06318748
18	0x3dd54ad2	0.104146615
19	0x3d88d7b6	0.066817686
20	0x3ddac2d8	0.10681695
21	0xbdd569d8	-0.10420579
22	0x3db2c4ba	0.08728929
23	0x3e052d14	0.13005477
24	0xbcc10917	-0.023563905
25	0x3cb05141	0.02152312
26	0xbdd16eec	-0.10226235
27	0xbcb4ee6a	-0.022086341
28	0x3d24f23c	0.040270075
29	0xbdb4e3e2	-0.08832528
30	0x3d30c995	0.043160994
31	0x3e022610	0.12709832
32	0xbdae2626	-0.0850337
33	0xbda7b8ba	-0.08189531
34	0xbc466cf8	-0.012110941
35	0xbe0751af	-0.13214754
36	0x3e3761e7	0.1790844
37	0x3db6cb4e	0.08925496
38	0x3cb09b29	0.021558361
39	0xbdaac602	-0.08338548
40	0x3e0b7e58	0.13622415
41	0xbe5794ba	-0.21052828
42	0xbaec30eb	-0.001801995
43	0x3d8d302c	0.06893954
44	0xbca5333a	-0.020166028
45	0xbb9e53b5	-0.004831756
46	0x3e827100	0.25476837
47	0x3bb496d8	0.005511146
48	0x3dc84ee3	0.097806714
49	0x3d904019	0.07043476
50	0xbdae0ffb	-0.08499142
51	0x3d9debcf	0.077109925
52	0x3dc23925	0.09483556
53	0x3dbc522b	0.0919536
54	0x3e1c3c5c	0.152574
55	0xbdf47745	-0.11936811
56	0xbe718a09	-0.23587812
57	0x3daa84a4	0.083260804
58	0xbcec3de0	-0.028838098
59	0xbdaa5e20	-0.08318734
60	0x3e5ce472	0.2157152
61	0x3dd5c80b	0.10438546
62	0xbe1f9011	-0.155823
63	0x3ada909a	0.0016675175
64	0xbd847172	-0.064669505
65	0xbd9a7994	-0.075427204
66	0x3d8b9d29	0.06817085
67	0xbdb08ba2	-0.08620383
68	0xbdc5ee4b	-0.096645914
69	0x3cee3cdd	0.029081756
70	0xbe5b1092	-0.2139304
71	0xbcf7a360	-0.03022927
72	0x3d891611	0.06693662
73	0xbdb7da71	-0.08977211
74	0x3d688641	0.05676866
75	0x3c00dc45	0.007865016
76	0x3df1b971	0.11802948
77	0xbccd1cfe	-0.025038239
78	0xbcc2e860	-0.023792446
79	0xbd2d4c5c	-0.04230915
80	0xbd20b003	-0.039230358
81	0x3e1518de	0.14560267
82	0x3e65681e	0.22402999
83	0xbdbf8d7f	-0.0935316
84	0x3da0e428	0.07856017
85	0xbe0e02b0	-0.13868213
86	0xbd1ac2a3	-0.037783276
87	0xbdb620b8	-0.08892959
88	0x3e6881a0	0.22705698
89	0x3d030fec	0.031997606
90	0x3d13242e	0.035923176
91	0x3bd0677d	0.006359993
92	0xbcdd952d	-0.027048672
93	0x3d46dab5	0.04854842
94	0xbd1415e8	-0.036153704
95	0x3c2cbd65	0.010543202
96	0xbcd14930	-0.025547594
97	0xbe2643ea	-0.16236845
98	0x3d8f8c95	0.07009236
99	0xbcf7c32f	-0.030244438
100	0x3b00c50d	0.0019648701
101	0xbe3c7a46	-0.18406019
102	0x3dbfd680	0.093670845
103	0x3d416063	0.047211062
104	0xbb185d32	-0.0023248908
105	0x3cea966e	0.028636184
106	0x3c0331ae	0.00800745
107	0x3ceeb916	0.02914099
108	0xbe0366ed	-0.12832232
109	0x3dea0956	0.11427562
110	0xbe2099b1	-0.15683629
111	0xbd292c62	-0.041302092
112	0x3c3db8a1	0.0115796635
113	0x3c3c0149	0.011474916
114	0x3df931bf	0.121676914
115	0x3b8881c8	0.0041658618
116	0x3d1a07eb	0.037605207
117	0xbaafc2b7	-0.001340947
118	0x3e06f478	0.13179195
119	0x3d20d97d	0.039269913
120	0x3de00464	0.109383374
121	0xbc9645ab	-0.018343767
122	0xbda5841b	-0.08081838
123	0xbce18eaf	-0.027533857
124	0x3da48d06	0.080347106
125	0xbd78efc3	-0.06077553
126	0x3dfac369	0.12244303
127	0x3a8a30ff	0.0010543166
128	0x3da66411	0.08124555
129	0xba915b2b	-0.0011089792
130	0xbdbe3288	-0.09286982
131	0xbc7484c2	-0.01492423
132	0xbe244ecd	-0.16045685
133	0x3e0ad755	0.13558705
134	0x3ddccae4	0.10780886
135	0xbe8e5048	-0.27795625
136	0x3cff4028	0.031158522
137	0x3e42faf1	0.19041039
138	0xbe4dd727	-0.20101605
139	0x3dd9f0b9	0.10641617
140	0x3c89de08	0.016829506
141	0x3e2bc065	0.16772611
142	0xbda947cd	-0.08265648
143	0x3d162615	0.03665741
144	0xbd042d1d	-0.032269586
145	0xbe071daf	-0.13194917
146	0x3d2f989b	0.042870145
147	0xbcbf1363	-0.023324674
148	0x3e417c72	0.18895128
149	0xbd6aac06	-0.05729296
150	0x3ba764ca	0.0051084505
151	0x3e15f3ca	0.1464378
152	0x3d8702bd	0.06592319
153	0xbe826985	-0.2547113
154	0xbdcfa8ee	-0.10139643
155	0xbe581977	-0.21103464
156	0x3d98a13e	0.074526295
157	0xbdcf2cc0	-0.10115957
158	0x3d901a43	0.07036259
159	0x3dbdda44	0.092701465
160	0x3c529a4d	0.012854171
161	0xbcad3935	-0.021145443
162	0x3d530268	0.051515967
163	0x3c3df3dd	0.011593786
164	0x3d25cce0	0.040478587
165	0xbc254d40	-0.010089219
166	0x3c1b0d7c	0.009463664
167	0xbd849d45	-0.06475309
168	0xbd72ab34	-0.059245303
169	0x3bbd2974	0.005772764
170	0xbbc922d2	-0.006138184
171	0xbd3d8d34	-0.04627724
172	0x3da4178f	0.08012306
173	0xbd853067	-0.06503373
174	0x3c3e1247	0.011601037
175	0xbe03c4a7	-0.12867986
176	0x3e12bade	0.14329097
177	0xbd0ba39a	-0.03409157
178	0x3e079206	0.13239297
179	0xbd18aff1	-0.037277166
180	0xbd2eac82	-0.042644985
181	0x3e4f7efe	0.20263287
182	0x3dde4583	0.10853102
183	0xbd8e0ade	-0.069356665
184	0xbdb82213	-0.08990874
185	0x3d2801a1	0.04101718
186	0x3ce85873	0.028362488
187	0xbcb84bf4	-0.022497155
188	0x3db9975b	0.09062072
189	0xbc2c7738	-0.010526471
190	0xbb2e5487	-0.0026600675
191	0xbc95c7c5	-0.018283734
192	0xbdac47e0	-0.084121466
193	0x3e673940	0.22580433
194	0xbd4d434f	-0.05011302
195	0xbd7652a0	-0.06013739
196	0xbda0e49e	-0.07856105
197	0xbdb58f6b	-0.088652454
198	0xbdc0e816	-0.09419267
199	0xbd59eceb	-0.05320446
200	0xbe44ce99	-0.19219436
201	0xbe4e8855	-0.20169194
202	0xbdaf76a6	-0.08567552
203	0x3d7f3f04	0.062315956
204	0x3d0d42d2	0.034487553
205	0xbcc2eb88	-0.02379395
206	0xbd2fa970	-0.042886198
207	0x3caecf87	0.021339191
208	0xbe1c9016	-0.1528934
209	0x3e1062f5	0.14100249
210	0xbd9b3e0d	-0.075801946
211	0xbdc802c2	-0.09766151
212	0x3e48ae29	0.19597687
213	0x3b740ae3	0.0037237934
214	0x3e32210e	0.17395422
215	0xbdb9f590	-0.090800405
216	0x3e0c752c	0.13716573
217	0x3e161dba	0.14659777
218	0x3d722ce3	0.05912484
219	0x3b2a1821	0.0025954323
220	0x3d2cb2e1	0.04216278
221	0x3d9d0944	0.07667783
222	0xbd7f4dda	-0.062330104
223	0x39c5be52	0.00037716568
224	0x3d8eb62c	0.0696834
225	0xbe93431e	-0.28762144
226	0x3d984726	0.074354455
227	0xbd9b1456	-0.07572238
228	0xbd1b4d69	-0.03791562
229	0x3e0734db	0.13203757
230	0xbd26af27	-0.040694382
231	0xbe103115	-0.14081223
232	0xbd5187a5	-0.05115475
233	0x3b46642b	0.0030272107
234	0x3b1089c3	0.0022054769
235	0xbdeed498	-0.11661643
236	0xbe9b1461	-0.30288985
237	0xbe1e9524	-0.1548658
238	0xbe5d1413	-0.21589689
239	0x3ded1ff9	0.11578364
240	0xbd3d0cd0	-0.046154797
241	0x3da70d37	0.081568174
242	0x3dd22c6c	0.10262379
243	0xbdc63d15	-0.09679619
244	0x3e250063	0.16113429
245	0xbdae90cf	-0.08523714
246	0xbe58284c	-0.21109122
247	0xbdab9863	-0.08378675
248	0x3d9ea3b1	0.077460654
249	0x3d046968	0.032327086
250	0xbe8c3465	-0.27383724
251	0x3dde92bc	0.10867831
252	0x3cb2af5d	0.021812135
253	0xbdaf7337	-0.08566897
254	0xbe4f82d2	-0.20264748
255	0xbd556054	-0.05209382

classifier.2.bias f4 [84]
0	0x3dc0dab1	0.09416712
1	0xbc38597f	-0.011251806
2	0x3dbf9231	0.09354056
3	0x3d1a07c9	0.03760508
4	0xbd8ba57b	-0.06818672
5	0xbdda516c	-0.10660061
6	0x3ddac30e	0.10681735
7	0xbdb7abc6	-0.0896831
8	0xbd99baf9	-0.07506365
9	0xbd44d9b1	-0.04805917
10	0x3daa0183	0.083010696
11	0xbce9426d	-0.028474057
12	0xbc58958e	-0.01321925
13	0x3b3f8648	0.0029224325
14	0xbd510db9	-0.051038478
15	0xbc912035	-0.017715553
16	0x3d4c1649	0.04982594
17	0xbd897f68	-0.06713754
18	0xbe04eca6	-0.12980899
19	0x3e643ef5	0.22289641
20	0x3c03a935	0.008035948
21	0xbe008025	-0.12548883
22	0xbcc2113f	-0.023689864
23	0x3a270e67	0.00063726906
24	0xbc83119b	-0.015999606
25	0xbd199777	-0.037497964
26	0xbd798d44	-0.060925737
27	0xbb8345be	-0.0040061167
28	0xbd829a87	-0.0637713
29	0x3c3edf7b	0.011649962
30	0xbd6920a5	-0.056915898
31	0x3c448310	0.011994138
32	0xbdcbefc9	-0.09957845
33	0x3de7b605	0.11314014
34	0x3ce7271e	0.028216895
35	0xbd8f1d99	-0.06988067
36	0x3dba9dca	0.09112127
37	0xbc863db3	-0.016386842
38	0x3bce00e3	0.006286727
39	0xbd7513ab	-0.05983321
40	0xbdca71ae	-0.09884964
41	0x3e25230a	0.16126648
42	0x3d4faed3	0.050703835
43	0xbdb40845	-0.0879064
44	0xbc28d54b	-0.010304759
45	0xbd0d725b	-0.034532886
46	0x3e907d72	0.28220707
47	0x3da1478a	0.07874973
48	0xbd9a7cc7	-0.07543331
49	0x3dfd274b	0.1236101
50	0xbcb0f56c	-0.021601401
51	0x3c8c52a0	0.017129242
52	0xbd2bc311	-0.041934077
53	0x3daca0c6	0.084291026
54	0xbd28fd4e	-0.041257195
55	0x3d969816	0.07353227
56	0x3e8d0124	0.27539933
57	0x3d1041e1	0.035219077
58	0xbd8201b1	-0.06347979
59	0x3bdfee7a	0.0068338485
60	0x3e221f52	0.1583226
61	0x3dcd841a	0.10034962
62	0x3d1d5ee0	0.038420558
63	0xbd9717bf	-0.07377576
64	0x3d22766c	0.039663717
65	0xbd3424f1	-0.043980543
66	0xbdb5a228	-0.088688195
67	0xbc6141a6	-0.013748562
68	0x3cdc44cf	0.02688828
69	0x3e0ad2b1	0.13556935
70	0xbd4dfdbe	-0.050290816
71	0x3df4f7a4	0.11961296
72	0xbd466c35	-0.048443038
73	0x3e352d8d	0.17693157
74	0x3c3807b5	0.011232306
75	0xbda327d5	-0.07966582
76	0xbbd5f9ee	-0.006530038
77	0xbd2f4475	-0.042789895
78	0x3cb998eb	0.022655925
79	0x3dc16de2	0.094447866
80	0xbc0e4b84	-0.0086849965
81	0xbd8307b3	-0.06397953
82	0x3e249465	0.16072233
83	0xbd81860f	-0.06324398

fc.weight f4 [10, 84]
0	0x3e941855	0.28924814
1	0x3ea8152a	0.32828647
2	0xbe771c8e	-0.24131986
3	0xbdf39ed9	-0.11895532
4	0x3e255c6c	0.16148537
5	0xbe159568	-0.14607775
6	0xbccfb28e	-0.025353696
7	0xbe2bf01f	-0.16790818
8	0x3e8c9179	0.27454737
9	0x3e37b36b	0.17939536
10	0xbc41c2f0	-0.011826262
11	0xbe184771	-0.14871003
12	0x3c5be98f	0.013422384
13	0xbe85c085	-0.26123443
14	0xbe24d8f5	-0.16098388
15	0x3e687c6b	0.22703712
16	0xbee141da	-0.43995553
17	0xbec96696	-0.3933608
18	0xbebc2a3a	-0.36750966
19	0x3eac4d86	0.33652896
20	0x3eb680fb	0.3564528
21	0xbefeac34	-0.49740756
22	0xbbf0682f	-0.0073366384
23	0x3dcbec4b	0.09957179
24	0xbe644521	-0.22291996
25	0xbd79f98d	-0.061029006
26	0x3daad9fa	0.08342357
27	0x3d90afc8	0.070647776
28	0x3e362a09	0.17789473
29	0xbd9b9ee4	-0.07598665
30	0xbe8c5628	-0.27409482
31	0x3ead311d	0.33826533
32	0xbcef1e2c	-0.029189192
33	0x3eadd4ac	0.33951318
34	0x3ed4d0ac	0.41565454
35	0x3dba1ad7	0.090871505
36	0x3e9e9abd	0.3097743
37	0xbe0333b4	-0.12812692
38	0xbdc70c7c	-0.09719178
39	0x3d8c3d3b	0.06847616
40	0xbd949b2d	-0.0725616
41	0x3ec04045	0.37549034
42	0xbf001077	-0.50025123
43	0xbe17ce72	-0.14824846
44	0xbec6c946	-0.38825434
45	0x3e9623b1	0.29324105
46	0x3efee29c	0.49782264
47	0xbf020d56	-0.508016
48	0x3cf797dc	0.03022378
49	0x3e522ea5	0.20525606
50	0x3c9ba777	0.019000752
51	0x3dab3a55	0.08360735
52	0x3d9cde70	0.07659614
53	0xbbaceca9	-0.0052772355
54	0xbeb04078	-0.34424186
55	0xbe936470	-0.28787565
56	0x3ef45906	0.4772417
57	0xbe195d2e	-0.14976951
58	0x3d084e8e	0.03327804
59	0xbcdb0866	-0.026737403
60	0x3e060c49	0.13090624
61	0x3eefa379	0.46804407
62	0xbe024f58	-0.1272558
63	0xbe576c54	-0.21037418
64	0x3d9a7d7e	0.07543467
65	0x3db34348	0.08753067
66	0xbe0051e3	-0.12531237
67	0x3d903cab	0.070428215
68	0xbeff1419	-0.4982002
69	0x3eb71442	0.35757643
70	0xbe9e26e1	-0.30889037
71	0x3f00867d	0.5020521
72	0xbe3c49e2	-0.18387559
73	0xbe4c9737	-0.19979559
74	0xbdd8ae86	-0.10580163
75	0x3e0c30ab	0.1369044
76	0xbef8cce4	-0.4859382
77	0x3e922564	0.28544152
78	0x3e81aa33	0.25325164
79	0xbe26dbda	-0.16294804
80	0xbd93abb6	-0.07210486
81	0xbd22dbb8	-0.03976032
82	0x3eb66393	0.35622844
83	0x3d9ad47d	0.0756006
84	0xbdbd5a86	-0.092457816
85	0x3e158116	0.14600024
86	0xbe93e4d4	-0.2888552
87	0xbe07584f	-0.13217281
88	0xbd6f41b0	-0.058412254
89	0x3e3eeb90	0.18644547
90	0xbb7c21ac	-0.0038472218
91	0x3cfa9ecb	0.030593297
92	0x3d8a48cc	0.06752166
93	0xbe9c1ba2	-0.30489832
94	0x3d8b9a0a	0.0681649
95	0x3c7152f6	0.014729252
96	0x3ec4fb03	0.38472757
97	0xbe51c6ae	-0.20485947
98	0x3df54692	0.11976351
99	0x3e066ebe	0.13128182
100	0x3e8329ab	0.25617728
101	0x3e5def0b	0.21673219
102	0x3e23cd48	0.15996277
103	0xbe08f30f	-0.1337397
104	0x3e900fbc	0.28137004
105	0xbe044cce	-0.12919924
106	0x3bb59e7c	0.0055425745
107	0xbea5bceb	-0.32370695
108	0x3dcd48dd	0.10023663
109	0xbcc8cd6e	-0.024512019
110	0x3dd5d37b	0.10440727
111	0x3de6de78	0.11272901
112	0x3e53ba55	0.20676549
113	0x3dbf4f6e	0.09341322
114	0xbe31690c	-0.17325228
115	0x3e6fcbf8	0.23417652
116	0xbc119e20	-0.008887798
117	0xbdcdf7f4	-0.10057059
118	0x3d07b4bd	0.03313135
119	0xbe2dbc9a	-0.16966477
120	0xbdbec433	-0.09314766
121	0x3daff7eb	0.085922085
122	0x3d83b4ba	0.06430955
123	0xbd26ee7e	-0.040754788
124	0xbbb15bdf	-0.005412563
125	0xbe81302d	-0.25232068
126	0x3de822ac	0.11334738
127	0xbd9833c9	-0.07431752
128	0x3dd1c93e	0.10243462
129	0x3ecc1af4	0.39864314
130	0xbdacf4ec	-0.08445153
131	0xbe2583ea	-0.16163602
132	0x3c37deb7	0.011222533
133	0x3d9952f1	0.07486523
134	0x3eb65812	0.35614067
135	0x3eaaa941	0.33332255
136	0xbdbe83d1	-0.09302486
137	0x3ec37d2c	0.38181436
138	0x3e757246	0.23969373
139	0xbe7964fb	-0.24354927
140	0xbe9d66f9	-0.30742624
141	0x3d3c5865	0.045982737
142	0xbcf67e48	-0.030089512
143	0x3e5b0f2d	0.21392508
144	0xbdcbf309	-0.09958465
145	0x3e0509ff	0.12992094
146	0x3d6f8cc8	0.05848387
147	0xbd7aae96	-0.061201654
148	0xbe0da095	-0.13830788
149	0xbe19619a	-0.14978638
150	0x3d2a2547	0.041539457
151	0xbc7a88f1	-0.015291438
152	0xbd775de6	-0.060392283
153	0xbe0cd3eb	-0.13752715
154	0xbe76624b	-0.24060933
155	0x3edc8d32	0.43076473
156	0x3eb2d66c	0.34929216
157	0x3eb8f2f6	0.36122864
158	0x3c993be7	0.018705321
159	0xbf00a640	-0.5025368
160	0xbed71788	-0.4201014
161	0x3ab2d124	0.0013642651
162	0x3e3c1b3e	0.18369767
163	0xbf0a9a29	-0.5414148
164	0xbdc860c9	-0.09784085
165	0x3eb654d3	0.3561159
166	0xbe7803d3	-0.24220209
167	0x3e24a26a	0.16077581
168	0x3e247540	0.16060352
169	0x3cecae20	0.028891623
170	0xbf11bdc9	-0.56930214
171	0x3f09769d	0.53696615
172	0x3dacfef1	0.08447064
173	0xbe86ce64	-0.2632934
174	0x3e9b9782	0.3038903
175	0xbe0224a1	-0.12709285
176	0xbee2a848	-0.44269013
177	0x3d69fb1a	0.057124235
178	0xbdf8deb5	-0.12151853
179	0x3e0144c1	0.12623884
180	0x3e82ff96	0.25585622
181	0xbe1d90dd	-0.15387292
182	0x3e291466	0.16511688
183	0xbed07942	-0.40717512
184	0x3e98764a	0.29777747
185	0xbcff3ad6	-0.031155985
186	0x3d184eee	0.03718465
187	0x3efe5d00	0.49680328
188	0xbee3b078	-0.44470572
189	0xbf1dc8e2	-0.6163465
190	0x3e1acfef	0.15118383
191	0xbc4a61ca	-0.012352416
192	0xbd306a45	-0.043070097
193	0x3e388203	0.18018346
194	0xbbdb3b84	-0.0066904444
195	0x3d7cf1a7	0.061753895
196	0x3cbe6fbf	0.023246644
197	0x3caca634	0.021075346
198	0x3c2a362e	0.010388894
199	0xbe35f529	-0.17769302
200	0x3ed17550	0.40909815
201	0x3ec73220	0.3890543
202	0xbdb6df70	-0.08929336
203	0xbddf9ecc	-0.1091896
204	0x3ea612a2	0.3243609
205	0xbe0d831d	-0.13819547
206	0xbbcce80d	-0.0062532485
207	0xbe9ab2a3	-0.30214414
208	0xbd5cd9c3	-0.05391861
209	0x3d26317d	0.04057454
210	0xbddbcf67	-0.10732918
211	0xbdfce1d1	-0.123477586
212	0x3d7c83fd	0.06164931
213	0xbb2a8c67	-0.0026023628
214	0x3ef778dc	0.48334396
215	0x3ee79c6e	0.45236534
216	0xbdd311f0	-0.10306156
217	0x3e703dbf	0.23461054
218	0x3da86231	0.082218535
219	0xbef3dfd7	-0.47631714
220	0xbcbc49b6	-0.022984367
221	0x3e5f10a1	0.21783687
222	0xbf53f360	-0.82793236
223	0x3e46e6ba	0.19423953
224	0x3e882106	0.26587695
225	0xbe720aa9	-0.23636879
226	0x3d59e701	0.053198818
227	0x3d02c273	0.031923722
228	0x3efc5d5f	0.49289986
229	0xbdcde4f7	-0.10053437
230	0x3f1127d9	0.5670143
231	0x3c20e379	0.009819859
232	0xbd84e8fc	-0.06489751
233	0x3d1d6dba	0.03843472
234	0x3d59c636	0.053167544
235	0x3eae317e	0.34022135
236	0xbe2cadd8	-0.16863191
237	0x3c003da9	0.007827201
238	0x3e6310ba	0.2217435
239	0xbf751bb5	-0.957454
240	0x3d91a9fe	0.071125016
241	0x3ec6a374	0.3879658
242	0x3dd85163	0.10562398
243	0xbe40a795	-0.18813927
244	0xbd87bcae	-0.06627785
245	0x3d9689a7	0.07350474
246	0x3daaea88	0.083455145
247	0x3ee82194	0.45338118
248	0x3d6c2ef8	0.05766198
249	0x3d8e4289	0.06946284
250	0x3ef65eef	0.48119304
251	0x3e4a3115	0.19745286
252	0x3e147f2e	0.1450164
253	0xbed593c0	-0.41714287
254	0x3e50402e	0.20336983
255	0xbda9cef3	-0.082914256

fc.bias f4 [10]
0	0x3e770235	0.24121936
1	0xbe54a344	-0.20765406
2	0x3ed04f91	0.40685704
3	0x3de65389	0.11246402
4	0xbea525ca	-0.32255393
5	0x3bd916af	0.0066250185
6	0x3ea2c1c3	0.31788453
7	0xbe8c165a	-0.27360803
8	0x3d9c4179	0.076296754
9	0xbeb7443a	-0.3579424
