rand_models/LeNet5/avgcl3/r_noLS.pth (torch, 250474 bytes, 10 tensors)

features.0.weight f4 [6, 1, 5, 5]
0	0x3eebccaa	0.46054584
1	0x3ee480d3	0.44629535
2	0xbe909f30	-0.2824645
3	0xbf1c006b	-0.6093814
4	0xbd83070e	-0.0639783
5	0x3df6dd1f	0.12053894
6	0x3ebaae19	0.3646095
7	0xbebbc3bc	-0.3667277
8	0xbfd1cefa	-1.6391289
9	0xbf077b1e	-0.52922237
10	0x3f5ccb48	0.8624768
11	0x3f971f77	1.1806477
12	0xbea3e179	-0.3200796
13	0xc0071f9c	-2.1113043
14	0xbf4fc41f	-0.8115863
15	0x3f33493f	0.7003364
16	0x3fc380ee	1.5273721
17	0x3f80a27a	1.0049584
18	0xbf8f5049	-1.1196376
19	0xbe87ffad	-0.26562253
20	0x3e94b203	0.29042062
21	0x3e577dd7	0.21044098
22	0x3f3eb370	0.7449255
23	0xbf2de446	-0.6792644
24	0x3e99c97a	0.30036527
25	0x3e5becec	0.21477097
26	0x3ee9d563	0.45670614
27	0x3e084fee	0.13311741
28	0x3e7affb2	0.24511603
29	0x3d31d6f5	0.04341789
30	0x3db210b2	0.08694591
31	0xbc2e2da3	-0.010630998
32	0x3f0417b7	0.51598686
33	0x3c9b6712	0.018970046
34	0x3dc2f9d0	0.09520304
35	0xbecd95f0	-0.40153456
36	0x3df6fb35	0.12059633
37	0x3ed36740	0.4128971
38	0xbeb08991	-0.34479955
39	0x3e6388d2	0.22220162
40	0x3ebb1bd8	0.3654468
41	0x3ece16b4	0.40251696
42	0x3e0562ee	0.1302602
43	0xbe8eb2b4	-0.27870715
44	0x3ed4dfdb	0.41577038
45	0xbecec1ea	-0.4038232
46	0xbf032e39	-0.51242405
47	0xbf2cb87d	-0.67469007
48	0xbee44880	-0.44586563
49	0x3e29ff75	0.16601355
50	0xbf14254e	-0.5786942
51	0xbe6fbc9a	-0.2341179
52	0xbcbddfc0	-0.023177981
53	0x3f563126	0.83668745
54	0x3de1d9a9	0.110278435
55	0xbec4ebcf	-0.38461158
56	0xbf281be7	-0.65667576
57	0xbf0ebc23	-0.55755824
58	0x3f8f3b5d	1.1189991
59	0x3f2d7a04	0.67764306
60	0xbf82f4c3	-1.0230945
61	0xbf2cc3d6	-0.6748632
62	0xbdbf4255	-0.09338824
63	0x3fb09dc5	1.3798147
64	0x3d5ddda6	0.05416646
65	0xbe852cf1	-0.2601085
66	0xbe74766a	-0.23873296
67	0xbeaaf5d1	-0.33390668
68	0x3f6355fb	0.8880307
69	0xbe16b936	-0.1471909
70	0x3db4e477	0.08832639
71	0xbeb4bdd6	-0.35301083
72	0xbe91e66b	-0.28496107
73	0x3f1327fa	0.57482874
74	0xbc821baf	-0.015882341
75	0xbc38eac7	-0.011286444
76	0xbea5f109	-0.32410458
77	0xbd98cdc5	-0.074611224
78	0xbdd6aab7	-0.1048178
79	0xbe0aad60	-0.135427
80	0x3e3be512	0.18349102
81	0x3f126c98	0.5719695
82	0x3e8a2454	0.2698084
83	0x3d12c6d0	0.035834134
84	0x3e43d7b3	0.19125251
85	0xbdaf7899	-0.08567924
86	0x3e9bc50a	0.30423766
87	0x3ebf9f42	0.37426192
88	0x3e3bebd7	0.18351685
89	0xbd888b1e	-0.066671595
90	0x3e55f9d5	0.20896085
91	0x3f13639a	0.57573855
92	0x3f07f8c2	0.5311395
93	0x3ecea57e	0.40360636
94	0x3e0f1d4b	0.13976018
95	0x3c836332	0.016038511
96	0x3e98beb1	0.29832986
97	0x3ece3606	0.40275592
98	0x3deb2d67	0.11483269
99	0xbd4278a8	-0.047478348
100	0x3e20810e	0.1567423
101	0x3db7c338	0.08972782
102	0x3c09c905	0.008409743
103	0x3d4e1e40	0.050321817
104	0x3d097e38	0.033567637
105	0xbf14bae2	-0.5809766
106	0x3f09d8bf	0.53846353
107	0x3f5877b0	0.8455763
108	0x3eae0236	0.33986062
109	0x3e20ba62	0.156961
110	0x3f218637	0.6309542
111	0x3fb397af	1.4030665
112	0x3f41c14d	0.7568558
113	0x3eb288d0	0.34870005
114	0x3d502f7f	0.050826546
115	0x3f0c7d6c	0.5487888
116	0x3f2e749b	0.68146676
117	0x3e12f1e8	0.14350092
118	0xbebffebf	-0.37499043
119	0xbe3fce41	-0.18731023
120	0x3cc57d35	0.024107555
121	0xbd003228	-0.031297833
122	0xbf5a23de	-0.8521098
123	0xbefdbb90	-0.4955716
124	0xbecae1f0	-0.39625502
125	0x3e041e0b	0.12902085
126	0x3ee88ce5	0.45419994
127	0x3f473673	0.7781746
128	0xbf126c09	-0.571961
129	0xbf218925	-0.6309989
130	0x3f2ed31d	0.68290883
131	0x3e5dfbdb	0.21678106
132	0x3f473010	0.7780771
133	0x3d48bdc2	0.049009092
134	0xbf1c7df1	-0.6112967
135	0x3eebd820	0.46063328
136	0x3f7be0b0	0.9838972
137	0x3f14f934	0.58192754
138	0x3f01e494	0.5073941
139	0xbde93d24	-0.11388615
140	0xbf1b16c6	-0.60581625
141	0x3e46676a	0.19375387
142	0x3e4ca43e	0.19984528
143	0x3dd26c2f	0.10274541
144	0xbdccd709	-0.10001952
145	0xbe9c2d30	-0.30503225
146	0xbd5ac78c	-0.05341296
147	0xbd05a4d2	-0.032627888
148	0xbe0f3538	-0.13985145
149	0xbd72e788	-0.059302837

features.0.bias f4 [6]
0	0x3f5c0baa	0.859553
1	0x3d1384c8	0.036015302
2	0x3e0aa214	0.1353839
3	0xbee33bb0	-0.44381475
4	0xbc897a5b	-0.016781976
5	0xbcd28bdf	-0.025701461

features.3.weight f4 [16, 6, 5, 5]
0	0xbe1445fb	-0.1447982
1	0xbd115a12	-0.03548629
2	0xbe77ba6a	-0.24192205
3	0xbecb6ddc	-0.39732254
4	0xbd9f5626	-0.077801034
5	0xbec3fdc1	-0.38279536
6	0xbd3c4a6b	-0.045969408
7	0xbdfdae45	-0.12386755
8	0xbe8a40ec	-0.27002656
9	0xbe991f9d	-0.29906932
10	0xbe15e942	-0.14639762
11	0xbe0dc889	-0.1384603
12	0xbe14a6e9	-0.14516796
13	0xbf058a06	-0.5216373
14	0xbcfbbc1a	-0.030729342
15	0xbe82a501	-0.25516513
16	0xbe684df0	-0.22685981
17	0xbe89846e	-0.26858848
18	0xbf1765aa	-0.591395
19	0x3e0156c8	0.1263076
20	0xbe99411e	-0.29932493
21	0xbea1fc20	-0.3163767
22	0xbeb622cc	-0.35573423
23	0xbf06b836	-0.52624834
24	0xbde70740	-0.1128068
25	0x3e11e99c	0.14249271
26	0x38dcf8cd	0.0001053676
27	0xbde96d09	-0.1139775
28	0xbd1b7d2e	-0.037961178
29	0x3dcefd3b	0.10106894
30	0x3d8bb342	0.068213
31	0xbde01f3e	-0.10943459
32	0xbe230b85	-0.15922363
33	0xbe1a9182	-0.1509457
34	0xbd1503ec	-0.036380693
35	0x3d7dae7b	0.061933976
36	0xbdbac0ab	-0.0911878
37	0xbd29f190	-0.041490138
38	0xbe093159	-0.13397731
39	0x3c93bc22	0.018034045
40	0xbd8c47cb	-0.06849631
41	0x3d6b9036	0.057510577
42	0x3e3b915f	0.18317173
43	0x3dbbc0c0	0.091676235
44	0x3e3b3415	0.18281586
45	0xbc365007	-0.011127478
46	0xbc97e22c	-0.018540464
47	0x3c9b1bae	0.018934097
48	0xbbfb32d9	-0.0076659736
49	0x3e1db61a	0.15401497
50	0x3e136548	0.14394104
51	0xbdad83fb	-0.08472439
52	0xbe1be6a1	-0.15224697
53	0xbd6e1718	-0.058127493
54	0xbc83a23b	-0.016068568
55	0xbdaf4071	-0.08557213
56	0xbe60af51	-0.21941878
57	0xbeb75100	-0.35803986
58	0xbd653ca8	-0.05596605
59	0xbdc86b36	-0.09786074
60	0xbdf0ec6c	-0.11763844
61	0xbda0906b	-0.078400455
62	0xbe7813c4	-0.2422629
63	0xbe1cba44	-0.1530543
64	0xbe44a1ec	-0.19202393
65	0x3dcc2eca	0.09969862
66	0x3a15662e	0.0005699125
67	0xbe5c7b8d	-0.21531506
68	0xbe96b26a	-0.29432994
69	0xbe5ec3f9	-0.21754445
70	0x3da8afd0	0.082366586
71	0xbd446dea	-0.047956385
72	0xbea86e69	-0.32896736
73	0xbbc07b11	-0.0058740457
74	0xbe08d493	-0.1336234
75	0x3df57306	0.119848296
76	0x3e76c791	0.24099566
77	0xbcb24976	-0.021763545
78	0x3dc20c30	0.09474981
79	0x3de67258	0.11252278
80	0xbdffba32	-0.12486686
81	0x3e1a8ce9	0.15092815
82	0xbc20ee24	-0.009822402
83	0x3cf2f616	0.029658359
84	0x3e3b47a3	0.18289046
85	0xbd9d5342	-0.07681896
86	0x3e8a52f4	0.27016413
87	0x3e48f8cb	0.19626157
88	0x3e3fd28a	0.18732658
89	0x3e8b986c	0.27264726
90	0xbbf1ffa6	-0.007385212
91	0x3e615e50	0.22008634
92	0x3e672b96	0.2257522
93	0x3e91ee45	0.28502098
94	0x3e7472b9	0.23871888
95	0xbd5345a4	-0.051580086
96	0xbe519b8d	-0.20469494
97	0xbe4c1631	-0.1993034
98	0x3c65c91b	0.014024998
99	0x3de5fe2a	0.112301186
100	0x3d4168a9	0.047218952
101	0xbbaae85d	-0.005215688
102	0x3e419e5c	0.18908066
103	0xbb9d2873	-0.0047960817
104	0xbd45db21	-0.04830468
105	0xbd4fdeda	-0.050749637
106	0xbd40e7d0	-0.047096074
107	0xbe152f1b	-0.1456875
108	0xbea576ff	-0.3231735
109	0xbe0733b4	-0.13203317
110	0xbd943508	-0.072366774
111	0x3deb4835	0.11488382
112	0x3e02b435	0.12764056
113	0xbce1864a	-0.027529854
114	0x3ea2d45a	0.31802636
115	0xbddfea4c	-0.109333605
116	0x3ec12c11	0.37728932
117	0x3ebf1ca7	0.37326548
118	0x3e11f7ba	0.14254656
119	0x3e08ade3	0.13347583
120	0x3e368c47	0.17826949
121	0x3c1ad49c	0.009450104
122	0xbdb75959	-0.089525886
123	0xbe2e24d5	-0.17006238
124	0x3bd26a95	0.006421397
125	0x3d189446	0.03725078
126	0x3e14850c	0.14503878
127	0xbe3c87d7	-0.18411194
128	0x3d24273b	0.040076476
129	0x3e8c191f	0.27362916
130	0xbd0df5d1	-0.034658257
131	0x3d02b071	0.03190655
132	0xbe7d025f	-0.24707936
133	0xbe75124f	-0.23932765
134	0xbcd7bd14	-0.026335277
135	0xbe2ac7ca	-0.16677776
136	0x3dcaf431	0.09909857
137	0xbc8fecd5	-0.017568985
138	0x3c9f8ea4	0.019477196
139	0x3db3b3cc	0.08774528
140	0xbdb653ca	-0.089027
141	0x3e4deb14	0.20109206
142	0x3e0cb705	0.13741691
143	0x3e5337d5	0.20626767
144	0x3ea8f57c	0.3299979
145	0xbe24d067	-0.16095124
146	0xbddbf315	-0.107397236
147	0xbde5e943	-0.11226132
148	0xbd0ea707	-0.03482726
149	0x3e4f66f2	0.20254114
150	0x3b940ff1	0.004518502
151	0x3cf54753	0.029941237
152	0xbdf782d2	-0.12085499
153	0xbdbd2b15	-0.09236733
154	0xbe15a0fc	-0.14612192
155	0x3e3b81b7	0.18311201
156	0x3deac1e1	0.11462761
157	0x3e2737fa	0.16329947
158	0x3e08aedb	0.13347952
159	0x3df823b3	0.12116184
160	0xbe1f32a9	-0.15546669
161	0x3e350aba	0.17679873
162	0x3dd5c751	0.10438407
163	0xbd83206c	-0.06402668
164	0xbd4ff10c	-0.05076699
165	0xbc04e17a	-0.008110398
166	0xbd02441e	-0.031803243
167	0xbd57e882	-0.05271197
168	0xbdf7a165	-0.120913304
169	0x3d0e2e89	0.034712348
170	0x3e2c595e	0.16830966
171	0x3dcdd432	0.10050239
172	0xbd553acd	-0.05205803
173	0xbe215ad9	-0.15757312
174	0xbe87bf42	-0.26513106
175	0xbdabe547	-0.083933406
176	0xbb7fbfe1	-0.003902428
177	0xbdd49e6f	-0.10381781
178	0xbd1ccb0b	-0.038279574
179	0x3d0f4d1d	0.03498565
180	0xbdc761fe	-0.097354874
181	0xbe134862	-0.1438308
182	0xbd00889c	-0.03138028
183	0xbddff73d	-0.10935829
184	0x3e023087	0.12713824
185	0x3d4526fa	0.048132874
186	0xbbc2028f	-0.005920715
187	0xbc7f75dc	-0.015592065
188	0xbd623887	-0.05522969
189	0x3bb01cc8	0.0053745247
190	0xbbd2db1c	-0.0064348113
191	0xbd004e44	-0.03132464
192	0xbdbead1e	-0.09310363
193	0xbd836fcf	-0.0641781
194	0xbc4936ab	-0.0122811
195	0x3d95d6c7	0.07316356
196	0xbd1cbf18	-0.03826818
197	0xbdacb2e0	-0.08432555
198	0x3db6f69f	0.08933758
199	0x3d85220d	0.06500635
200	0xbe16d0a6	-0.1472803
201	0xbdbac14d	-0.091189004
202	0xbe020c6b	-0.1270005
203	0x3d9e6255	0.07733599
204	0x3dd1c318	0.10242289
205	0x3d9c03b1	0.076178916
206	0xbd368289	-0.04455808
207	0xbdd49860	-0.10380626
208	0x3e2970af	0.16546892
209	0x3de3012c	0.11084208
210	0x3e3c0ff1	0.18365456
211	0xbe1f7375	-0.15571387
212	0xbe444ca4	-0.19169861
213	0x3e6b1634	0.22957689
214	0x3e72a19c	0.23694462
215	0x3d9ad563	0.075602315
216	0xbe4230a6	-0.1896387
217	0xbe0cbbf7	-0.13743578
218	0x3cec962b	0.0288802
219	0xbd250dd0	-0.040296376
220	0xbd89a96c	-0.06721768
221	0x3a921642	0.0011145549
222	0xbe2eed21	-0.17082645
223	0xbe1c54d2	-0.15266731
224	0xbe00ed18	-0.12590444
225	0xbe7a5491	-0.24446322
226	0xbe80451a	-0.2505272
227	0xbe65b1c3	-0.22431092
228	0xbe831e7a	-0.2560919
229	0x3c97255d	0.018450433
230	0xbdf680cc	-0.12036285
231	0xbe19d31d	-0.1502194
232	0xbe8a7581	-0.27042773
233	0xbe3bb9ca	-0.18332592
234	0xbc27fe51	-0.010253505
235	0x3db0debb	0.086362325
236	0x3df2f4ee	0.11863123
237	0xbcc898a8	-0.024486855
238	0xbbcf0c94	-0.006318638
239	0x3ca6114d	0.020271922
240	0x3d8647a0	0.0655663
241	0x3e5104bc	0.20411962
242	0x3d824b4b	0.06362017
243	0x3d4ae98d	0.049539138
244	0x3e0f2657	0.13979469
245	0x3e343c66	0.17601165
246	0x3e82cd1d	0.25547114
247	0x3e09e0a4	0.134646
248	0x3be02cbf	0.0068412717
249	0x3dd45d32	0.10369338
250	0xbea8d24a	-0.32972938
251	0xbee818b6	-0.45331353
252	0xbeee1dfe	-0.46507257
253	0xbe8df3f7	-0.27725193
254	0xbdc3c10f	-0.095583074
255	0x3b411882	0.002946407

features.3.bias f4 [16]
0	0xbd851811	-0.06498731
1	0x3ca6e7d7	0.020374222
2	0xbd365633	-0.0445158
3	0x3d5fb176	0.0546126
4	0xbd539aa3	-0.051661145
5	0x3e562d32	0.20915678
6	0xbd6c8c87	-0.057751205
7	0x3e8bbc21	0.27291968
8	0x3e1c832f	0.15284418
9	0xbde58c3d	-0.11208389
10	0x3d07f3c8	0.033191472
11	0x3d040f59	0.0322412
12	0x3e61ed4e	0.22063181
13	0x3e1d42b9	0.15357484
14	0xbdfe53bf	-0.12418317
15	0x3ce8e6fb	0.028430453

classifier.0.weight f4 [120, 400]
0	0xbce1f24d	-0.027581358
1	0xbd1ff3b4	-0.039050773
2	0xbd56c6e7	-0.05243578
3	0xbb1567b2	-0.0022797403
4	0xbd349eba	-0.044096686
5	0x3d4cc1bb	0.049989443
6	0xbd9e0ab7	-0.077168874
7	0xbc3cadb8	-0.011516027
8	0x3a4cd68a	0.0007813951
9	0xbd937f7b	-0.07202049
10	0xbd0df7ed	-0.03466027
11	0x3d1f2eb7	0.03886291
12	0xbd2d5fb6	-0.042327605
13	0x3c87ceba	0.016578067
14	0xbd91be3f	-0.07116365
15	0x3bc3cee2	0.00597559
16	0xbbef2146	-0.0072976677
17	0xbcbe0bac	-0.023198925
18	0x3d1ccd1b	0.03828154
19	0xbb132a6e	-0.002245571
20	0x3d5857fa	0.052818276
21	0x3cf72c19	0.030172395
22	0x3c992bd5	0.018697659
23	0xbd0215a5	-0.031758923
24	0x3d66189c	0.056175813
25	0xbba66465	-0.005077886
26	0xbcca3076	-0.024681311
27	0xbd314c38	-0.04328558
28	0x3cb2dc55	0.021833578
29	0x3b87786a	0.0041342275
30	0x3cec08c7	0.02881278
31	0x3cad4a95	0.021153728
32	0xbcbf6fff	-0.023368834
33	0xbbc9ead8	-0.0061620288
34	0x3ae0331e	0.0017105078
35	0xbbad47e3	-0.0052881106
36	0x3dbda57d	0.0926008
37	0x3de90d26	0.11379461
38	0x3ca63bb4	0.02029214
39	0x3cd894d6	0.026438158
40	0xbdadf031	-0.084930785
41	0x3d9fffdb	0.078124724
42	0xbd16c8f6	-0.036812745
43	0x3ca5cd0e	0.02023938
44	0xbd36944c	-0.04457502
45	0x3c6d99c7	0.014501995
46	0x3c10e51b	0.0088436855
47	0x3c2e9029	0.010654488
48	0x3c77d9ef	0.015127643
49	0x3cb889c9	0.022526639
50	0x3d0da0b8	0.0345771
51	0x3c7bc2ac	0.015366238
52	0x3cfe96fe	0.031077858
53	0xbbdfe61b	-0.0068328506
54	0x3d141b3e	0.036158793
55	0xbc1f8920	-0.009737283
56	0xbc8057f7	-0.015666945
57	0x3cb6eb73	0.022329068
58	0x3c41e247	0.011833734
59	0x3c2ecba6	0.010668671
60	0x3cea920b	0.028634092
61	0xbc88bd0b	-0.016691705
62	0xbaaf51c5	-0.001337581
63	0xbc2f7c93	-0.010710853
64	0xbd874870	-0.06605613
65	0xbda87762	-0.082258955
66	0xbd305e96	-0.043058954
67	0xbd112b1a	-0.035441495
68	0x3d8646f3	0.06556501
69	0xbc17608f	-0.00923933
70	0xbd4e698c	-0.050393626
71	0xbd123152	-0.035691567
72	0xba2a507c	-0.00064969785
73	0xbbcb56b9	-0.0062054065
74	0xbd11499c	-0.03547059
75	0xbbdf0cf9	-0.0068069664
76	0x3d9390f5	0.07205383
77	0xbcb35318	-0.021890208
78	0xbdcb0d06	-0.099145934
79	0xbe19e7bc	-0.15029806
80	0xbce04e86	-0.027381193
81	0x3ca44466	0.020052146
82	0x3cb9bbaf	0.022672502
83	0xbdcaa2a8	-0.098943055
84	0x3d221f98	0.03958091
85	0xbdb4eef5	-0.0883464
86	0xbc30278e	-0.010751618
87	0xbd3b62d8	-0.04574856
88	0x3ba94ade	0.0051663956
89	0xbd06046d	-0.032719065
90	0xbd7093a7	-0.058734562
91	0x3cb7db62	0.022443477
92	0xbdb03b62	-0.086050764
93	0xbb23ed6a	-0.0025013336
94	0x3d1f2c30	0.0388605
95	0xbdfd0550	-0.12354529
96	0xbca32cbd	-0.019918794
97	0xbd339699	-0.043844793
98	0x3da2f404	0.079566985
99	0x3d9f6e6a	0.07784732
100	0xbc5e65f5	-0.013574113
101	0xbd870712	-0.065931454
102	0xbd5a7fc1	-0.053344492
103	0xbd3ad1ae	-0.045610122
104	0xbd54f2d7	-0.051989403
105	0xbd1c2c1f	-0.038128015
106	0x3c38a731	0.01127033
107	0xbbb45d8e	-0.0055043167
108	0x3cbae234	0.02281294
109	0x3d44a468	0.048008353
110	0xbcfc72ef	-0.030816523
111	0x3c2488fc	0.010042425
112	0xbbbae95d	-0.0057040886
113	0xbbe89f82	-0.007099093
114	0xbdc9af99	-0.09847946
115	0xbce36c11	-0.027761491
116	0x3cee55bb	0.029093614
117	0xbd3324f4	-0.043736413
118	0x3b64245c	0.003481171
119	0xba416e95	-0.0007378844
120	0x3d207bdc	0.03918062
121	0x3c59fa75	0.0133043425
122	0xbbca1759	-0.006167334
123	0xbd7853d3	-0.060626816
124	0x3d502e7e	0.05082559
125	0x3caf3745	0.02138866
126	0x3c61136a	0.013737539
127	0x3c72959d	0.014806178
128	0x3d98b9fb	0.07457348
129	0x3d8ab4dd	0.06772778
130	0x3c5aede0	0.013362378
131	0xbd45ca50	-0.048288643
132	0xbd2ded67	-0.042462733
133	0x3af85a28	0.0018947767
134	0xbd8718d6	-0.06596534
135	0x3cfefdb8	0.031126842
136	0xbdd2099e	-0.102557406
137	0xbd49fafe	-0.04931163
138	0xbded151a	-0.115762904
139	0xbe1070f5	-0.1410559
140	0xbdaf852d	-0.08570323
141	0xbb9a8ef5	-0.004716749
142	0x3dbbdd35	0.09173051
143	0xbbba6737	-0.0056885737
144	0x3cd199cb	0.02558603
145	0x3ddaaf9d	0.10678027
146	0x3c624fd0	0.013812974
147	0x3d855eff	0.0651226
148	0x3dbef3a8	0.093238175
149	0x3dcb5532	0.09928359
150	0xbda4a8ed	-0.080400325
151	0xbd9e47a0	-0.07728505
152	0x3dacdc73	0.08440485
153	0xbc8523ea	-0.016252477
154	0xbdb795b3	-0.089641
155	0xbcbe2596	-0.023211282
156	0xbd0a3f24	-0.03375162
157	0x3c8b22a3	0.01698429
158	0x3c1ed110	0.009693399
159	0xbca397d3	-0.019969856
160	0xbc824573	-0.015902257
161	0xbc09b9ba	-0.008406097
162	0xbd3530ca	-0.044235982
163	0xbd6ee6c0	-0.05832553
164	0x3da8f18f	0.08249199
165	0xbdd7167d	-0.10502336
166	0xbcf3c9b6	-0.02975927
167	0xbd95e017	-0.07318132
168	0xbcfefb3f	-0.031125663
169	0xbcde00cb	-0.027099987
170	0xbd4dcc8a	-0.05024389
171	0xbd3de1df	-0.046357986
172	0xba9416c4	-0.0011298289
173	0x3c2230b2	0.009899305
174	0xbd14d3f8	-0.03633496
175	0x3d93134a	0.071814135
176	0xbd2c78f1	-0.042107526
177	0xbd2e9247	-0.04261997
178	0x3e171f72	0.14758089
179	0xbd4ab2ea	-0.049487032
180	0xbc3aec14	-0.0114088245
181	0x3d06933f	0.03285527
182	0x3cc07ff6	0.023498517
183	0x3d308328	0.04309383
184	0x3cda960e	0.02668288
185	0xbd051265	-0.032488246
186	0xbd31fcb0	-0.043453872
187	0x3dc76bdb	0.09737369
188	0xbd7dd2da	-0.06196866
189	0x3cc6acf3	0.02425239
190	0xbc942e6f	-0.018088548
191	0xbbb6dfde	-0.0055808863
192	0xb8f20eac	-0.00011542192
193	0xbc3e66b0	-0.011621162
194	0x3d636fbd	0.055526484
195	0xbd0abe95	-0.03387316
196	0xbd06b676	-0.032888852
197	0xbc2e6321	-0.010643751
198	0x3c80529a	0.015664387
199	0xbcb99189	-0.022652404
200	0xbd4773d8	-0.04869446
201	0xbdaace28	-0.083401024
202	0xbde2a432	-0.11066474
203	0xbdfb9dc6	-0.12285952
204	0xbd699c19	-0.057033632
205	0xbbcd1d87	-0.0062596234
206	0xbcaa4e81	-0.020789387
207	0x3cf5743b	0.02996265
208	0x3b7210fe	0.0036936398
209	0x3c8f5146	0.017494809
210	0xbc4a4bce	-0.012347175
211	0xbd7ce2f3	-0.061739873
212	0xbce38d51	-0.027777346
213	0x3c9948fa	0.018711556
214	0x3d315b74	0.043300107
215	0x3cb69c0b	0.022291204
216	0x3cfad3a4	0.030618496
217	0xbdc443e4	-0.095832616
218	0x3d3f675f	0.04672944
219	0xbb154f1b	-0.0022782746
220	0x3d439bca	0.047755994
221	0x3d8a8788	0.06764132
222	0x3cce18bf	0.025158284
223	0x3d888309	0.06665618
224	0x3d8544ff	0.065073006
225	0xbc8d105a	-0.017219711
226	0x3e18ff04	0.1494103
227	0xbd422390	-0.047397196
228	0xbc5290fc	-0.01285195
229	0x3d063e10	0.03277403
230	0x3d9a1b17	0.07524698
231	0x3cd7db49	0.02634968
232	0xbe00bc0b	-0.12571733
233	0xbcc03238	-0.023461446
234	0xbcf4c78a	-0.029880304
235	0x3cba2595	0.022722999
236	0xbc0fccf3	-0.008776891
237	0x3cdf89b5	0.027287344
238	0x3e0b8055	0.13623174
239	0xbd5ac8c9	-0.05341414
240	0xbd122995	-0.035684187
241	0x3cc44c9f	0.023962317
242	0x3d858fb5	0.065215506
243	0x3d519ae7	0.051173117
244	0x3d811989	0.063036986
245	0x3cf50d08	0.02991344
246	0x3c7b109e	0.015323786
247	0xbcd0ef3b	-0.025504699
248	0xbd91bd90	-0.07116234
249	0xbc98c63c	-0.018649213
250	0xbc9c7c99	-0.019102382
251	0xbd71aaa8	-0.05900064
252	0x3d7ce3e1	0.06174076
253	0xbd35a7fb	-0.04434965
254	0xbd0c581f	-0.034263726
255	0xbde78612	-0.11304869

classifier.0.bias f4 [120]
0	0x3cf0e7c3	0.029407388
1	0x3dd94ad3	0.10609975
2	0x3db48329	0.08814079
3	0xbd4a6fe5	-0.049423117
4	0x3d5fd78b	0.054648917
5	0xbd30d578	-0.04317233
6	0xbd49283e	-0.049110644
7	0xbddfb54e	-0.10923253
8	0x3b7c0a21	0.0038458186
9	0xbc1f324b	-0.009716581
10	0x3aa1e87d	0.0012352612
11	0xba9e3791	-0.0012071003
12	0x3d28c73f	0.04120564
13	0xbcb26baf	-0.021779863
14	0x3d967e4d	0.07348309
15	0x3d79e549	0.06100968
16	0xbcaeed04	-0.021353252
17	0xbcb0024b	-0.021485468
18	0xbba74d2b	-0.0051056347
19	0xbd62fddc	-0.05541788
20	0xbca939a9	-0.020657377
21	0x3d6efe2f	0.058347877
22	0x3d0535a6	0.032521866
23	0x3d9c42d7	0.07629936
24	0xbde53779	-0.11192221
25	0x3c12a2bc	0.008949932
26	0xbd25fe0f	-0.040525492
27	0xbce2809a	-0.027649213
28	0x3d9c26e9	0.07624609
29	0x3c1c47c7	0.009538597
30	0x3c6f9449	0.014622756
31	0x3d0741bd	0.033021677
32	0xbc94c78e	-0.018161561
33	0xbd3bc54c	-0.045842454
34	0xbc5d466f	-0.013505562
35	0x3d01e570	0.03171295
36	0x3d73ee30	0.059553325
37	0x3c9f97b7	0.019481523
38	0xbd1e541e	-0.03865444
39	0xbc8d5813	-0.017253911
40	0x3d876345	0.06610731
41	0x3d2f26d0	0.042761624
42	0xbc82ce2f	-0.015967457
43	0x3d4d6d18	0.050152868
44	0x3c8af07c	0.016960375
45	0x3c03314a	0.008007357
46	0xbc269ef3	-0.010169732
47	0xbd5a7dca	-0.053342618
48	0xbd0282ea	-0.03186313
49	0xbcd5a290	-0.026078492
50	0x3c933b18	0.017972514
51	0xbcdabd18	-0.026701495
52	0x3c847596	0.01616935
53	0xbd02d303	-0.031939518
54	0xbb7ecd52	-0.0038879705
55	0xbc43829e	-0.011932997
56	0xbca0fbe7	-0.019651366
57	0xbcc4a206	-0.02400304
58	0xbc0b74d4	-0.008511741
59	0x3d35fd18	0.044430822
60	0x3d7ea81f	0.06217205
61	0xbd88897b	-0.06666847
62	0xbc7482b4	-0.01492374
63	0xbd2f8afc	-0.042857155
64	0xbd18acbd	-0.03727411
65	0x3e1261b3	0.14295082
66	0xbcbb911a	-0.022896338
67	0x3c9b0dfd	0.018927569
68	0x3baf4620	0.0053489357
69	0xbd354f5d	-0.04426514
70	0xbd99b8be	-0.0750594
71	0x3ceb190b	0.028698465
72	0xbc25f5ea	-0.010129431
73	0x3cf14c1e	0.02945524
74	0x3ca6c59d	0.020357901
75	0xbd92bdb9	-0.07165093
76	0xbca4f27a	-0.020135153
77	0xbcd0cf52	-0.025489483
78	0xbd97264b	-0.07380351
79	0xbd3a9df7	-0.045560803
80	0x3d647a9a	0.055780984
81	0x3d88d7e0	0.066818
82	0x3d0b7822	0.034050114
83	0xbbea484f	-0.007149733
84	0x3c8e3b2e	0.017362203
85	0xbcbe87ec	-0.023258172
86	0xbe0211a4	-0.12702042
87	0x3dc58a03	0.09645464
88	0xbaf22465	-0.0018473981
89	0x3d07408b	0.033020537
90	0x3d4d6c54	0.050152138
91	0xbd4ec127	-0.050477173
92	0x3d3e0d86	0.046399616
93	0x3b216fe0	0.0024633333
94	0x3b57808c	0.0032883016
95	0xbd0339f2	-0.032037683
96	0xbceb38ce	-0.02871361
97	0xbc69c58e	-0.014268292
98	0x3d58ef95	0.05296286
99	0x3d571479	0.05250976
100	0x3b697d31	0.0035627598
101	0x3d312f0c	0.043257758
102	0x3c516f5b	0.012782897
103	0x3c12718e	0.008938206
104	0x3d00dbc7	0.031459596
105	0xbbd2e287	-0.0064356956
106	0x3d0bc929	0.03412739
107	0xbcaa47be	-0.020786162
108	0x3c801a46	0.015637528
109	0x3d11d1d0	0.035600483
110	0xbd228d5c	-0.039685592
111	0xbc336d76	-0.0109513905
112	0x3d104b3c	0.035228
113	0x3d107b43	0.0352738
114	0xbcd25153	-0.025673544
115	0x3db6520c	0.08902368
116	0xbc73410b	-0.01484705
117	0xbba07a4f	-0.004897393
118	0x3ce6f947	0.028195037
119	0xbc9a01e2	-0.018799726

classifier.2.weight f4 [84, 120]
0	0xbd207dc8	-0.039182454
1	0x3e295575	0.16536506
2	0xbd374a07	-0.044748332
3	0x3e089127	0.13336621
4	0xbd48ab28	-0.048991352
5	0x3df4289d	0.11921809
6	0xbe6c31ad	-0.23065825
7	0x3d4c8035	0.049926955
8	0xbd09d1af	-0.033647235
9	0x3dd9a2d1	0.10626758
10	0x3ca71992	0.020397935
11	0xbd9d36a2	-0.07676436
12	0xbd417b18	-0.047236532
13	0xbcf1e0b1	-0.029526087
14	0x3d72ca8d	0.0592752
15	0xbdd59f87	-0.10430818
16	0x3de3085f	0.11085581
17	0xbe3b9742	-0.18319419
18	0xbe1d1c80	-0.15342903
19	0xbc9973c1	-0.018731954
20	0xbcf1c609	-0.029513376
21	0x3d8281fd	0.063724495
22	0xbe4086f0	-0.18801475
23	0x3d2b8b8b	0.041881125
24	0x3dcbd5d0	0.09952891
25	0x3cba5303	0.022744661
26	0x3dc24834	0.09486428
27	0xbd076295	-0.033053
28	0xbd977a78	-0.07396406
29	0x3e489c42	0.19590858
30	0xbcdc1504	-0.02686549
31	0x3e4ec5c4	0.20192629
32	0x3d32b47d	0.04362916
33	0x3d95dbd3	0.07317319
34	0xbd893134	-0.06698838
35	0x3d84cb10	0.064840436
36	0xbe044858	-0.12918222
37	0x3ab5d7dc	0.0013873535
38	0xbe12126e	-0.14264843
39	0x3d421b0c	0.047389075
40	0x3e20dc08	0.15708935
41	0xbdd2c178	-0.102908075
42	0xbd183f28	-0.037169605
43	0xbc71e143	-0.014763179
44	0x3dc89f9f	0.0979607
45	0x3d17c770	0.037055433
46	0x3defe892	0.11714281
47	0x3e131d99	0.1436676
48	0x3da257db	0.07926913
49	0xbde722da	-0.11285944
50	0x3dd8ee62	0.10592343
51	0x3d26d0b1	0.040726367
52	0x3d7693d4	0.060199574
53	0x3dc3031b	0.09522077
54	0x3d86dc2d	0.06584964
55	0x3e1eae3d	0.15496154
56	0xbd4b5d28	-0.049649388
57	0x3dd5531d	0.10416243
58	0x3b8875bb	0.004164425
59	0x3d9b0d2b	0.07570871
60	0x3c607c78	0.013701551
61	0x3da3048c	0.079598516
62	0xbcc61cd0	-0.02418366
63	0xbdbe0d73	-0.09279909
64	0xbe1c167f	-0.15242957
65	0xbdb864cb	-0.090036
66	0x3d614239	0.054994795
67	0x3d84a6ce	0.06477128
68	0x3dbf359f	0.09336399
69	0x3dcbaf08	0.09945494
70	0x3e046f60	0.12933111
71	0x3d0360a4	0.032074586
72	0xbde729f6	-0.112873
73	0xbd32c292	-0.043642588
74	0xbc3a96a6	-0.011388456
75	0x3df1317b	0.11777016
76	0x3dae0dac	0.084987015
77	0x3c947c6d	0.018125737
78	0x3e4cdabd	0.20005317
79	0x3c987bf0	0.018613786
80	0x3e2ca590	0.16860032
81	0xbd26a4b8	-0.04068443
82	0x3d0a1118	0.033707708
83	0x3b764f1e	0.0037583779
84	0xbdbb7719	-0.091535755
85	0x3e12e456	0.14344916
86	0x3d14ef7c	0.036361203
87	0x3e44b462	0.19209436
88	0xbcbdb9e0	-0.023159921
89	0xbdcc4b40	-0.0997529
90	0xbdf590d1	-0.11990512
91	0x3de4883e	0.11158799
92	0x3e02244b	0.12709157
93	0xbbefe9d7	-0.007321577
94	0x3def5e01	0.11687852
95	0xbe1ecc4b	-0.15507619
96	0x3c257e7f	0.01010096
97	0xbe857fc4	-0.2607404
98	0x3e558813	0.2085269
99	0xbd3bbb3a	-0.04583285
100	0xbca32d94	-0.019919194
101	0xbd7f6c76	-0.062359296
102	0x3c961c42	0.018324021
103	0xbb25983f	-0.0025267748
104	0xbdb66320	-0.08905625
105	0x3d4b6bb8	0.049663275
106	0xbdb4a193	-0.0881988
107	0x3d2b72a8	0.04185739
108	0xbdb4c1b1	-0.08826006
109	0x3c9ee395	0.019395629
110	0x3db19b11	0.08672155
111	0xbc96bbea	-0.018400151
112	0xbdb5baf5	-0.0887355
113	0xbca1e726	-0.01976354
114	0xbdba496a	-0.09096034
115	0x3dae7995	0.08519284
116	0x3d862a7d	0.06551073
117	0x3d97d990	0.07414544
118	0xbd79336c	-0.060840055
119	0xbda43963	-0.08018758
120	0xbdb9f33d	-0.09079597
121	0xbded0f55	-0.1157519
122	0x3b91760b	0.0044391206
123	0x3e45ff9e	0.19335791
124	0xbe511449	-0.20417894
125	0xbdca0101	-0.09863473
126	0x3e50635d	0.20350404
127	0x3e56cd07	0.20976649
128	0x3c126584	0.008935336
129	0x3c6c6987	0.014429457
130	0xbcfdc5f8	-0.030978188
131	0xbe16a8f8	-0.14712894
132	0xbd811dd3	-0.06304517
133	0x3de37136	0.11105578
134	0x3e594884	0.21219069
135	0x3de7fb01	0.11327172
136	0x3ddbc2a7	0.10730486
137	0xbc511377	-0.012760988
138	0xbd90efde	-0.07077001
139	0x3ba9622b	0.0051691732
140	0xbcd4ebb9	-0.025991308
141	0x3d8f1074	0.0698556
142	0x3d4c0c80	0.04981661
143	0xbcb89d38	-0.022535905
144	0x3d0946af	0.033514675
145	0xbcb68ad4	-0.022282995
146	0xbcb73f2d	-0.022368992
147	0x3d2f5ee2	0.042815097
148	0xbb9c40f3	-0.0047684847
149	0x3dd52181	0.10406781
150	0xbd75cd4e	-0.060010247
151	0xbc24b830	-0.010053679
152	0xbcc2a48a	-0.023760099
153	0x3da51705	0.08061031
154	0x3e01b4e6	0.12666664
155	0xbd83fd28	-0.0644477
156	0x3e036f33	0.12835388
157	0x3d26e3fb	0.040744763
158	0xbde71667	-0.1128357
159	0x3da37445	0.07981161
160	0x3e119a64	0.14219052
161	0xbdb4df98	-0.088317096
162	0xbca05f9b	-0.019576838
163	0xbe1b643b	-0.15174954
164	0x3dab5f07	0.083677344
165	0x3d6108ad	0.054939914
166	0xbd6cd33c	-0.057818636
167	0x3d9e97df	0.07743811
168	0xbd52966e	-0.051412992
169	0xbd6335b6	-0.055471145
170	0xbb8c7745	-0.004286679
171	0xbd63dff6	-0.055633508
172	0x3d9829a4	0.07429817
173	0x3d259392	0.040423937
174	0x3c99bd1d	0.018766934
175	0xbd4dfda5	-0.050290722
176	0xbd286513	-0.041112017
177	0xbdc8b083	-0.09799292
178	0xbe0111c6	-0.12604436
179	0xbd9a12ff	-0.075231545
180	0xbd171e4a	-0.03689412
181	0x3ddc7f45	0.10766462
182	0xbccb7180	-0.024834394
183	0xbcd85144	-0.026405938
184	0x3dd47e42	0.10375644
185	0xbde6923c	-0.11258361
186	0x3d2ccb31	0.042185966
187	0x3b0a4684	0.002109916
188	0x3d5805b1	0.052739803
189	0xbdaf80e9	-0.085695095
190	0xbdb7d500	-0.089761734
191	0x3dea845f	0.11451029
192	0xbd0a4a94	-0.03376253
193	0xbde32093	-0.110901974
194	0xbd821eec	-0.06353554
195	0xbe05beac	-0.13061017
196	0x3da5cf8c	0.08096227
197	0xbda04b56	-0.07826869
198	0x3caf393e	0.0213896
199	0x3de923a7	0.11383753
200	0xbd315346	-0.043292306
201	0xbd266a68	-0.04062882
202	0xbde4efd3	-0.11178555
203	0xbde41f71	-0.111388095
204	0xbd967176	-0.0734586
205	0xbd97820e	-0.07397853
206	0x3c8bfff1	0.017089816
207	0xbe3bd6f1	-0.18343712
208	0xbd8cba6e	-0.06871496
209	0x3c89d9ec	0.016827546
210	0xbe70f7ac	-0.2353198
211	0x3bef01fe	0.0072939387
212	0x3be22694	0.0069015715
213	0xbcddb9d3	-0.027066147
214	0xbd96839a	-0.0734932
215	0x3debf513	0.115213536
216	0xbcd847ba	-0.02640139
217	0x3e0be429	0.13661255
218	0xbd4c0069	-0.04980508
219	0x3d48719d	0.048936475
220	0x3d7374e7	0.05943766
221	0xbe6a038d	-0.22852917
222	0x3c97b1e2	0.018517438
223	0x3d87529e	0.06607555
224	0xbb3f6273	-0.0029202967
225	0x3dca9497	0.098916225
226	0xbd4c511b	-0.049882036
227	0x3d0c6fda	0.034286357
228	0x3b271e1e	0.002550013
229	0xbd2d2e9b	-0.042280775
230	0xbe399e7f	-0.18126868
231	0xbcecc760	-0.028903663
232	0xbc5cb7e3	-0.013471576
233	0x3d814f38	0.06313938
234	0xbd959267	-0.07303315
235	0x3d50280a	0.050819434
236	0xbd7aaa20	-0.0611974
237	0x3db6bdde	0.08922933
238	0xbd96a213	-0.07355132
239	0x3d57922b	0.05262963
240	0x3dc4d167	0.09610253
241	0xbe252b9b	-0.16129915
242	0x3d695013	0.05696113
243	0xbd53cd40	-0.051709414
244	0x3c99e42d	0.01878556
245	0xbde1c3df	-0.110236876
246	0xbd3d0a31	-0.046152297
247	0xbe05e013	-0.13073759
248	0x3cb66b89	0.022268074
249	0x3e318f03	0.17339711
250	0x3de1e099	0.11029167
251	0x3c88cde3	0.016699737
252	0xbcd605a8	-0.026125744
253	0x3ddc2223	0.107486986
254	0xbd3dc1c9	-0.046327386
255	0x3d9a547d	0.07535646

classifier.2.bias f4 [84]
0	0xbbb7fdd4	-0.0056149755
1	0xbdd7623a	-0.10516782
2	0xbc8eb90a	-0.017422218
3	0x3db4bc16	0.08824937
4	0x3dda653e	0.10663842
5	0xbd98d2bf	-0.074620716
6	0x3db8789d	0.0900738
7	0x3d46b89f	0.048515912
8	0xbdc85412	-0.0978166
9	0x3d60024c	0.05468969
10	0xbd7536d2	-0.059866734
11	0x3db6e37a	0.089301065
12	0x3d226af9	0.0396528
13	0xbbd4111b	-0.0064717657
14	0xbd928756	-0.071547195
15	0xbda0d2f8	-0.07852739
16	0x3c973baf	0.018461077
17	0xbd4f63cb	-0.05063228
18	0x3d2502b6	0.04028579
19	0x3cbfb137	0.023399932
20	0xbdb0c442	-0.08631183
21	0x3be602ad	0.007019362
22	0x3dc601c5	0.09668306
23	0x3da3b894	0.0799419
24	0xbd1e0db7	-0.0385873
25	0x3e5b14f7	0.21394716
26	0xbdbcd1e3	-0.0921972
27	0x3db07912	0.08616842
28	0x3d4a37a5	0.049369473
29	0x3c9d0921	0.019169392
30	0xbd415549	-0.047200475
31	0xbddd4d92	-0.10805811
32	0xbac0b762	-0.001470309
33	0xbc03f432	-0.008053826
34	0x3e02a9df	0.12760113
35	0x3d9e6df5	0.077358164
36	0xbc41f1a2	-0.011837395
37	0x3ba43035	0.0050106295
38	0x3a41ff41	0.00074004015
39	0xbd3dcc55	-0.046337444
40	0x3d9b37f6	0.07579033
41	0x3da29567	0.079386525
42	0xbdbeb748	-0.09312302
43	0x3e4b0a3a	0.1982812
44	0xbdace16b	-0.084414326
45	0xbdadfcc4	-0.08495477
46	0x3e20f8c9	0.15719904
47	0x3d546364	0.0518526
48	0xbc4d61dc	-0.0125355385
49	0xbd3e5db3	-0.046476077
50	0x3a7016ba	0.000915866
51	0xbd7617a0	-0.060081124
52	0xbcc80106	-0.02441455
53	0xbcb8fa4d	-0.02258029
54	0xbd7b11b0	-0.061296165
55	0xbc691b23	-0.014227661
56	0x3e0a259c	0.1349091
57	0xbde34826	-0.110977456
58	0xbd6532b7	-0.05595657
59	0xbd46947f	-0.04848146
60	0x3c213781	0.009839893
61	0xbdc0613a	-0.093935445
62	0x3d681817	0.0566636
63	0x3d2b12af	0.041765865
64	0x3c935cb7	0.017988546
65	0x3dc75cf4	0.09734526
66	0xbe09ed87	-0.13469516
67	0x3cfb309a	0.030662823
68	0x3d4a3139	0.04936335
69	0xbda5853f	-0.08082055
70	0x3d826c88	0.06368357
71	0x3ca70232	0.020386789
72	0xbd6d3303	-0.057909977
73	0xbcb517ae	-0.022106018
74	0x3dc6eadf	0.09712767
75	0x3d8ac346	0.06775527
76	0xbbdf8c94	-0.006822178
77	0xbd748717	-0.059699144
78	0x3cb8419c	0.022492222
79	0xbd18e4a8	-0.03732744
80	0x3e3b1da1	0.18273021
81	0x3ab12da3	0.0013517629
82	0x3ddabf13	0.10680976
83	0x3d6ecddd	0.058301795

fc.weight f4 [10, 84]
0	0x3eaf1cff	0.3420181
1	0xbea158f7	-0.31513187
2	0xbe03fa3e	-0.12888429
3	0xbd353f61	-0.044249896
4	0xbdf835ee	-0.12119661
5	0x3e04e573	0.12978153
6	0x3f0bff01	0.5468598
7	0x3e1d221a	0.1534504
8	0x3e037b36	0.1283997
9	0x3ee4ade9	0.44663933
10	0x3db1e9fe	0.086872086
11	0x3dca271b	0.0987074
12	0xbe96ed02	-0.29477698
13	0x3d5aef66	0.053450964
14	0xbd868776	-0.06568806
15	0xbefe45cd	-0.4966263
16	0x3f33e38b	0.7026908
17	0xbdd0dbf0	-0.101982
18	0x3d9e6044	0.07733205
19	0xbe75e251	-0.24012114
20	0xbc21bab9	-0.009871178
21	0x3c900e42	0.017584924
22	0x3c81198f	0.015759258
23	0xbd76d1bd	-0.060258616
24	0xbd5a8ec4	-0.05335881
25	0x3f006035	0.501468
26	0xbf2a152c	-0.66438556
27	0x3c9f64fa	0.019457329
28	0x3d057cc5	0.032589693
29	0xbe74316e	-0.23846981
30	0xbda4c714	-0.08045784
31	0x3db5c627	0.08875685
32	0x3d84446e	0.064583644
33	0x3edcf602	0.4315644
34	0x3e6c7cbe	0.2309446
35	0x3e4eb9f0	0.20188117
36	0xbdc2cf4a	-0.095121935
37	0xbd8d89df	-0.069110624
38	0x3da46959	0.08027906
39	0x3daf4a14	0.08559051
40	0xbef83323	-0.48476514
41	0x3e4e8b40	0.20170307
42	0xbd679853	-0.056541752
43	0xbe5a18fd	-0.21298595
44	0xbdc1cf5d	-0.094633795
45	0xbda52468	-0.080635846
46	0x3f357a17	0.7088942
47	0x3d5103ad	0.051028896
48	0x3d93b90b	0.072130285
49	0xbdea675b	-0.11445495
50	0xbe23db9e	-0.16001746
51	0x3e18c1b7	0.14917646
52	0x3e2b6024	0.16735893
53	0x3dad0ff6	0.0845031
54	0xbe628f7f	-0.22125052
55	0xbebc6a59	-0.36799887
56	0xbf03dbba	-0.5150715
57	0x3ec0a157	0.37623093
58	0xbde39146	-0.11111693
59	0xbe244774	-0.16042882
60	0x3e866619	0.2624977
61	0xbeaf5aae	-0.3424887
62	0xbdc8fd08	-0.09813887
63	0xbf0bd457	-0.5462088
64	0x39493cad	0.00019191457
65	0xbe6b93ab	-0.2300555
66	0xbeb903bc	-0.36135662
67	0xbe2fa354	-0.17152148
68	0x3e1e2d46	0.15446958
69	0xbedd6816	-0.43243474
70	0x3d5035f3	0.0508327
71	0x3d94a818	0.07258624
72	0x3ea807ae	0.3281836
73	0x3ec18264	0.37794793
74	0xbed0b0c1	-0.40759853
75	0xbe57658a	-0.21034828
76	0xbd0836de	-0.03325545
77	0xbe82329b	-0.25429234
78	0xbf0638e5	-0.52430564
79	0x3e81836d	0.25295582
80	0x3d6101f6	0.05493351
81	0xbdc4f331	-0.096166976
82	0x3e50050f	0.2031443
83	0xbdd68657	-0.10474842
84	0xbe9c6ef1	-0.30553392
85	0x3de9062e	0.11378132
86	0xbd870952	-0.065935746
87	0xbea8ee14	-0.3299414
88	0x3e883605	0.26603714
89	0xbe1c549a	-0.15266648
90	0xbce01cfe	-0.027357575
91	0x3ebce30e	0.3689198
92	0x3d8fe566	0.07026176
93	0x3d1768f5	0.03696533
94	0x3e1326c2	0.14370254
95	0xbe3276ab	-0.1742808
96	0xbe403b59	-0.1877264
97	0xbdc381ca	-0.0954624
98	0xbea2c9dc	-0.3179463
99	0xbeb7a5d9	-0.3586872
100	0x3e643df3	0.22289257
101	0x3e7eebed	0.24894686
102	0x3e8715de	0.2638387
103	0x3cd0c909	0.025486486
104	0x3ea12204	0.31471264
105	0xbe07c362	-0.13258126
106	0xbe24d3ec	-0.16096467
107	0x3d267a32	0.04064388
108	0xbe45d603	-0.1931992
109	0xbe497f97	-0.19677578
110	0x3edab9cb	0.42719874
111	0x3e023601	0.12715913
112	0x3df84131	0.12121809
113	0x3ecee609	0.40409878
114	0xbdf86dbe	-0.12130307
115	0xbd0bc8fe	-0.034127228
116	0xbecefd94	-0.4042784
117	0x3e5f084f	0.21780513
118	0xbe81c9c2	-0.25349241
119	0xbea80f8c	-0.3282436
120	0x3e599379	0.21247663
121	0x3c0a9c09	0.008460053
122	0x3cbc374f	0.022975592
123	0x3d7eabe4	0.062175646
124	0xbe5ab0af	-0.21356462
125	0x3d9f691a	0.077837184
126	0xbac7004d	-0.0015182585
127	0xbf113348	-0.56718874
128	0xbe7f198b	-0.24912088
129	0xbdd66135	-0.104677595
130	0xbe8d863e	-0.2764148
131	0x3e012bc2	0.12614349
132	0xbdee432a	-0.11633904
133	0x3d996d43	0.07491543
134	0xbda3d4d7	-0.0799958
135	0x3dc1f527	0.09470587
136	0xbd30cd21	-0.043164376
137	0xbe55b16b	-0.20868461
138	0x3c353d77	0.011062018
139	0xbe9ce520	-0.30643559
140	0xbdb44f99	-0.088042445
141	0x3e33b5c8	0.17549813
142	0xbcc1783e	-0.023616906
143	0x3e4e0400	0.20118713
144	0xbe3e5a60	-0.18589163
145	0xbdee48cc	-0.11634979
146	0x3dae6097	0.08514517
147	0xbf2095f5	-0.62728816
148	0x3e9e7774	0.3095051
149	0xbef695f5	-0.48161283
150	0x3e785883	0.24252515
151	0xbdc0c3fa	-0.094123796
152	0x3d362c93	0.044476103
153	0x3f150f2f	0.58226293
154	0x3e983b7e	0.2973289
155	0xbda1774d	-0.07884083
156	0xbda213c8	-0.07913929
157	0x3def84f9	0.116952844
158	0xbe379c1f	-0.17930649
159	0x3c24713f	0.010036766
160	0xbd1ec517	-0.03876218
161	0x3cede265	0.029038617
162	0x3e9c6030	0.30542135
163	0xbe3b9b43	-0.18320946
164	0x3e93909b	0.28821263
165	0xbeb66db8	-0.35630584
166	0xbd4fc595	-0.05072554
167	0xbe9e5c69	-0.30929878
168	0x3b68fb52	0.003555019
169	0x3dae849e	0.085213885
170	0x3e9230b3	0.2855278
171	0x3e4b8608	0.19875348
172	0x3ce9982d	0.028514946
173	0xbdd1cd6f	-0.102442615
174	0xbe73b39e	-0.23798987
175	0x3d72c224	0.05926718
176	0x3e6aa1dd	0.22913308
177	0x3e7b5a86	0.2454625
178	0xbe13547e	-0.143877
179	0x3e49ae9f	0.19695519
180	0xbf15107e	-0.5822829
181	0x3c4fda09	0.012686261
182	0xbec68135	-0.38770452
183	0xbe9d44c0	-0.30716515
184	0xbf948f3c	-1.1606212
185	0xbdbef357	-0.09323757
186	0x3e960820	0.29303074
187	0xbce5a54c	-0.028032921
188	0x3e92a913	0.28644618
189	0x3e8a40f7	0.2700269
190	0xbebb7053	-0.36609134
191	0x3c0f7074	0.008754838
192	0xbebe5f5a	-0.37182122
193	0x3e73eca3	0.23820738
194	0xbebb2e03	-0.36558542
195	0x3dd58886	0.104264304
196	0xbe3b25ed	-0.18276186
197	0x3e6821cd	0.22669144
198	0x3d817bd7	0.06322449
199	0x3dfe3da8	0.12414104
200	0x3ed16d86	0.40903872
201	0xbf4e45f6	-0.805755
202	0x3ec08642	0.3760243
203	0x3e254080	0.16137886
204	0x3e707bbb	0.234847
205	0xbcad8d0d	-0.021185422
206	0xbd02cdc9	-0.031934533
207	0xbe94686e	-0.28985924
208	0xbdb06d04	-0.08614543
209	0xbe2db8f0	-0.1696508
210	0x3dfec071	0.12439049
211	0xbc0af0fc	-0.008480307
212	0xbd80a4d2	-0.06281437
213	0x3cb1d44a	0.021707673
214	0x3ec9b29e	0.39394087
215	0x3d53579d	0.051597226
216	0x3d9dd5f7	0.07706826
217	0x3e0c4933	0.13699798
218	0xbc5c6936	-0.013452819
219	0xbea6cd46	-0.32578486
220	0x3caf4047	0.021392955
221	0x3e35767a	0.17720976
222	0xbe314df2	-0.1731489
223	0x3eb00d7e	0.34385294
224	0x3dd55f96	0.10418622
225	0x3ebac0ff	0.3647537
226	0xbdcbf32a	-0.09958489
227	0x3e37b602	0.17940524
228	0x3d529a56	0.051416717
229	0xbe975488	-0.2955668
230	0x3e3ad1db	0.18244116
231	0x3f0e7f05	0.55662566
232	0x3d94dc1f	0.07268547
233	0x3de972d6	0.11398856
234	0x3c398fd1	0.011325792
235	0x3e19025b	0.14942305
236	0xbe3f1be5	-0.18662985
237	0xbddea058	-0.10870427
238	0xbd0c5779	-0.034263108
239	0xbe88ce87	-0.26720068
240	0xbe289a73	-0.16465168
241	0xbed34873	-0.41266212
242	0x3ef5f411	0.4803777
243	0x3eb32cc7	0.349951
244	0xbc0ff8f7	-0.008787385
245	0xbeeebc97	-0.46628258
246	0xbe2cf3d5	-0.1688989
247	0x3dec864d	0.11549053
248	0x3f4ea290	0.807168
249	0xbe40d4b6	-0.18831143
250	0x3c2d3d59	0.010573708
251	0x3e793067	0.2433487
252	0x3da60e7e	0.08108233
253	0x3eabf616	0.33586186
254	0x3d0af9ba	0.033929564
255	0x3ea91a4f	0.33027884

fc.bias f4 [10]
0	0x3e14c236	0.1452721
1	0x3b441ae9	0.0029923266
2	0x3e9e9cf9	0.30979136
3	0xbd82d837	-0.06388896
4	0xbec29ed9	-0.38011816
5	0x3d9cfbe1	0.076652296
6	0x3e2388ff	0.15970229
7	0xbd98b54d	-0.074564554
8	0xbc60cafd	-0.013720271
9	0xbe463240	-0.19355106
