rand_models/PL_FashionMNIST_LeNet5.pth (torch, 251018 bytes, 10 tensors)

features.0.weight f4 [6, 1, 5, 5]
0.0310069 0.184915 0.17347611 0.03860579 -0.08825672 0.06518799 0.41837677 0.505095
0.10139976 -0.03901277 -0.038642224 0.30264893 0.4450371 0.42676613 0.45679575 -0.07878391
0.20456313 0.6302581 0.39476222 0.05038564 0.105283126 -0.38453496 0.030342398 -0.42511043
-0.23247744 0.01233379 0.09352708 0.1325985 0.68286914 -0.75385326 0.023755563 0.024938934
0.35625944 1.15182 -1.4803925 -0.013094842 0.014718413 0.32974157 0.96978146 -1.3108177
-0.026214764 0.042182215 0.08495814 0.39713404 -0.4794293 -0.04365285 0.013931687 0.09563986
0.04106539 -0.07719456 -0.13232392 -0.2900412 0.08986558 0.20339723 0.2447171 -0.13288796
-0.46748078 -0.25636065 0.6358683 0.15093714 0.122386694 0.08213446 0.4085339 -0.45206127
-0.24840951 0.30279124 1.3878623 -0.14508232 -1.4947617 -0.012436067 0.12105516 0.1896208
0.74621093 -0.45681295 -0.6089129 -0.6891453 -0.24804378 0.91652226 -0.09390597 0.15594564
-0.98899347 -0.7223255 1.4473903 0.048051096 0.13547471 -0.24540436 0.036752816 0.028112747
0.15947399 0.074194014 -0.02943245 -0.23377472 0.101696655 0.24587108 -0.04013224 0.07893295
0.07671277 0.0968514 -0.1732809 -0.040523417 0.0973368 -0.056850597 -0.17301035 -0.24043123
-0.07486556 0.06114043 -0.27350375 -0.43845963 -1.0795252 -0.28793153 0.12899496 -0.3878026
-0.9085294 -1.0449274 -0.58202165 0.13740265 0.103852734 0.088918164 -0.03612491 -0.021607086
0.06519058 0.11733689 0.14983238 0.08870185 -0.1130217 0.09050858 0.113592096 -0.0711975
0.116749 0.03735206 0.6084397 -0.37789127 -0.5842559 0.50756323 0.025101133 0.96461153
-1.1199472 -0.6037514 0.80594736 0.018256066 0.2062156 -1.4147935 1.3281481 -0.13354999
0.13206294 -0.017278314 -0.22285278 0.5734506 -0.1372721 -0.06734151
00000000: 2f02 fe3c 5c5a 3d3e b9a3 313e 1b21 1e3d
00000010: f0bf b4bd 4881 853d 7b35 d63e e84d 013f
00000020: adaa cf3d dbcb 1fbd 4f47 1ebd cdf4 9a3e
00000030: e7db e33e 1781 da3e 22e1 e93e 7559 a1bd
00000040: ff78 513e 9858 213f 461e ca3e 2c61 4e3d
00000050: ae9e d73d c4e1 c4be 9f90 f83c 13a8 d9be
00000060: 910e 6ebe aa13 4a3c 208b bf3d e7c7 073e
00000070: 83d0 2e3f 87fc 40bf 079b c23c bc4c cc3c
00000080: a367 b63e d66e 933f 807d bdbf c08b 56bc
00000090: 8025 713c e3d3 a83e 9943 783f e0c8 a7bf
000000a0: 58c0 d6bc 42c7 2c3d 89fe ad3d 2755 cb3e
000000b0: c277 f5be 55cd 32bd bb41 643c d5de c33d
000000c0: 2f34 283d 2e18 9ebd ec7f 07be 4880 94be
000000d0: 720b b83d 5d47 503e 1f97 7a3e c813 08be
000000e0: a459 efbe b441 83be 44c8 223f 448f 1a3e
000000f0: e0a5 fa3d 1d36 a83d 5b2b d13e 9374 e7be
00000100: 105f 7ebe 7407 9b3e 79a5 b13f 7690 14be
00000110: 5a54 bfbf a5c0 4bbc c5eb f73d f42b 423e
00000120: ae07 3f3f 63e3 e9be b7e1 1bbf d46b 30bf
00000130: 30ff 7dbe 34a1 6a3f c651 c0bd 37b0 1f3e
00000140: ad2e 7dbf 53ea 38bf 1644 b93f 3ad1 443d
00000150: e2b9 0a3e 484b 7bbe 1f8a 163d b44c e63c
00000160: 264d 233e 08f3 973d 521c f1bc a462 6fbe
00000170: 5646 d03d a1c5 7b3e b461 24bd 99a7 a13d
00000180: 961b 9d3d 075a c63d 8c70 31be e2fb 25bd
00000190: 8458 c73d 2cdc 68bd a029 31be 9b33 76be
000001a0: 1d53 99bd 636e 7a3d af08 8cbe c87d e0be
000001b0: e22d 8abf c36b 93be 4117 043e 108e c6be
000001c0: 6295 68bf 2ec0 85bf 5fff 14bf 48b3 0c3e
000001d0: beb0 d43d ba1a b63d b7f7 13bd 5801 b1bc
000001e0: a482 853d 534e f03d a96d 193e 51a9 b53d
000001f0: ec77 e7bd 905c b93d f9a2 e83d ffcf 91bd
00000200: 1a1a ef3d 79fe 183d b4c2 1b3f f77a c1be
00000210: cb91 15bf aaef 013f e4a0 cd3c c8f0 763f
00000220: 6e5a 8fbf 748f 1abf 9152 4e3f bf8d 953c
00000230: 2f2a 533e f417 b5bf c200 aa3f 54c1 08be
00000240: 823b 073e 408b 8dbc 8533 64be a9cd 123f
00000250: 0f91 0cbe 58ea 89bd

features.0.bias f4 [6]
-0.11829194 -0.09605724 0.004693222 -0.03708565 -1.7569002 -0.1874886
00000000: 0b43 f2bd a9b9 c4bd 9ac9 993b 1fe7 17bd
00000010: 1be2 e0bf 03fd 3fbe

features.3.weight f4 [16, 6, 5, 5]
0.6707601 0.4328259 0.17294854 -0.13864481 0.12614116 0.053368784 0.13172281 -0.17465594
-0.28862453 -0.037682798 -0.17207307 -0.01167437 -0.23283309 -0.40414473 -0.09487548 -0.05251742
0.060311638 -0.047024213 -0.15867993 0.057754494 -0.030178363 0.3358616 0.42458436 0.012069489
0.009221848 0.15016186 0.01912003 0.008954089 -0.106679775 -0.1421425 -0.040093355 -0.30026156
0.027494619 0.003045698 -0.07858294 0.017458286 -0.325082 -0.3903903 -0.080275424 0.03410848
0.0902013 -0.2560119 -0.58060765 -0.09873669 0.0046429415 -0.023634832 0.020336028 -0.29142287
0.0015618752 -0.0076414454 0.30241135 -0.15675722 0.0007216299 0.40126574 0.2694958 -0.037941273
-0.21927525 -0.12446351 -0.10450507 0.038306203 0.14492054 0.091160044 -0.29661366 -0.37620074
-0.1851725 -0.015694072 -0.15341966 -0.26353872 -0.18530506 0.08488855 0.08100723 0.24370882
0.087655246 -0.36048567 0.041829985 0.13517375 0.24245283 0.087028496 0.0070574717 -0.073206894
-0.03746784 -0.15052822 -0.54194444 -0.5526372 -0.038879886 -0.0012454794 -0.14930882 -0.5738055
-0.6075937 -0.17032121 -0.011465498 -0.074370205 -0.3096459 -0.45177916 -0.18041773 0.23434919
0.37613878 -0.15814133 -0.58422524 -0.24471132 -0.31447875 -0.4629706 -0.016289925 0.35217324
0.2507807 0.118644305 -0.082298815 0.1325076 0.633353 0.78664 0.06784074 -0.06220325
-0.04138265 0.3597965 0.2937743 -0.22714114 -0.111656725 -0.009565546 0.15964489 0.09550408
-0.071509995 -0.41604826 -0.700578 -0.58037657 -0.0733097 0.04542894 0.024054265 -0.2919846
-0.30414993 -0.14241987 0.03612145 -0.017445546 -0.23515125 -0.5007057 -0.24550007 0.010336297
-0.12891714 -0.16426514 -0.29843578 -0.24747284 0.025732148 -0.077240646 -0.054717362 -0.36541036
-0.07425009 0.09078482 0.24384479 -0.08904175 -0.16199104 -0.15258758 -0.15887474 -0.12945203
-0.021828424 0.13725758 0.31374332 -0.37534112 -0.11010097 0.0024065876 -0.015896166 0.007591298
0.25694597 0.17717633 -0.052132998 -0.15778862 -0.22629671 0.3029442 0.17362325 -0.15004775
-0.3833412 -0.23003207 -0.079521954 -0.3031063 -0.45505106 -0.35723624 0.031986274 -0.18520153
-0.19627377 -0.09789895 -0.09509113 -0.09127452 0.08110948 -0.0652917 -0.27095762 -0.15484677
-0.2885319 0.22603743 0.092253536 -0.08750171 -0.09790772 -0.28824902 0.06254432 0.03529862
0.16452669 0.3207757 -0.015554627 0.054993913 0.03872589 0.06454263 0.009155199 0.13262533
-0.075787015 -0.07763265 -0.13435254 -0.14332114 -0.39288515 0.22725669 0.3369696 0.028028492
0.27598977 -0.017639052 0.07918744 0.027538551 -0.051105533 0.49697232 0.62719756 0.11071718
0.0027325791 -0.09910295 0.25410315 0.24357207 0.11910237 0.0031704044 -0.041849826 -0.1500522
0.06336311 -0.35997912 -0.12675872 -0.016658304 -0.054038294 0.065048635 -0.030402841 0.058482125
0.17154911 0.10966547 0.019172147 0.19834441 0.23944315 0.09306137 -0.0132640535 -0.19470966
0.080622986 0.1340942 -0.08743782 -0.12787612 -0.120639406 -0.0010761449 -0.14132653 -0.31972808
0.021522002 -0.01336552 -0.3499161 -0.22117168 -0.48200417 -0.6594645 -0.45627967 0.41373822
00000000: efb6 2b3f 5b9b dd3e 6c19 313e e8f8 0dbe
00000010: 262b 013e 3a99 5a3d 58e2 063e 02d9 32be
00000020: 98c6 93be 4759 1abd ec33 30be db45 3fbc
00000030: cc6b 6ebe 0fec cebe 134e c2bd 821c 57bd
00000040: 5609 773d 769c 40bd fe7c 22be fa8f 6c3d
00000050: 9d38 f7bc 0df6 ab3e 1f63 d93e 1bbf 453c
00000060: 3c17 173c 08c4 193e 9ca1 9c3c 2cb4 123c
00000070: ed7a dabd ce8d 11be ee38 24bd e2bb 99be
00000080: 653c e13c 559a 473b 18f0 a0bd ae04 8f3c
00000090: 2671 a6be 3de1 c7be 7167 a4bd 55b5 0b3d
000000a0: 76bb b83d fe13 83be b4a2 14bf 7636 cabd
000000b0: d123 983b d69d c1bc be97 a63c 6135 95be
000000c0: d6b7 cc3a 1765 fabb a9d5 9a3e f784 20be
000000d0: c32b 3d3a b472 cd3e 5afb 893e 4f68 1bbd
000000e0: b189 60be bae6 febd c106 d6bd f7e6 1c3d
000000f0: 0d66 143e 1eb2 ba3d bfdd 97be 629d c0be
00000100: dc9d 3dbe db90 80bc 0b1a 1dbe 8cee 86be
00000110: 9cc0 3dbe 0cda ad3d 1ee7 a53d ce8e 793e
00000120: 9884 b33d 9491 b8be eb55 2b3d fd6a 0a3e
00000130: 8e45 783e ff3b b23d 5d42 e73b 7fed 95bd
00000140: e177 19bd 1224 1abe dfbc 0abf a279 0dbf
00000150: 8440 1fbd 5b3f a3ba 69e4 18be ebe4 12bf
00000160: 438b 1bbf af68 2ebe c9d9 3bbc 684f 98bd
00000170: e889 9ebe 994f e7be 6dbf 38be 3cf9 6f3e
00000180: 4395 c03e cdef 21be c98f 15bf 9b95 7abe
00000190: 5c03 a1be 7c0a edbe 7372 85bc 0d50 b43e
000001a0: 5466 803e c9fb f23d 488c a8bd 13b0 073e
000001b0: 6c23 223f 3d61 493f 16f0 8a3d d6c8 7ebd
000001c0: db80 29bd 3f37 b83e 9669 963e b097 68be
000001d0: 48ac e4bd cfb8 1cbc f379 233e a597 c33d
000001e0: d573 92bd 4704 d5be 1459 33bf 8f93 14bf
000001f0: 6523 96bd b213 3a3d 730d c53c 017f 95be
00000200: 8ab9 9bbe 84d6 11be 16f4 133d f6e9 8ebc
00000210: 7dcb 70be 402e 00bf 5f64 7bbe 9259 293c
00000220: db02 04be 1f35 28be 93cc 98be 8569 7dbe
00000230: 3acc d23c 5830 9ebd 501f 60bd 1117 bbbe
00000240: 6e10 98bd 64ed b93d 73b2 793e 855b b6bd
00000250: fbe0 25be eb3f 1cbe 0fb0 22be 138f 04be
00000260: 86d1 b2bc 408d 0c3e f7a2 a03e b62c c0be
00000270: 9e7c e1bd d7b7 1d3b ad38 82bc 6cc0 f83b
00000280: 6c8e 833e b66d 353e 6989 55bd 5793 21be
00000290: 53ba 67be 811b 9b3e 4bca 313e 1ea6 19be
000002a0: 4c45 c4be 878d 6bbe 68dc a2bd c030 9bbe
000002b0: 74fc e8be abe7 b6be 0a04 033d 78a5 3dbe
000002c0: fefb 48be 3f7f c8bd 23bf c2bd 23ee babd
000002d0: ba1c a63d a8b7 85bd f5ba 8abe 2790 1ebe
000002e0: 74ba 93be 5b76 673e 6cef bc3d 1934 b3bd
000002f0: d883 c8bd 6095 93be 3d17 803d 4995 103d
00000300: af79 283e b63c a43e d6d8 7ebc 4c41 613d
00000310: 0a9f 1e3d ed2e 843d b0ff 153c efce 073e
00000320: 3936 9bbd defd 9ebd b693 09be c7c2 12be
00000330: 3e28 c9be fab5 683e 4887 ac3e 029c e53c
00000340: 884e 8d3e c67f 90bc 062d a23d 8798 e13c
00000350: 0954 51bd 2873 fe3e 0590 203f b0bf e23d
00000360: 1215 333b 7df6 cabd cf19 823e f56a 793e
00000370: f2eb f33d 8fc6 4f3b b96a 2bbd 49a7 19be
00000380: 85c4 813d 2f4f b8be 0acd 01be ff76 88bc
00000390: 4257 5dbd 3838 853d 610f f9bc f48a 6f3d
000003a0: 92aa 2f3e 4a98 e03d e80e 9d3c cc1a 4b3e
000003b0: 9630 753e f696 be3d 7951 59bc f861 47be
000003c0: aa1d a53d fd4f 093e 9a12 b3bd f5f1 02be
000003d0: cb11 f7bd 6e0d 8dba e7b7 10be 66b3 a3be
000003e0: e94e b03c 0efb 5abc 3428 b3be d47a 62be
000003f0: 40c9 f6be aad2 28bf 7d9d e9be 7fd5 d33e

features.3.bias f4 [16]
0.806953 -0.003058633 0.28681585 -0.04215367 -0.5012788 0.21947673 -0.05689884 -0.086786404
0.24874946 0.82000834 -0.5481195 0.2903717 -0.4511699 1.7079234 0.4003319 -0.016815329
00000000: 7994 4e3f 5973 48bb 87d9 923e 54a9 2cbd
00000010: cf53 00bf 82be 603e c20e 69bd 12bd b1bd
00000020: 2eb8 7e3e 11ec 513f 8f51 0cbf 99ab 943e
00000030: beff e6be 3c9d da3f 4ef8 cc3e 4dc0 89bc

classifier.0.weight f4 [120, 400]
0.039610956 0.114875324 0.010246908 0.08684984 0.08124859 -0.028799597 -0.010636047 0.030394949
-0.095949456 0.04446998 0.007104135 0.06330417 0.017962374 0.05047321 -0.047589347 -0.0698385
0.12629327 -0.04971989 -0.06694246 -0.047723778 0.049280047 -0.013205901 0.06401381 0.023274759
-0.012914064 0.0596477 0.07630405 0.08365798 -0.11267681 -0.11660966 0.029254578 0.016375411
-0.022203723 -0.02731815 -0.073572576 0.023524184 -0.0008751119 -0.11361686 -0.10254257 0.13463932
0.05235051 -0.0007457291 0.0016076071 -0.09492905 -0.023848139 0.10938835 0.03986153 0.08948918
0.05766078 -0.058864225 -0.07179729 0.2115068 0.09733186 0.032022007 0.019649636 -0.13805272
0.24542308 0.09600899 -0.14034322 -0.13467088 -0.018122116 0.12495049 -0.050427053 -0.079137355
0.008920892 -0.014396528 -0.056170832 0.00821147 0.011270372 0.016232785 -0.07416711 -0.10372586
0.0071583684 -0.023343034 -0.11287049 -0.040310234 0.0349073 0.06499434 0.053577416 0.024901303
-0.017036155 -0.04741534 0.040654 -0.043980915 0.0071774577 -0.15607373 -0.01404629 -0.05178317
-0.104768366 -0.03428673 -0.0640188 -0.015583127 -0.0035901184 -0.15983967 -0.008583448 0.112976894
0.09141715 0.008431821 0.021992259 0.07464465 -0.17950642 0.232874 0.22573322 0.06717527
0.0768244 0.007054993 0.22647776 -0.0072286655 0.07008506 -0.063474186 -0.019203484 -0.07971648
-0.072544225 -0.04814761 -0.059620813 0.012777922 -0.11878352 -0.011926159 0.08168686 0.10972134
0.024663297 -0.0045676357 0.028681338 0.019145945 0.121132396 -0.12018949 -0.015280016 -0.08226155
0.028366866 -0.027362013 -0.014551377 0.0025285305 0.0018768135 -0.056823112 0.053844765 0.03143345
0.11886615 -0.15997128 0.004217808 0.0520037 0.057889998 0.120500855 -0.12035247 -0.08058398
0.10253088 0.091644645 0.05567449 0.0429734 -0.15136807 0.09171242 0.21304563 -0.1526662
0.06490925 -0.07761539 0.0010626919 -0.19983482 0.0043936134 -0.0024303263 0.0786889 0.004229064
-0.14037904 -0.04228261 -0.01045025 -0.039029367 0.105189726 -0.008288752 0.005605495 -0.044936474
0.02285807 -0.10134362 -0.028066402 -0.05102609 -0.025904115 -0.012483728 -0.16315058 0.08972377
0.13466352 0.1561011 0.01572345 0.1512285 -0.18950503 0.11874034 0.102296546 0.01459927
0.07024478 -0.20615967 0.1584156 -0.084186114 -0.04163511 -0.014492198 -0.15164539 0.17968875
-0.13226917 -0.15040268 -0.07414044 -0.10268241 -0.24074684 -0.016655417 -0.08632374 0.06826299
0.056686725 0.0045598303 0.06323673 0.028912675 -0.007175694 -0.003224478 0.0002826209 -0.12338791
0.0031858964 0.04240125 0.061285984 -0.027037706 -0.07862946 0.077062726 0.031434 0.035472374
-0.023699926 -0.08837696 -0.021872636 -0.09004738 -0.015091705 -0.03191334 -0.012008053 -0.0043241833
-0.03793698 0.06549678 0.07005783 -0.07463123 0.009421739 0.060070075 0.015317294 -0.03537028
0.09877831 -0.090551116 -0.10998491 0.02185533 0.09983347 0.08917252 -0.094339944 -0.14433768
-0.021807618 0.01013898 0.023287559 0.05418391 0.08421426 -0.08969844 -0.016984517 0.047782097
-0.008878995 -0.29304314 0.13548438 0.093120344 0.07971197 -0.14856791 -0.060248483 -0.009405397
00000000: 193f 223d c143 eb3d a6e2 273c 54de b13d
00000010: a965 a63d 22ed ebbc d142 2ebc d4fe f83c
00000020: 2681 c4bd 2726 363d cec9 e83b 9ea5 813d
00000030: d425 933c ffbc 4e3d 0ced 42bd 7d07 8fbd
00000040: 0653 013e 15a7 4bbd 2119 89bd 027a 43bd
00000050: e0d9 493d 905d 58bc ac19 833d b5aa be3c
00000060: 8395 53bc 2651 743d 4c45 9c3d e054 ab3d
00000070: 19c3 e6bd 0cd1 eebd 4ca7 ef3c ba25 863c
00000080: 95e4 b5bc 50ca dfbc 38ad 96bd cab5 c03c
00000090: c467 65ba f5af e8bd d701 d2bd e4de 093e
000000a0: 7d6d 563d 087d 43ba 58b6 d23a 296a c2bd
000000b0: 2c5d c3bc 0007 e03d d845 233d 1a46 b73d
000000c0: b62d 6c3d 9d1b 71bd 750a 93bd 3d95 583e
000000d0: ed55 c73d 8229 033d 46f8 a03c b15d 0dbe
000000e0: 3050 7b3e 5da0 c43d 22b6 0fbe 2ae7 09be
000000f0: d574 94bc 0be6 ff3d 998c 4ebd c412 a2bd
00000100: ef28 123c 6adf 6bbc 6313 66bd 6789 063c
00000110: 5ea7 383c 9efa 843c ede4 97bd 396e d4bd
00000120: bf90 ea3b e439 bfbc a528 e7bd 581c 25bd
00000130: f5fa 0e3d c11b 853d fe73 5b3d d1fd cb3c
00000140: 688f 8bbc 9636 42bd cf84 263d 5525 34bd
00000150: e130 eb3b cbd1 1fbe 6922 66bc 971a 54bd
00000160: cc90 d6bd 3e70 0cbd 4a1c 83bd 5f50 7fbc
00000170: 3148 6bbb 03ad 23be 97a1 0cbc 6e60 e73d
00000180: ea38 bb3d 9f25 0a3c 1c29 b43c 4bdf 983d
00000190: 88d0 37be 8676 6e3e 9c26 673e 3093 893d
000001a0: 1c56 9d3d 922d e73b c9e9 673e 71de ecbb
000001b0: c288 8f3d c1fe 81bd a050 9dbc 6542 a3bd
000001c0: 1192 94bd 6e36 45bd f434 74bd 7d5a 513c
000001d0: c644 f3bd f065 43bc 714b a73d 95b5 e03d
000001e0: af0a ca3c 1bac 95bb 20f5 ea3c f5d7 9c3c
000001f0: 4314 f83d e825 f6bd 0859 7abc be78 a8bd
00000200: a161 e83c 4d26 e0bc e668 6ebc b4b5 253b
00000210: 69ff f53a 5abf 68bd 548c 5c3d 5cc0 003d
00000220: 1970 f33d 83cf 23be 8a35 8a3b d501 553d
00000230: 101e 6d3d 27c9 f63d 5b7b f6bd 3709 a5bd
00000240: b6fb d13d 30b0 bb3d ef0a 643d e004 303d
00000250: 3b00 1bbe b9d3 bb3d a228 5a3e 8754 1cbe
00000260: 24ef 843d d1f4 9ebd 064a 8b3a 80a1 4cbe
00000270: 4df8 8f3b 1c46 1fbb a527 a13d f693 8a3b
00000280: 86bf 0fbe 8830 2dbd 8637 2bbc 42dd 1fbd
00000290: b66d d73d 8ccd 07bc 4dae b73b 4f0f 38bd
000002a0: d940 bb3c 3e8d cfbd 83eb e5bc bc00 51bd
000002b0: de34 d4bc 8d88 4cbc f210 27be 19c1 b73d
000002c0: 3ce5 093e f7d8 1f3e 77ce 803c a5db 1a3e
000002d0: 9b0d 42be 232e f33d da80 d13d c731 6f3c
000002e0: 7fdc 8f3d 851b 53be b337 223e c569 acbd
000002f0: 9489 2abd af70 6dbc ee48 1bbe 5400 383e
00000300: 9271 07be 2903 1abe f1d6 97bd 284b d2bd
00000310: 5786 76be f170 88bc 80ca b0bd 77cd 8b3d
00000320: 5730 683d a16a 953b 4282 813d 46da ec3c
00000330: 1622 ebbb c451 53bb bc2c 9439 cdb2 fcbd
00000340: 79ca 503b efac 2d3d 0307 7b3d 2e7e ddbc
00000350: 7b08 a1bd 10d3 9d3d f0c0 003d 7b4b 113d
00000360: 5926 c2bc fbfe b4bd 3e2e b3bc c36a b8bd
00000370: 3343 77bc 90b7 02bd 6dbd 44bc e1b1 8dbb
00000380: cf63 1bbd 2d23 863d 7b7a 8f3d 42d8 98bd
00000390: a35d 1a3c 0a0c 763d 63f5 7a3c 6de0 10bd
000003a0: 484c ca3d dd72 b9bd c53f e1bd f309 b33c
000003b0: 7e75 cc3d 15a0 b63d 4d35 c1bd 42cd 13be
000003c0: e4a5 b2bc f71d 263c 8dc5 be3c f3ef 5d3d
000003d0: 8778 ac3d d1b3 b7bd 1d23 8bbc 29b7 433d
000003e0: 3479 11bc c009 96be 6bbc 0a3e e1b5 be3d
000003f0: 0840 a33d 3022 18be 1dc7 76bd 1819 1abc

classifier.0.bias f4 [120]
-0.034290988 0.0067283325 -0.015512268 0.015676852 0.029897908 0.008831796 -0.028285857 -0.053203374
-0.043741602 0.05195994 0.036867905 -0.010740893 0.002741605 0.09277271 -0.07973209 0.0064198505
-0.055345196 0.022879452 0.11087988 -0.048679005 -0.04937653 -0.0100708855 -0.05335262 -0.023120845
-0.027335754 0.07132006 -0.013270272 -0.017823853 -0.0012401993 0.16365884 0.04898288 -0.011730352
-0.0005989189 -0.06740391 -0.08611025 0.04122797 -0.006118773 0.114740334 0.048572086 -0.029200068
0.008187746 0.0167324 -0.01839318 -0.00212776 -0.0015337496 0.0062734466 0.013986834 -0.045190234
-0.096701875 -0.02210884 0.069693 0.15355931 -0.03243209 0.09428575 -0.040084668 0.049817584
0.043293588 0.03713226 0.063764326 0.011135344 0.0022773398 -0.036587864 0.0031410037 0.0040709767
-0.007396385 -0.034695014 -0.037471674 -0.024295446 -0.008848109 0.023131289 -0.04423987 -0.011748984
-0.014743891 -0.112682775 0.020077188 0.016299479 0.03649214 0.04009307 0.122019395 0.036165316
0.020189501 -0.07360575 0.047308333 0.1656716 0.020503264 -0.017625585 0.034723092 0.00920688
0.04197197 -0.04420647 0.09401724 0.04648593 -0.091135636 -0.080311574 0.05912674 5.2629668e-05
0.034298096 0.01472817 -0.04716669 0.06664019 0.0628794 0.00022149469 0.0008982992 -0.014978592
0.0016365624 -0.027335132 -0.04521535 0.03668751 -0.07641976 0.12854302 0.20359498 0.032373954
-0.060283832 -0.046818808 0.028400773 0.009995039 -0.020834131 0.022795187 -0.02915594 -0.07443561
00000000: b574 0cbd 5879 dc3b 2b27 7ebc be6c 803c
00000010: 75ec f43c 3db3 103c beb7 e7bc c8eb 59bd
00000020: 652a 33bd f2d3 543d cd02 173d 92fa 2fbc
00000030: 80ac 333b 9eff bd3d 944a a3bd 9c5d d23b
00000040: a5b1 62bd b06d bb3c fe14 e33d a363 47bd
00000050: 0b3f 4abd 5b00 25bc 4788 5abd ed67 bdbc
00000060: 3bef dfbc 4010 923d 8e6b 59bc 5403 92bc
00000070: 2f8e a2ba 2f96 273e 46a2 483d aa30 40bc
00000080: c400 1dba 100b 8abd 925a b0bd a9de 283d
00000090: fd7f c8bb fbfc ea3d 86f3 463d fb34 efbc
000000a0: e525 063c 6312 893c 4bad 96bc e471 0bbb
000000b0: 1908 c9ba 7c91 cd3b 0929 653c 6519 39bd
000000c0: a20b c6bd 991d b5bc 34bb 8e3d a73e 1d3e
000000d0: 83d7 04bd e318 c13d d22f 24bd 860d 4c3d
000000e0: 9e54 313d ff17 183d df96 823d 0571 363c
000000f0: 6c3f 153b 28dd 15bd 4cd9 4d3b d465 853b
00000100: 605d f2bb 5c1c 0ebd e67b 19bd 3e07 c7bc
00000110: a9f7 10bc d47d bd3c de34 35bd d07e 40bc
00000120: 5c90 71bc 3ac6 e6bd ea78 a43c 7c86 853c
00000130: c878 153d a238 243d 4ee5 f93d 1522 143d
00000140: 7464 a53c 9dbe 96bd 62c6 413d d1a5 293e
00000150: 76f6 a73c 8863 90bc cd39 0e3d 74d8 163c
00000160: cdea 2b3d d811 35bd 1c8c c03d 0868 3e3d
00000170: 52a5 babd 657a a4bd e12e 723d adbe 5c38
00000180: 297c 0c3d 6c4e 713c dc31 41bd a77a 883d
00000190: eac6 803d 0741 6839 d77b 6b3a c568 75bc
000001a0: ec81 d63a eded dfbc bb33 39bd a445 163d
000001b0: f781 9cbd c8a0 033e 347b 503e 8d9a 043d
000001c0: 2eec 76bd 14c5 3fbd bda8 e83c 3bc2 233c
000001d0: 57ac aabc f9bc ba3c 70d8 eebc b271 98bd

classifier.2.weight f4 [84, 120]
0.029648142 0.04951741 -0.071714066 0.15035571 0.046252914 -0.2056824 -0.031053063 0.11731054
0.078381084 -0.07930328 -0.112641506 0.007706527 -0.012812283 -0.08377029 0.2553725 0.055843633
-0.083344676 -0.07311974 -0.010510432 0.04371723 0.014197558 0.02177304 -0.017176183 -0.0743301
0.1368943 -0.09599515 -0.0025823126 -0.019624185 0.04525328 -0.12672704 -0.009944642 -0.112059176
-0.025807127 0.14289781 -0.122022584 -0.08913699 -0.21505505 0.055320606 -0.13191524 0.14371073
0.014437728 -0.19559042 -0.12252729 0.07334285 -0.16135104 -0.09716657 -0.09496361 0.02173793
-0.08464826 -0.024127403 -0.056664556 -0.20460123 -0.015243168 -0.0015423365 0.0050375746 -0.09256437
-0.03440295 -0.007845171 0.034360237 0.09327291 0.14628735 -0.054080438 -0.047457486 0.019412879
0.051756535 -0.017071506 -0.02362648 -0.019211024 0.04430506 -0.04621741 0.08635205 0.06847188
-0.047651317 -0.035228446 0.058615983 -0.11222418 0.17242733 -0.19642766 0.011070478 -0.03608972
0.2275942 -0.013410073 0.021157935 0.10391007 -0.005289848 -0.03777241 0.08347141 0.04483616
-0.1272806 -0.02958301 -0.05156024 -0.014437614 0.11722979 0.02082285 -0.13804172 -0.0360577
-0.027911998 0.04250024 0.07790313 -0.08047289 -0.0028750293 0.0029121023 -0.024948943 0.106086776
0.07700594 0.115292236 0.13926932 0.044285648 0.027086178 -0.036535818 -0.09152382 -0.0644641
0.08017414 0.18610449 -0.032696873 0.10643245 -0.07667972 -0.009937727 0.059027802 -0.10270595
-0.122520395 -0.09448076 -0.075158335 0.007891252 -0.013882258 -0.089063466 -0.08068557 0.14042082
-0.02795754 -0.075608194 -0.2431425 -0.0003304641 -0.32650515 -0.15162213 -0.10828178 -0.10783063
-0.15012473 -0.074070014 -0.1418579 0.023973936 -0.024640443 0.13667567 0.01275869 0.19427219
-0.2842051 0.15551177 0.0046944143 0.046692654 0.14099705 -0.10423073 0.02171894 -0.27692413
-0.13595498 0.03890561 0.01641111 -0.13605958 -0.044781618 0.01454105 -0.1450639 -0.2584013
0.03980246 0.07669692 -0.031281643 0.16034962 0.0056707687 -0.09692615 0.07031462 0.0067361444
0.06636586 0.28421578 -0.011023801 0.0825849 0.05565978 -0.04673484 -0.010150071 0.06545725
0.09534914 -0.012715905 0.0053238776 -0.083530515 0.006329178 -0.10276311 -0.07753926 -0.009998861
0.077881135 -0.05784472 0.21160506 -0.08873058 -0.016219893 0.17520607 0.008099569 0.009281339
0.25922713 -0.010423042 0.06454831 -0.22004642 0.2824453 -0.2794744 -0.009987497 -0.22599374
0.071211666 0.21435975 -0.16662693 0.07674076 0.0027565747 0.0324305 -0.06485512 -0.05539325
-0.003010156 -0.19165647 -0.11778668 -0.09851792 0.057597287 0.085484244 -0.17081219 -0.065107845
0.15629071 -0.11508875 0.005439764 0.008108073 0.053502735 -0.0727569 -0.030620975 0.20774782
0.034909606 -0.036224317 0.2006785 0.010389804 0.19645719 0.07254712 0.020145785 0.09626747
0.16595139 -0.16686061 -0.014889633 -0.06310358 -0.012052574 -0.036153156 -0.04198273 -0.0057373764
-0.025543159 0.1134141 0.008745242 0.062110636 -0.28435442 0.043582648 -0.07899617 0.218227
-0.07366413 0.14259836 -0.005588868 0.014632046 0.08271158 0.038751375 -0.035551384 0.116599336
00000000: a9e0 f23c c5d2 4a3d d3de 92bd d9f6 193e
00000010: b273 3d3d 689e 52be fe62 febc 8240 f03d
00000020: 4386 a03d c269 a2bd 97b0 e6bd 0987 fc3b
00000030: 9cea 51bc c28f abbd 2fc0 823e 4bbc 643d
00000040: 9db0 aabd cdbf 95bd f233 2cbc d710 333d
00000050: e09c 683c 605d b23c 11b5 8cbc 613a 98bd
00000060: 052e 0c3e 1b99 c4bd 043c 29bb e6c2 a0bc
00000070: 815b 393d bcc4 01be daee 22bc 487f e5bd
00000080: 7869 d3bc ce53 123e fae6 f9bd 748d b6bd
00000090: 6437 5cbe dc97 623d ca14 07be e828 133e
000000a0: 388c 6c3c db48 48be 96ef fabd c734 963d
000000b0: 3539 25be 44ff c6bd 487c c2bd be13 b23c
000000c0: 115c adbd d5a6 c5bc 1819 68bd fc82 51be
000000d0: 7bbe 79bc 3a28 caba 3d12 a53b 6392 bdbd
000000e0: 1cea 0cbd 0889 00bc 52bd 0c3d de05 bf3d
000000f0: 5acc 153e 7383 5dbd c862 42bd c207 9f3c
00000100: a9fe 533d 8bd9 8bbc 528c c1bc 7060 9dbc
00000110: 3979 353d 784e 3dbd 58d9 b03d fc3a 8c3d
00000120: 072e 43bd b44b 10bd 5017 703d cad5 e5bd
00000130: ca90 303e 5524 49be f360 353c d0d2 13bd
00000140: 740e 693e ecb5 5bbc 6853 ad3c cece d43d
00000150: 7656 adbb 3eb7 1abd 0ff3 aa3d 1fa6 373d
00000160: d855 02be 1258 f2bc d530 53bd be8b 6cbc
00000170: 2c16 f03d ae94 aa3c cf5a 0dbe 3db1 13bd
00000180: b4a7 e4bc bb14 2e3d ad8b 9f3d f8ce a4bd
00000190: fd6a 3cbb f8d8 3e3b ba61 ccbc 0644 d93d
000001a0: 4ab5 9d3d 561e ec3d 9e9c 0e3e de64 353d
000001b0: d5e3 dd3c 95a6 15bd d770 bbbd c105 84bd
000001c0: 5732 a43d 2d92 3e3e 28ed 05bd 42f9 d93d
000001d0: 420a 9dbd d9d1 22bc 23c7 713d 7f57 d2bd
000001e0: f9eb fabd 217f c1bd 9dec 99bd 4f4a 013c
000001f0: 6972 63bc e866 b6bd 7a3e a5bd 7aca 0f3e
00000200: 3607 e5bc 78d8 9abd 59fa 78be 2442 adb9
00000210: af2b a7be d542 1bbe d6c2 ddbd 4ed6 dcbd
00000220: 4cba 19be 05b2 97bd 3343 11be fd64 c43c
00000230: c1da c9bc b5f4 0b3e d309 513c 4aef 463e
00000240: 5583 91be 7a3e 1f3e 9ad3 993b cc40 3f3d
00000250: 8861 103e ec76 d5bd ebeb b13c 00c9 8dbe
00000260: c837 0bbe 7d5b 1f3d 9870 863c 3453 0bbe
00000270: ee6c 37bd 963d 6e3c a28b 14be 2d4d 84be
00000280: e807 233d 4613 9d3d 2e21 00bd b132 243e
00000290: dbd1 b93b 3881 c6bd 1d01 903d e0ba dc3b
000002a0: d3ea 873d bb84 913e 2c9d 34bc 4622 a93d
000002b0: 82fb 633d 086d 3fbd 7c4c 26bc 730e 863d
000002c0: 6946 c33d 5f56 50bc ec73 ae3b 0c12 abbd
000002d0: fe64 cf3b 7775 d2bd e7cc 9ebd 43d2 23bc
000002e0: 2580 9f3d 96ee 6cbd ffae 583e 61b8 b5bd
000002f0: 95df 84bc 3869 333e 0eb4 043c c210 183c
00000300: 6bb9 843e 68c5 2abc e831 843d d953 61be
00000310: ac9c 903e 4517 8fbe 99a2 23bc e76a 67be
00000320: 6cd7 913d 1f81 5b3e 40a0 2abe 422a 9d3d
00000330: a6a7 343b d8d5 043d c3d2 84bd 08e4 62bd
00000340: 0a46 45bb 9841 44be 253a f1bd c3c3 c9bd
00000350: 22eb 6b3d 5d12 af3d 64e9 2ebe 4357 85bd
00000360: ac0a 203e a7b3 ebbd 0c40 b23b b9d7 043c
00000370: af25 5b3d 9201 95bd d7d8 fabc d8bb 543e
00000380: 60fd 0e3d f35f 14bd aa7e 4d3e ff39 2a3c
00000390: 132c 493e 9693 943d c608 a53c e127 c53d
000003a0: 29ef 293e 82dd 2abe a6f3 73bc 733c 81bd
000003b0: 2978 45bc 5515 14bd 15f6 2bbd 9a00 bcbb
000003c0: e33f d1bc a745 e83d 3448 0f3c b967 7e3d
000003d0: e796 91be b883 323d bec8 a1bd e676 5f3e
000003e0: 38dd 96bd 4e05 123e d322 b7bb 40bb 6f3c
000003f0: b064 a93d c3b9 1e3d 549e 11bd a2cb ee3d

classifier.2.bias f4 [84]
-0.14220169 0.07511169 0.1446802 0.019422675 0.036271587 0.08084908 0.005024724 0.2740654
0.010874072 -0.07180994 0.0028227093 0.024454331 0.04434771 -0.06865645 0.07081295 -0.0013122872
0.0637056 -0.05756933 0.17502323 -0.051475964 0.18565558 -0.024419727 0.26421404 0.16788632
-0.005059025 0.19566327 -0.09799402 -0.08557772 -0.03860267 -0.011342633 -0.08262465 0.014595718
-0.0013683108 0.084031336 0.07754563 0.055530056 0.1144849 0.013433161 0.008139991 0.065755725
0.058487657 0.11649636 -0.10357533 -0.009315431 -0.052282874 -0.05380035 -0.038589843 0.1318198
-0.2229579 0.15661414 -0.015001128 -0.027612086 0.074580684 0.13456751 -0.030247178 -0.042612806
-0.124262035 0.060524054 -0.09326136 0.12024837 0.05293828 -0.057186972 0.10254983 0.1854307
0.07329725 -0.0017531192 0.0033377525 0.07435589 -0.09953932 -0.034181353 0.12376446 -0.018003222
0.027808618 -0.008211736 0.021856576 -0.022965431 -0.043389414 -0.15532324 -0.11582525 -0.04905034
-0.08774365 -0.03498698 0.06531497 -0.07056952
00000000: 529d 11be 28d4 993d 0c27 143e 4d1c 9f3c
00000010: 8491 143d 3494 a53d 71a6 a43b 4d52 8c3e
00000020: 2a29 323c 1711 93bd 34fd 383b 7354 c83c
00000030: f2a5 353d c19b 8cbd 6106 913d 0d01 acba
00000040: 1578 823d d1cd 6bbd 4a39 333e 76d8 52bd
00000050: 7f1c 3e3e e10b c8bc 1047 873e 64ea 2b3e
00000060: 2dc6 a5bb f45b 483e 17b1 c8bd 5f43 afbd
00000070: d51d 1ebd 73d6 39bc 1d37 a9bd e122 6f3c
00000080: e458 b3ba 9f18 ac3d 3ed0 9e3d 7c73 633d
00000090: 0f77 ea3d c316 5c3c 995d 053c f0aa 863d
000000a0: c190 6f3d a595 ee3d 4d1f d4bd c09f 18bc
000000b0: 9126 56bd c15d 5cbd 6210 1ebd c5fb 063e
000000c0: 134f 64be 755f 203e 4bc7 75bc be32 e2bc
000000d0: c2bd 983d 11cc 093e eec8 f7bc c48a 2ebd
000000e0: 187d febd 12e8 773d d0ff bebd c744 f63d
000000f0: cfd5 583d e33c 6abd a505 d23d 8ce1 3d3e
00000100: de1c 963d ebc8 e5ba 32be 5a3b e747 983d
00000110: 45db cbbd bf01 0cbd 3978 fd3d 7e7b 93bc
00000120: e6ce e33c 848a 06bc 900c b33c 0022 bcbc
00000130: 19b9 31bd 0e0d 1fbe ca35 edbd 02e9 48bd
00000140: f1b2 b3bd 824e 0fbd dbc3 853d c186 90bd

fc.weight f4 [10, 84]
-0.069973014 0.16693941 0.14552668 -0.24556446 0.06507529 -0.35779038 0.47075433 -0.35283935
0.29389027 -0.12669425 0.35814276 -0.20644109 -0.2824438 -0.25023147 -0.011302283 0.07199136
0.022427846 -0.04607676 0.11549241 0.4043611 -0.21725884 -0.07297427 0.14130971 0.025428075
-0.23146868 0.30566806 -0.22344121 0.15200116 0.121392556 -0.07763059 -0.09089695 0.2336177
0.15490633 -0.30715162 0.52355224 0.3590821 0.08077206 0.14775108 0.036799572 0.016793042
0.053864658 0.15613364 -0.21149613 0.30133256 -0.36345935 0.38548377 0.4008774 -0.50793815
0.15546753 -0.10732814 -0.09648435 -0.067023925 0.26569888 -0.047746636 -0.15872827 0.2118974
-0.29574686 0.51695573 -0.028666472 -0.018291999 0.10095335 -0.037901998 -0.20998417 0.06990945
0.278485 0.10242513 0.13801996 0.08333808 -0.21468692 -0.09764887 -0.39640975 0.44195795
0.119428866 0.2355881 -0.21317935 -0.26977432 0.43322262 0.16119651 -0.21290196 -0.27092746
-0.110935375 0.30852896 0.12356962 -0.023503175 -0.075633615 -0.5146903 0.24614906 0.19772667
0.015062927 -0.4913233 -0.3053044 -0.11825229 -0.1309356 -0.120247774 0.1552256 0.049009357
0.5525487 0.1048343 -0.06366133 -0.22152773 -0.053371318 0.17884475 0.23177043 -0.04681501
-0.0067673903 0.09619337 -0.32601678 0.028705508 -0.1526443 -0.05874436 -0.22984554 0.22309192
0.5583816 0.21510279 -0.15542257 -0.07682214 0.35604438 0.255305 -0.31245208 -0.4545762
0.070181265 -0.0072570676 -0.2068386 -0.12388778 -0.07416071 0.12914774 0.07203763 -0.20370579
0.10284735 -0.25584608 0.045767926 0.27124104 0.2946132 0.26238105 0.02417002 -0.22565418
0.07071035 -0.23856707 -0.031921107 0.16938622 -0.27683747 -0.34138128 -0.15540181 -0.087394856
-0.48425928 0.029629553 -0.11828094 -0.41339505 -0.10528917 0.08707845 -0.20966262 -0.06559997
0.0081970645 -0.11816286 -0.48356903 0.36383593 0.052041724 0.022139333 0.08555647 0.091037646
0.004823591 -0.16341434 0.6683396 0.2799335 0.011001504 0.14543329 -0.52812964 -0.083355114
-0.29086226 -0.10470376 0.42574963 0.13317248 -0.250524 0.3134349 0.3741598 0.38556617
0.27413914 0.011181275 -0.16500664 0.32790345 0.21526918 0.049172245 0.0831511 0.026927812
0.19950528 -0.0498463 0.28058016 0.10662765 0.39055327 0.10594694 0.16378494 -0.031176431
0.243928 -0.35380447 0.05473871 -0.418531 -0.28160775 0.33905733 -0.12553735 -0.41863024
0.10870449 -0.024584085 0.4562955 0.44432476 -0.24021283 0.26681688 -0.4208982 0.16813111
0.31435725 0.1542539 -0.09720108 0.31711757 -0.09202185 -0.30917832 -0.14036229 -0.29013893
0.03223557 0.20271525 0.30943564 -0.22229438 0.21327658 -0.43776658 -0.099906325 0.0821572
-0.40350586 -0.010772459 0.13606723 0.023807397 0.23783989 0.20555116 0.28345296 -0.32098046
-0.31779256 0.2718563 0.22083353 -0.07025343 0.052496243 0.2523739 0.027371623 -0.30781
-0.13513193 -0.257312 -0.13512108 -0.14795512 -0.06483122 -0.14722379 -0.17112307 -0.16494898
0.15846385 -0.27983627 0.22420801 0.0030608457 0.11981146 -0.10609263 -0.4150021 0.18729389
00000000: 034e 8fbd 2af2 2a3e f204 153e 4075 7bbe
00000010: 3246 853d 4d30 b7be b606 f13e 5ca7 b4be
00000020: c978 963e 23bc 01be 7d5e b73e 4b65 53be
00000030: 799c 90be 571e 80be 362d 39bc 3570 933d
00000040: 9aba b73c fcba 3cbd 4987 ec3d 6b08 cf3e
00000050: 1a79 5ebe 8973 95bd 7eb3 103e 8a4e d03c
00000060: 2006 6dbe 8680 9c3e c6cd 64be 31a6 1b3e
00000070: a99c f83d c9fc 9ebd 2e28 babd 7a39 6f3e
00000080: c49f 1e3e fa42 9dbe 8507 063f 9cd9 b73e
00000090: d26b a53d 0f4c 173e 26bb 163d 9091 893c
000000a0: 30a1 5c3d 7fe1 1f3e 7192 58be 4348 9a3e
000000b0: 5817 babe 215e c53e cd3f cd3e 3c08 02bf
000000c0: e132 1f3e dbce dbbd 9699 c5bd d743 89bd
000000d0: af09 883e fa91 43bd aa89 22be a2fb 583e
000000e0: 226c 97be 3657 043f f3d5 eabc 1ad9 95bc
000000f0: a1c0 ce3d 203f 1bbd 1706 57be b02c 8f3d
00000100: 9695 8e3e 44c4 d13d 1b55 0d3e 28ad aa3d
00000110: e3d6 5bbe 21fc c7bd 38f6 cabe 5048 e23e
00000120: 1f97 f43d 023e 713e b04b 5abe dc1f 8abe
00000130: 5bcf dd3e b310 253e f902 5abe 01b7 8abe
00000140: 1632 e3bd 82f7 9d3e 1212 fd3d bb89 c0bc
00000150: cce5 9abd bec2 03bf 800e 7c3e dc78 4a3e
00000160: 7fca 763c ba8e fbbe dc50 9cbe 422e f2bd
00000170: fb13 06be 7744 f6bd 76f3 1e3e 09be 483d
00000180: d573 0d3f 5eb3 d63d df60 82bd 2ad8 62be
00000190: e29b 5abd 1423 373e 3a55 6d3e 19c1 3fbd
000001a0: fcc0 ddbb 0801 c53d aceb a6be d027 eb3c
000001b0: ca4e 1cbe ed9d 70bd a15c 6bbe 3572 643e
000001c0: 19f2 0e3f e843 5c3e 1827 1fbe ed54 9dbd
000001d0: 734b b63e 56b7 823e b8f9 9fbe 36be e8be
000001e0: 32bb 8f3d b2cc edbb 7fcd 53be e0b8 fdbd
000001f0: 92e1 97bd 4e3f 043e 7788 933d 4098 50be
00000200: a2a1 d23d 42fe 82be 2677 3b3d 1be0 8a3e
00000210: 8bd7 963e cf56 863e 3500 c63c e411 67be
00000220: 97d0 903d ed4a 74be b5bf 02bd 9573 2d3e
00000230: a4bd 8dbe 87c9 aebe a721 1fbe 13fc b2bd
00000240: d5f0 f7be adb9 f23c 473d f2bd 84a8 d3be
00000250: d9a1 d7bd 3056 b23d ccb1 56be 4759 86bd
00000260: fb4c 063c 5fff f1bd 5c96 f7be b448 ba3e
00000270: b429 553d 8c5d b53c 3b38 af3d f271 ba3d
00000280: 370f 9e3b 1756 27be 4e18 2b3f 7253 8f3e
00000290: a73f 343c 77ec 143e 8133 07bf 16b6 aabd
000002a0: e6eb 94be ed6e d6bd dbfb d93e 5e5e 083e
000002b0: af44 80be 8a7a a03e e091 bf3e ee68 c53e
000002c0: f75b 8c3e ab31 373c 80f7 28be f6e2 a73e
000002d0: 866f 5c3e d668 493d 204b aa3d b797 dc3c
000002e0: 1d4b 4c3e a22b 4cbd 34a8 8f3e 995f da3d
000002f0: 99f6 c73e b6fa d83d 3db7 273e b765 ffbc
00000300: 43c8 793e dc25 b5be b335 603d b249 d6be
00000310: e42e 90be ec98 ad3e dd8c 00be b456 d6be
00000320: 76a0 de3d 9064 c9bc 909f e93e 897e e33e
00000330: 5afa 75be 399c 883e f87f d7be 902a 2c3e
00000340: 6ff3 a03e bcf4 1d3e 5c11 c7bd 3c5d a23e
00000350: f475 bcbd 9f4c 9ebe 22bb 0fbe 178d 94be
00000360: 7209 043d 9694 4f3e 596e 9e3e 23a1 63be
00000370: 2d65 5a3e f122 e0be b09b ccbd 0942 a83d
00000380: 5298 cebe f87e 30bc 3555 0b3e bb07 c33c
00000390: 4d8c 733e 017c 523e bf20 913e 8d57 a4be
000003a0: b5b5 a2be c030 8b3e 2f22 623e 08e1 8fbd
000003b0: 4d06 573d 2737 813e 743a e03c 4699 9dbe
000003c0: 0660 0abe 66be 83be 2e5d 0abe 8c81 17be
000003d0: 3bc6 84bd d5c1 16be e33a 2fbe 63e8 28be
000003e0: 5944 223e b346 8fbe c996 653e 7898 483b
000003f0: b65f f53d 1847 d9bd 287b d4be f8c9 3f3e

fc.bias f4 [10]
-0.058376208 -0.3961959 0.16485745 0.17360061 0.019191198 -0.4043441 0.08280879 0.2367597
0.28218973 -0.15224025
00000000: e41b 6fbd 30da cabe 64d0 283e 5cc4 313e
00000010: dc36 9d3c 3106 cfbe a897 a93d 2371 723e
00000020: 2c7b 903e dee4 1bbe
