rand_models/PL_KuzushijiMNIST_LeNet5.pth (torch, 251046 bytes, 10 tensors)

features.0.weight f4 [6, 1, 5, 5]
00000000: dd51 303e 4243 c73d 01ad c4bd 5db0 2c3d
00000010: 6595 b23d 16e2 db3c 0392 46be 65d3 883e
00000020: 9944 f63e 118a 813e 357e 0d3f e394 163f
00000030: c682 413f e52a ca3e 3fea 4e3e 2564 4e3d
00000040: d463 d43d 1615 b9bd 4ede c2be e6ab a9be
00000050: cbb2 7dbe 0d9e fbbe bd15 53bf 10dc 35bf
00000060: 4178 05bf d04c 8abe 7c8f 24bf 2140 0dbf
00000070: 8942 a4be 009b 34be 411b e73e 3bf5 58be
00000080: 7429 babe c05c eebe 1101 afbe 8a9a dc3e
00000090: f3aa 583f 64d4 a33e 91ee 963d 2b22 cabc
000000a0: e1fc 31be bc3c d43e 2b18 503f 3598 203f
000000b0: 8aab e63e ba36 aabe 2a81 b4be 7f86 a3bd
000000c0: b7f4 87bd da89 5dbc e566 923c ada7 ba3b
000000d0: b47a f53d b6ed 193e 3966 403d 1e5d 6c3e
000000e0: 11ad 19be 7677 4e3d d16e 893d f00c 18be
000000f0: 7496 fd3e 5740 a0bd fe66 9cbd 6ca9 4dbe
00000100: 7d9b 6ebe d0fd 223e a585 5f3f 6010 92be
00000110: 9ba6 e6be 7e2a bfbe fcf9 ddbd 58fe 4e3f
00000120: f008 893e 534b fcbe 0d17 f0be 4923 d9bd
00000130: ee9d 2bbf 3fce fabe 1e19 963e 22f9 0d3f
00000140: e986 bebe c207 f5be 79e3 f83d c066 223d
00000150: 4278 f73e 318c a5be 9a9f 12bd fde0 ad3e
00000160: 1db8 813d 8459 983d 801a 583c 47e2 bc3e
00000170: 1021 3e3f ef5a 83bd ddff b9be 9611 57bd
00000180: f4da 6a3f adf8 d3be e782 12bf 4a74 0cbf
00000190: 3fec 7f3d 7914 09be bc0a 41be d331 72bd
000001a0: 994b 963e 1be6 56bd febe b4be 7334 b3be
000001b0: a9b6 c1be def7 9d3b 24cd 3abd 17e9 91be
000001c0: 13d8 f8be d912 c0be a58a 8dbe 2331 06be
000001d0: 2007 68be b80e 79be edff 5cbe 7bbe 82be
000001e0: 5cc7 22be 97b7 73bd 7d8c f23c 7653 333d
000001f0: bc5a afbd aa15 7cbd 947c 72be f736 0c3a
00000200: b423 fa3e 88e6 e2be 79e4 2c3e 8c2a 38be
00000210: 96bc dfbe 0b91 203f 345e 61be c1cb 493e
00000220: 74bd 1cbf e8bd 5ebe 32f5 813f 39cd e5be
00000230: bed1 363e 8fef 46bf 5f12 d93e 4598 383f
00000240: f468 eebe 7f2f 493d 48b5 a2be 3a90 0a3f
00000250: f0d1 873e 09ab 30bf
0.17218728 0.09729625 -0.096033104 0.04216038 0.08719901 0.026841205 -0.19391637 0.2672378
0.4809921 0.2530065 0.552707 0.58820933 0.7559017 0.3948585 0.20206545 0.050388474
0.10370603 -0.09037225 -0.3806023 -0.3313896 -0.24775235 -0.4914402 -0.82455045 -0.71038914
-0.5213662 -0.27011728 -0.6428144 -0.5517598 -0.32082012 -0.17637253 0.4513798 -0.21187298
-0.3635975 -0.46555138 -0.341805 0.43086654 0.8463585 0.3199798 0.07369722 -0.024674496
-0.17381622 0.41452587 0.8128688 0.6273225 0.4505275 -0.33244878 -0.35254794 -0.079846375
-0.066384725 -0.013521636 0.01787133 0.005696258 0.119862944 0.15032086 0.046972487 0.23082396
-0.15007426 0.050406896 0.0671059 -0.14848685 0.4952885 -0.07824772 -0.07636832 -0.2008416
-0.23301502 0.15917134 0.873133 -0.28528118 -0.45048985 -0.37337106 -0.10838696 0.8085685
0.2676463 -0.49276218 -0.46892586 -0.10602433 -0.67037857 -0.48985478 0.29316038 0.5545827
-0.37212303 -0.4785748 0.12152762 0.03964877 0.48333937 -0.3233352 -0.03579674 0.33960715
0.06333945 0.07438949 0.013189912 0.36891386 0.742692 -0.064138286 -0.3632802 -0.052507006
0.91740346 -0.41400662 -0.5723099 -0.54864943 0.06248116 -0.13386716 -0.18851751 -0.059129547
0.2935455 -0.05246554 -0.35301965 -0.35000953 -0.3783467 0.004820808 -0.045605794 -0.28498146
-0.48602352 -0.3751438 -0.2764484 -0.13104682 -0.22658968 -0.24322021 -0.21582003 -0.2553595
-0.15896362 -0.059501257 0.029608006 0.043780766 -0.08562228 -0.061544098 -0.23680335 0.00053487666
0.48855364 -0.44316506 0.1688403 -0.1798498 -0.43698567 0.6272132 -0.22008592 0.19706632
-0.6122658 -0.21752131 1.0152953 -0.44883135 0.17853448 -0.7770929 0.4239683 0.72107345
-0.46564448 0.04911756 -0.31778932 0.5412632 0.26527357 -0.6901098

features.0.bias f4 [6]
00000000: bd78 0abd 6b51 0ebe 2f07 673d ca96 1ebf
00000010: a647 6bbf e146 26bf
-0.03380655 -0.13898246 0.056403335 -0.61948836 -0.919062 -0.649519

features.3.weight f4 [16, 6, 5, 5]
00000000: 5fc3 813e 6cdf 2a3e 0f58 003e 7b8d 55bd
00000010: bb52 5f3d cbbe a73d 8382 b83c e1a6 c6bd
00000020: 5a30 80bd db7d 09be f492 8fbc fc7b c63d
00000030: 39b6 6a3b d999 0fbe 5cd3 02be 6031 a0bd
00000040: 3ee8 1bbc 0655 93bd 320a c4bd 75ab c1bd
00000050: e5bb 04bd 0289 433c b143 8bbc 9f2f 10be
00000060: 6482 39bc 783e 113e 911a 1c3d bc66 dc3c
00000070: ae29 283d f17f 22bd a298 073e fa88 ce3d
00000080: d4b4 713d db95 6b3d 5b34 ec3c e5a1 38bc
00000090: 44ac ba3d 50ed 0a3e 6f65 9a3d e98c 343d
000000a0: 6d41 8b3d d940 043d 50fb 3539 9ebe 5f3c
000000b0: d08e 9dbc 585b d63c f4a0 283e 3a06 0b3d
000000c0: 6b67 33bd c8e8 c3bd 33df 123d ef8b bbbd
000000d0: d8c6 8ebd b17d 403c 3919 fc3d e788 313e
000000e0: 355e edbd bbf0 e5bd e823 d3bc d0fe 513e
000000f0: 98c7 643e bfc9 f8bc 8a46 96bd 21d6 5ebd
00000100: b315 d23d 45b0 843e dedf f03d 2dea dcbd
00000110: b72f 18be be39 bb3d 984e 1a3e 2b50 4e3e
00000120: 73e0 f2bd 5b5c b2bd 5b29 e7bb 5fb6 083e
00000130: 64e9 ac3c a593 493d 6197 543d 0d3c 763d
00000140: 388d 55bb 25d4 94bd 99f9 e0bd 0538 dbbd
00000150: 1acd 093d 3004 a1bc cf03 d8bd 6c78 e9bd
00000160: 5f80 38bd ce5f bbbd 7c29 f3bd f123 3abc
00000170: f7f5 49bd c2eb 653d 2da3 91bd fc55 c0bd
00000180: 95b2 bbbd e17d 43bd 5e0d 38bd 180e bebd
00000190: 6418 08bd 25b4 25be 1f73 a3bc c8ea ce3c
000001a0: 4acc 3e3d ea77 f4bd 142f 913d 74b2 adbd
000001b0: 2afe 18bd 3573 2c3d 7129 a5bd 5d00 d6bc
000001c0: 4276 a8bd 3eea 39be a73e 70bd 93ab 1cbe
000001d0: c3ad 3d3d 282c 373c e59c 2fbd f84d 1abe
000001e0: acc9 4fbe 5bab 6cbc 555c c33c e7e4 1bbe
000001f0: b029 25be 638a abbd b959 a0bd 2c14 9dbd
00000200: 5a9f 8cbd 518d a2bd c4a1 cabd 1962 dfbc
00000210: aa10 f43b d50a 933c 075e 00bd bb7e 4fbd
00000220: ed82 19be 08ff ecbd 8c9b 043e 5fbb dcbc
00000230: 1805 25bc 7660 97bd 4d2f 70bd 98e6 183d
00000240: 6aed 703d 88a4 983d 5fb8 b8bd 676d 99bd
00000250: 4ace 9bbb e9f8 c23d 3f56 17bd a980 9b3c
00000260: ba68 febc 7588 a9bb 8216 5c3d 9d61 d43c
00000270: 894a a5bd e05a b23c 8003 713d 192c 8db9
00000280: aced 373d 5e3a 913d 1580 bbbc 2e6e a63b
00000290: 1ae3 80bd 257e 92bc 0899 633d f106 ef3c
000002a0: f8c3 7fbd e688 8abd 2255 82bd 847f b2bd
000002b0: 2106 90bd def5 e4bc 6912 393d ff09 ad3b
000002c0: 33f7 91bd 15c7 90bd 803e 103d e961 87bd
000002d0: 5633 94bc e675 e03c d8dd 3cbd 3676 3ebc
000002e0: cd5f 37bc 9d59 cabc d60a 3abd 5b87 9dbd
000002f0: 1a4f 95bd 82e1 59bd 0841 8d3d 089a 4ebd
00000300: 4856 6fbd 031e 343c fcb1 ba3b 3258 053d
00000310: dce5 4e3d 9c08 0e3d a911 adbd 3ec4 d1b8
00000320: 4847 1e3d d9c0 40bc 413c 4dbd ff43 7a3d
00000330: 6190 60bd 6d99 5abd 8508 9fbd d13b 05bb
00000340: 0ff1 503c 181a 12bc 6bea 293c 427a 8fbd
00000350: 02f4 adbd 3c9c 80bc 8a1a 613d 3d42 2e3d
00000360: 9e16 6cbd 97a9 cdbc 32ed 86bd b90a 45bd
00000370: 372f 373c 31d7 153d 0ad4 523d 0c4d a8bd
00000380: 1c71 2c3d 59d1 81bd 25d5 ad3c ba85 6f3d
00000390: 44ed 06bc 3227 743d f658 93bd 63b5 24bd
000003a0: 30b5 053d f5ae ebbc 55fc b8bc 2c88 1abd
000003b0: b679 3e3d cd96 f23c adf9 af3c fed8 44bd
000003c0: c124 95bd 4dda fabb 17a6 3c3c 8224 1abd
000003d0: 205c c3bc bbab 3c3d ba8f 52bb 7c40 78bb
000003e0: 509a c6bc ff70 9bbd 013a b5bd f985 57bd
000003f0: 360d 47bd 96b4 aa3c eb1d 14bd c4b9 32bd
0.2534437 0.16686791 0.12533592 -0.05213688 0.054522257 0.08190688 0.02252317 -0.096997984
-0.06259222 -0.13426916 -0.017526127 0.09691617 0.003581418 -0.14023532 -0.1277594 -0.078219175
-0.00951582 -0.07193951 -0.09572257 -0.09456531 -0.032405753 0.011934521 -0.017000051 -0.14080666
-0.011322591 0.14183986 0.038111273 0.026904456 0.041055374 -0.039672796 0.13241819 0.1008472
0.05901034 0.05751596 0.028833559 -0.011269067 0.09114888 0.1356709 0.07538878 0.044079695
0.06799588 0.032288406 0.00017355126 0.0136562865 -0.019233137 0.026166603 0.16467649 0.033941485
-0.0437998 -0.09565884 0.03585739 -0.091575496 -0.0697152 0.011748717 0.12309498 0.1733738
-0.11590234 -0.11227556 -0.025773957 0.2050736 0.22341764 -0.030369638 -0.07337673 -0.054403428
0.10258045 0.25915733 0.11761449 -0.10786853 -0.14861952 0.09141873 0.15069044 0.20147769
-0.118592165 -0.08709022 -0.0070544905 0.13350819 0.021107383 0.04921307 0.05190218 0.060115863
-0.0032585394 -0.07267026 -0.10985107 -0.10704044 0.033642866 -0.019655317 -0.105476014 -0.11399922
-0.0450443 -0.09149133 -0.11873147 -0.011361108 -0.049306836 0.05613304 -0.071112014 -0.093914
-0.09164921 -0.04772747 -0.044934623 -0.09280032 -0.033226386 -0.16182001 -0.019952355 0.025258437
0.046581544 -0.11936934 0.070890576 -0.08481303 -0.037351765 0.042102057 -0.08064545 -0.02612322
-0.08225681 -0.18155763 -0.0586535 -0.15299825 0.04630829 0.011179961 -0.042874236 -0.15068805
-0.20291775 -0.014445151 0.023847738 -0.15224038 -0.16129184 -0.083760045 -0.07829613 -0.07669863
-0.068663314 -0.0793711 -0.098941356 -0.027268456 0.0074482756 0.017949501 -0.03133967 -0.05065797
-0.1499135 -0.11572081 0.12949961 -0.026944814 -0.010072015 -0.07391445 -0.05863886 0.037329286
0.058820166 0.07453257 -0.09019541 -0.0749157 -0.004754816 0.09520132 -0.036947485 0.018982248
-0.031055797 -0.0051737376 0.053732403 0.025925452 -0.08070857 0.021771848 0.05884123 -0.0002692647
0.044904396 0.07091211 -0.022888223 0.0050790524 -0.06293316 -0.017882416 0.055565864 0.029178115
-0.06244275 -0.067643926 -0.06363894 -0.08715728 -0.07032419 -0.02794927 0.045183573 0.0052807326
-0.07127228 -0.07069222 0.035215855 -0.06610472 -0.018090885 0.027399968 -0.046110004 -0.011624863
-0.011192274 -0.024700934 -0.04542049 -0.07691833 -0.07290478 -0.053193577 0.06897169 -0.050439864
-0.058431894 0.0109934835 0.005697487 0.032554813 0.05051218 0.03467618 -0.08450634 -0.000100024496
0.038642198 -0.011764728 -0.05010629 0.061100002 -0.05482519 -0.053368974 -0.07765297 -0.0020329843
0.012752785 -0.008917354 0.010370831 -0.07005741 -0.084938064 -0.015699498 0.05495695 0.04254364
-0.057638757 -0.02510528 -0.0658821 -0.04810593 0.0111806905 0.036582176 0.051471747 -0.082178205
0.042100057 -0.06338758 0.0212198 0.05847714 -0.0082352795 0.059607692 -0.07194702 -0.040212046
0.032643497 -0.02876995 -0.022581259 -0.03772752 0.04650279 0.029612923 0.02148136 -0.048058502
-0.07282401 -0.007655418 0.011514208 -0.037632473 -0.02384764 0.046062212 -0.0032129125 -0.0037880233
-0.024243504 -0.07589912 -0.08848954 -0.052618 -0.048596583 0.020838063 -0.036161344 -0.04363419

features.3.bias f4 [16]
00000000: 7130 11bd 7ad3 c33c 80b8 0a3d 08c4 6d3d
00000010: 62d5 31bd 29c6 4e3d 9a38 31bb ef01 5fbd
00000020: 3a8a 9f3d 234a 22bc d9ca 59bb 6cdb 9a3d
00000030: 1c3c 84bc 660a a8bd 4c5d 2b3d 71be 983d
-0.035446588 0.02390455 0.03386736 0.058048278 -0.04341639 0.05048195 -0.0027041794 -0.054445203
0.077900365 -0.009905371 -0.003323248 0.07561383 -0.016141944 -0.08205108 0.04183702 0.07458199

classifier.0.weight f4 [120, 400]
00000000: f272 e63c 98e1 853d 8038 413d befb 5ebd
00000010: 277d f7bc b0ec d4bc 1ffc d9bc c7df f73c
00000020: a5ce 82bd 514c 80bd 243a 1e3d 7c59 e6bc
00000030: 4f8d 07bd e923 6bbd 91da 55bd 0e1d 4939
00000040: c2f0 363c 5b06 f1bc c9c5 6cbd b891 d9bb
00000050: 7637 453d a6cc 2bbc 2384 82bc 3c8d 153d
00000060: 70d6 663d db0f f63c c70e 133d df79 d8bb
00000070: 42a9 2abd ded7 c2bc 3906 8a3c 8f09 123d
00000080: d3a9 9dbc 3b71 243d 499f f03b 4443 6939
00000090: b706 143a 27ef 29bc 0264 3d3d 14c8 103b
000000a0: 2451 fd3c 7819 30bd 72fa d7bc dce3 2a3b
000000b0: dae8 203d ffb1 c13c 0431 193c 1c58 51bd
000000c0: a8ef 1dba 3601 08bd 2e53 83bd f6fc 123e
000000d0: ab25 7bbd 6b19 cfbc 8572 ff3d 4e89 25bd
000000e0: f3b8 743d 1897 05bd 88d4 013e 12ff 693c
000000f0: f300 2cbc 512a 3a3e 42c9 2bbc 29cc 773e
00000100: 418d ce3d e4b0 d83d 3a13 0e3e 11ad e73d
00000110: 4830 0c3e 14f2 03be 8ca5 57bd 9721 0cbe
00000120: c1bd bf3d 016c f03d 80f0 a1bb 5746 ebbd
00000130: 0200 3cbd 1b6b 6fbe e9b9 3cbd f079 01bd
00000140: ae2f dcbc c328 38bd 8275 31bc 6110 c9bd
00000150: d984 cabd 6797 f2bd 427c eebd 7d56 a7bd
00000160: 86dd ddbd 16c0 0fbd a696 0a3c 0bba a8bd
00000170: 3256 713d f6cb 07bd 1954 2cbe 4ede 803e
00000180: 3837 f43d 5da9 10bd 8896 57bd f8d8 26bd
00000190: 3e5e 8ebe d3ff 873c 3f68 8c3d 6572 af3c
000001a0: d72b b8bd 65db fbbd e1be 0cbe 7d4c f8bc
000001b0: 932a 12be 366d 6cbe 5ca9 9f3d df6d 64bb
000001c0: f0ff 9abd bf3c 91bd f417 2abe 1055 ca3d
000001d0: f5fb 223e dc36 653d 599a d73d 5c73 9c3d
000001e0: 0eed 623d 5164 4b3d fc60 d33c 59e9 f53d
000001f0: ccaa a83d b032 cabc 4bd0 37bd d232 b4bc
00000200: e645 ea3c 133e d4bc 33f3 f0bc a01a 7c3c
00000210: 74d6 2bbd 0168 77bd 6ae3 77bc 9f0a 1bbc
00000220: 514c 123c 169c 60bc 9829 d73b 01f5 37bd
00000230: aca2 b83b e270 453d 5a23 2d3d c526 a43c
00000240: d92f ce3c 5347 193d 0891 84bc d033 013d
00000250: b076 7e3c abef 663d a9d7 b33d d0b3 4a3d
00000260: e9f1 783e 5bc3 953d 252c 003e 742a 06bd
00000270: 0bf4 143d 4869 293e 8050 ba3d dc88 b53d
00000280: 4967 5ebe a511 87bd ea1d b53d f4b0 95bc
00000290: afc1 313d a872 efbb 8260 643d 8ea8 083e
000002a0: 1d00 9dbd 134f 77bd e098 e83d d967 e83d
000002b0: 33cf 6abe 2cb0 15be db7a 4dbe 7b5a 543d
000002c0: c398 d43d 5ba3 ba3d 4bca 093e f2d2 a83d
000002d0: 7012 46bd c967 073d 5c06 4c3d cf75 173e
000002e0: b806 913d a979 c6bb c520 de3d 4cce 013c
000002f0: fc65 383d 1eee d2bd 1c79 f23c 2595 b93d
00000300: 7104 d2bd 25f5 0ebe 8daa 46bd 1c60 e2bc
00000310: 7821 e0bd 8c70 aa3d bd5c b6bd 7aa1 cd3c
00000320: eb95 07be 06ae 3d3d f28c afbd 9937 38be
00000330: 1fc3 90bc c1d0 81bd d397 f53d 4f05 0e3d
00000340: 65b2 55be 45f5 32bd f255 3b3c e3c1 cdbd
00000350: fe08 0c3e 7762 cebd b0ed ccbc 3821 28bd
00000360: 5136 33be e4a3 283d ac40 293b 6e94 803c
00000370: c5d3 2ebe 1cca d6bd 1dc8 893d 23e4 753d
00000380: 795b 803e 6d7c ff3d 4ea9 073d 8c9b 033d
00000390: 8efa c3bd 51c4 023e 1062 d03d fabd 92bd
000003a0: 76e5 c13d 0786 1dbe 0e0e c8bd f81b c13c
000003b0: 538e c53d 4269 8abd e277 63bd f98f ebbd
000003c0: fdc2 44be a959 3cbe 7d60 91bd ec4f bbbd
000003d0: f3fb 1d3c 4e0c a33d 2760 b03d 19a6 363e
000003e0: 58bd 603e ced4 3a3d c375 c8bc 1441 6ebc
000003f0: 0072 f2bc fd1c 2abc 9e2f 7dbd f7d9 1abd
0.028130982 0.06537169 0.047173023 -0.0544393 -0.030211044 -0.025991768 -0.026609479 0.030258073
-0.063870706 -0.06264556 0.038629666 -0.028118841 -0.033093747 -0.057407293 -0.052210394 0.00019179677
0.0111658 -0.029421976 -0.05780581 -0.0066396855 0.048148595 -0.010485804 -0.015932148 0.036511645
0.056356847 0.030036857 0.035902765 -0.006606325 -0.041665323 -0.023784574 0.01684867 0.035653647
-0.019246018 0.040147047 0.007343207 0.0002224567 0.00056467525 -0.01037196 0.046237953 0.0022091912
0.03092248 -0.04299304 -0.026364539 0.0026075756 0.039284565 0.023644445 0.009350065 -0.05110942
-0.0006024786 -0.03320428 -0.0641235 0.1435431 -0.06131522 -0.025280675 0.12473015 -0.040414147
0.059746694 -0.032614797 0.1267873 0.014282005 -0.010498273 0.18180205 -0.010484995 0.24198975
0.10085536 0.10580614 0.13874522 0.11312307 0.13690293 -0.12885314 -0.052648112 -0.13684689
0.093623646 0.1173935 -0.004942 -0.11488026 -0.045898445 -0.23380701 -0.046075735 -0.03161043
-0.026878204 -0.04496075 -0.010831239 -0.09817577 -0.0988862 -0.11845284 -0.11644794 -0.08170793
-0.10833268 -0.035095297 0.008458769 -0.0823861 0.058920093 -0.033153497 -0.16828956 0.25169605
0.11924595 -0.035317767 -0.052633792 -0.04073426 -0.27806276 0.016601479 0.06855821 0.021416852
-0.08992737 -0.122977056 -0.1374469 -0.03030991 -0.14274053 -0.23088536 0.077959746 -0.0034855527
-0.075683475 -0.070916645 -0.166107 0.09879506 0.15916426 0.05596052 0.10527486 0.076391906
0.055401854 0.049656216 0.025803082 0.12007398 0.08235702 -0.024682373 -0.044876378 -0.02199689
0.028597783 -0.025908506 -0.029412841 0.015387207 -0.041952565 -0.06040192 -0.015129903 -0.0094629815
0.008929328 -0.013709089 0.0065662377 -0.04491139 0.0056346264 0.048203357 0.042270042 0.020038018
0.0251693 0.037421536 -0.016182438 0.031543553 0.015531227 0.05638091 0.08781368 0.04948789
0.24311031 0.07312652 0.1251684 -0.03275533 0.03636555 0.16544068 0.090973854 0.088639945
-0.21719088 -0.06595162 0.08843596 -0.018272854 0.0433976 -0.0073073693 0.0557561 0.13345549
-0.07666037 -0.060378145 0.113572836 0.11347932 -0.22930603 -0.14617985 -0.20066397 0.0518441
0.103806995 0.09113189 0.13456075 0.082433596 -0.048357427 0.03305796 0.049810752 0.14791034
0.070813596 -0.0060569835 0.10846094 0.00792272 0.045019135 -0.102993235 0.029598765 0.0906165
-0.102547534 -0.13960703 -0.048502494 -0.02763372 -0.10943884 0.08322248 -0.08904407 0.025101412
-0.13240783 0.04630854 -0.08571805 -0.17989959 -0.017671166 -0.06338645 0.11991849 0.03467303
-0.20868833 -0.04369094 0.011434065 -0.100467466 0.13675305 -0.100773744 -0.025015682 -0.041047305
-0.17501189 0.041171923 0.00258259 0.015695777 -0.17072971 -0.10487768 0.06727622 0.06003202
0.25069788 0.12474904 0.033120446 0.032130763 -0.09569274 0.12770201 0.10174954 -0.071651414
0.09467594 -0.15383159 -0.09768306 0.023572907 0.09646287 -0.067583576 -0.05553425 -0.1150207
-0.19215007 -0.18393578 -0.07098482 -0.09146103 0.009642589 0.07961331 0.086120896 0.17836799
0.21947229 0.045613103 -0.024470216 -0.014541883 -0.029595375 -0.010382888 -0.06181299 -0.037805524

classifier.0.bias f4 [120]
00000000: 77d4 99bb 8c39 c4bc 0328 eabc 9082 9c3c
00000010: f22c 8c3c ef4c 783d a5ac c6bb 6d13 9abd
00000020: 60d7 34bc ac06 18bd db13 be3d 6c84 c6bc
00000030: d253 453c 3185 393d cab5 85bd 2b71 f83c
00000040: bc21 133c dfd9 b73c 6876 0f3c 3540 2bbc
00000050: a9be 85bd 9572 18bc 7643 09bd 1163 cebc
00000060: b2af fa3c 1dfe c63c c446 83bd 23f8 3a3d
00000070: 3a19 6dbb 6cb9 a43d a9f9 793d ff1e b2bb
00000080: 98de 4dbb 7b09 91bd 3359 22bd 97b5 183c
00000090: 0945 6dbc bb97 923d e42f ac3d 41bb b4ba
000000a0: 847f b63c 043b d33c ca80 223d e953 823c
000000b0: a9ec 8fbd 50dc f2bc 9e54 1abd 11ff 8a3b
000000c0: 8bed 4cbd 189b a1bc 0cbe 603c 6eb7 0c3d
000000d0: e941 e53b a51a 503d 3358 7a3d 3324 54bd
000000e0: 05dc 593d e5a1 863c 59ca 08bc 0595 84bb
000000f0: 326e 383c fcbd 49bd 2261 97bc c306 a3bc
00000100: dd31 8cbc d6bf 36bd 1691 99bc 52ae 02bd
00000110: 565e 0a3c adf8 e43a 48b6 f7bc 0b14 363d
00000120: 877b bb3b 227a 443a 1b49 01bd 2363 923c
00000130: b065 be3c 79d8 b3bb dbd9 14bc 4a84 c33c
00000140: b373 64bc 2b8e 87bd d16d 0c3b 7532 e43c
00000150: 9b45 1ebc 2152 943c ab36 c2bd 4693 1b3c
00000160: abb4 403d d862 093c 2fb7 663d 129d 193c
00000170: 1fd0 8cbd 7c0a c3bc 2553 2fbd 6393 23bd
00000180: 44db 2abd a0ea c8bc 13b3 31bd b643 2a3d
00000190: fb65 8a3c 75a9 06bd 8166 19bd 64d1 11bc
000001a0: a065 da3b 2d95 28bd b349 ddbb a816 4ebc
000001b0: 1879 85bd 6447 9e3d 02a7 4b3d 0fce e03c
000001c0: 521d 6bbc 95f7 85bc 7d70 9ebc 0507 ae3c
000001d0: 855e 903c 9d60 babc cc5f eebc 1868 e53c
-0.0046945172 -0.023953222 -0.028583532 0.019105226 0.017111275 0.060620245 -0.0060630613 -0.075232364
-0.0110376775 -0.037115738 0.09281131 -0.024233066 0.01204391 0.045293037 -0.06528814 0.0303274
0.008980211 0.022442756 0.008756258 -0.01045232 -0.06530506 -0.009304662 -0.0335116 -0.025193723
0.030601356 0.024291093 -0.06409982 0.045646798 -0.0036178366 0.08043179 0.06102911 -0.005435824
-0.0031413194 -0.070818864 -0.03963585 0.009320638 -0.014481791 0.071578465 0.08407572 -0.0013788716
0.022277601 0.025784977 0.039673604 0.015909152 -0.07027561 -0.029646069 -0.037678353 0.004241832
-0.050031226 -0.019727275 0.013717186 0.03435462 0.0069963825 0.05080666 0.06111927 -0.051792335
0.053188343 0.01643462 -0.008349025 -0.004046085 0.011256741 -0.04925345 -0.018478934 -0.019900685
-0.01711362 -0.044616543 -0.01874594 -0.031904526 0.008445343 0.0017469131 -0.030238286 0.04445271
0.0057215127 0.0007495006 -0.03156386 0.017869538 0.023241848 -0.005488452 -0.009085144 0.023866791
-0.0139436005 -0.06618913 0.002142776 0.027856091 -0.00966015 0.018105568 -0.09483083 0.009495562
0.0470473 0.008385383 0.05632704 0.009375827 -0.068756334 -0.02380871 -0.042803902 -0.03993548
-0.041713014 -0.02452594 -0.04338367 0.04156848 0.016894331 -0.03287645 -0.03745127 -0.00890002
0.0066649467 -0.04115789 -0.0067531704 -0.012578644 -0.065172374 0.077284604 0.049719818 0.027442006
-0.014350252 -0.016353408 -0.019340748 0.021243582 0.017623195 -0.022751147 -0.029098414 0.028003737

classifier.2.weight f4 [84, 120]
00000000: 1dbb f93c f861 babd f494 953d 7250 4d3e
00000010: 8ad2 203d a833 f7bd 01c8 b03c 7c03 8d3c
00000020: 49a5 a53d 2f4d fdbd b697 623c 28ec 3ebd
00000030: 3a38 dcbc e8a4 523d 9058 75bc b2b7 593e
00000040: 4a42 f8bd 02a1 00be 18f7 feb9 6e1e e93d
00000050: 8645 493d fad2 b0bd 1378 353d 6ded 8dbd
00000060: b3be 113d ddb5 cdbc 3414 98bd 21c8 703b
00000070: 77f1 1d3d 7774 9abd 07a8 b93c c326 be3d
00000080: b74c cbbd f30f 0b3e dfa8 51bd 05e7 25bd
00000090: 26d1 6abd 6dad f73d e8f8 a8bd b286 35bc
000000a0: 54e7 2a3c 9450 12bd 57e0 573c 5f7f 593e
000000b0: 3f34 01be f263 c73d c1ff dfbd caf8 7dbd
000000c0: 0b46 cdbd 3bf7 8cbd 9574 bbbc 7f48 863c
000000d0: 36a8 cabd 9795 2dbd 9a2c 9cbd d64b 04be
000000e0: 356c c1bc 30f1 1fbd 4517 97bc de0a bd3d
000000f0: e226 9abc 4ba9 2ebd b082 e0bc c782 c3bd
00000100: 237d b33d a912 fcbc 4f84 903d 580b ba3d
00000110: f078 0d3d 65e3 67bc db3f 803d 47c1 343d
00000120: eb74 4e3c 86a8 6fbd 1ef9 a03b 1230 0dbd
00000130: 058c 5f3d c418 28be a347 e33d 9cc0 113d
00000140: 3038 f83b 7039 4fbd c63f 5a3d c9e5 8e3d
00000150: f4ac 6abd 0247 ecbc 08a7 1bbd 70e7 26bd
00000160: cdd5 0fbd be0a 11be b00a 70bd 2d2f cdbd
00000170: 69da ad3c aae0 9fbd 7553 9cbd 63eb 2f3e
00000180: 47b9 c73c 5a45 163d e224 373d 690b aebd
00000190: 350d 9e3d 2167 483d 88b5 88bd ff1e 683d
000001a0: e249 81bd c75f 4a3d 2494 db3c 0c63 b7bc
000001b0: 1f19 b6bd 20c1 c0bd 1449 393c cb18 b43c
000001c0: 0139 a03d f69c 8abd e15b 01bc 3199 3f3d
000001d0: ef98 87bd 7dcf 05be 94dc 003e 8ea7 4f3c
000001e0: 3c56 d9bd 72cf f1bd 31b6 1e3b 0b18 8dbd
000001f0: a021 b2bc 5ae7 9dbd 5731 70be 1c91 833c
00000200: 7278 c8bd b2cf 92bd eba9 90be 3e91 c73d
00000210: e6a7 09be 8f6f 23bd 026e 143e 14ca ebbb
00000220: 9e2d 1e3e 51f9 64be ca65 f03d 802e ac3d
00000230: c392 453d bfbb 0dbd 422e 3f3d 20a9 183e
00000240: 95c5 eabd e169 aebc 67de 823e 3cac 1e3d
00000250: 1590 26bd 4b18 c1bd 01d5 073d aec2 17bd
00000260: e6f9 d13d d352 13be af38 8b3d d709 b53b
00000270: 25f6 85be 3a04 53bd b834 2dbe de70 2ebd
00000280: e6f6 33be 7f77 49be 3e59 a1be b5a8 5ebc
00000290: d547 10bd c735 b13d 1221 2f3d c194 b5bd
000002a0: 9b61 a93d 16b6 1bbd 58be 1b3e d368 c6bb
000002b0: 9332 793d b33d 05be b589 d9bd 058e 063c
000002c0: 5994 22bd 8a40 b53d 296d 193c bcb6 653d
000002d0: bf4b 303c 69e4 4abe cb98 663d 36c0 e43d
000002e0: 7914 2b3e 15f6 c6bc a8e6 90bd 0e4b a53d
000002f0: 933d ef3c c79c 453e c172 b0bd 9714 213c
00000300: 93c8 bbbd abcb 48be 65db a13e efd5 06bd
00000310: dd2e b53e 56f8 d33e a320 1f3e fc45 bbbd
00000320: aacb a93d ec40 d9bc c36d e2bc 2537 d43c
00000330: a03a 533e 3ced 0dbd 28d9 4dbd b826 8a3d
00000340: 5dcc 083e 21ab f23b f8e3 0ebd 70e4 a8bc
00000350: fd55 cebd f5ba 0c3c 1c53 78bd bed6 ff3c
00000360: 03f8 ff3d 6e18 05be d456 4abe b996 cebd
00000370: 7ab4 d9bd 2a3c 9fbe 3c20 eb3d 359a 123e
00000380: 9dbd 1abd c355 70bd d252 343d 1e7c f1bd
00000390: a9bd 9c3d 8131 93bd a8cb ac3d cab7 6bbd
000003a0: b3ce ac3d 5d52 603e 483d ae3d 29b1 f03d
000003b0: c624 95bd 7429 e3bc 39fb 503d 2b58 d0bd
000003c0: 3dac 463e 1d16 5c3c 4126 b2bd f2b0 863d
000003d0: 44a7 edbd 8b08 943c 9ed8 3ebd 06bd 263c
000003e0: f757 6ebc 9ff7 0c3e 4f81 173e 53d7 693d
000003f0: 99bc 703d d58c ed3d d494 c6bd 2769 19be
0.03048473 -0.09100717 0.07303801 0.20050219 0.039263286 -0.120703995 0.021579744 0.017213576
0.08088166 -0.12368237 0.013830116 -0.046611935 -0.02688228 0.051426798 -0.014974728 0.2126148
-0.12122019 -0.1256142 -0.00048630754 0.11382757 0.04913857 -0.086339906 0.044303965 -0.06930051
0.035582256 -0.025111133 -0.074257284 0.003674038 0.038560357 -0.07541745 0.02266313 0.09284737
-0.099267416 0.13580303 -0.05118644 -0.04050352 -0.057328366 0.12093625 -0.082506 -0.011079477
0.0104311295 -0.035721377 0.013176045 0.21239994 -0.12617587 0.0973586 -0.10937453 -0.062004842
-0.10023125 -0.06883093 -0.02288274 0.01639199 -0.09895365 -0.042378988 -0.076256946 -0.12919554
-0.023611167 -0.039048374 -0.018443713 0.092305884 -0.018817369 -0.04264192 -0.027406067 -0.09546428
0.08764102 -0.030770617 0.07056486 0.09084195 0.034539163 -0.014153336 0.062621795 0.044129636
0.012601118 -0.058510326 0.0049125096 -0.03446967 0.054576892 -0.16415697 0.11097648 0.035584077
0.0075750574 -0.050591886 0.053283475 0.06977422 -0.057293847 -0.028842453 -0.03800109 -0.04074806
-0.035116006 -0.14164254 -0.058603942 -0.10018764 0.02122231 -0.07806523 -0.07633106 0.17179637
0.02438034 0.036687233 0.04471291 -0.0849827 0.07717363 0.048926476 -0.06675249 0.056670185
-0.0631292 0.049407747 0.026804037 -0.022386096 -0.0889151 -0.09411836 0.011308927 0.021984478
0.07823373 -0.06768219 -0.007895441 0.046776954 -0.06620967 -0.13067432 0.12584144 0.0126742255
-0.10612151 -0.11807145 0.0024217481 -0.068893515 -0.02174455 -0.077101424 -0.23456322 0.016060404
-0.09788598 -0.07168521 -0.28254637 0.097444996 -0.13442954 -0.039901312 0.1449509 -0.0071957204
0.15447089 -0.22360732 0.11738165 0.08407307 0.048235666 -0.034602877 0.046674974 0.14908266
-0.11463467 -0.021290721 0.25560305 0.038738474 -0.04066475 -0.09428462 0.03316212 -0.037050895
0.102527425 -0.14387064 0.06797921 0.0055248546 -0.26164356 -0.051517703 -0.16914642 -0.042588107
-0.17574653 -0.1967449 -0.315134 -0.013590028 -0.035224754 0.08652835 0.042756148 -0.08866263
0.0827057 -0.038015448 0.15209329 -0.0060549765 0.060839247 -0.13011818 -0.10621969 0.008212571
-0.039692257 0.088502005 0.009364405 0.056082472 0.010760247 -0.19813694 0.05629806 0.11169474
0.16707028 -0.024287263 -0.07075244 0.08070956 0.029204166 0.19298087 -0.086156376 0.009831569
-0.09169116 -0.19608943 0.31612697 -0.032918867 0.35387316 0.41400403 0.15539794 -0.09144208
0.08290799 -0.026520215 -0.02764023 0.025905201 0.20627832 -0.034650072 -0.050255924 0.06745666
0.13359208 0.007405654 -0.034885377 -0.02061674 -0.10074995 0.008589496 -0.060626134 0.031230327
0.12498476 -0.129976 -0.19759685 -0.10087342 -0.10630126 -0.3110059 0.114807576 0.14316638
-0.037778486 -0.05867554 0.044024296 -0.117912516 0.07653362 -0.071871765 0.08437282 -0.05754832
0.08437862 0.21906419 0.08507782 0.117525406 -0.072824046 -0.027729727 0.051020835 -0.10173067
0.19401641 0.013433007 -0.086987026 0.065767184 -0.11604169 0.01807048 -0.0465933 0.010176903
-0.01454734 0.13766335 0.14795421 0.057090115 0.05877361 0.11599127 -0.096963555 -0.14981519

classifier.2.bias f4 [84]
00000000: d829 c1bd b163 21bd b1c9 0b3d c465 77b9
00000010: 8fe6 fb38 b556 5d3c ba2a 063d 648d 903d
00000020: 85c0 fe3c 4cc9 39bd e691 6abd 70c4 e2bc
00000030: 4fd3 bc3d bd17 6cbd 43af 903d 73a1 cb3c
00000040: 42ea 1a3e def1 823d 7c39 673d 0f56 ad3c
00000050: b982 eb3d c9f8 4abd a346 4b3e cb74 733c
00000060: 00df e73d 0700 5b3e 16fe fdbd 8c82 50be
00000070: 856d 1bbe ceb6 e6bd 38a1 68bd c814 1ebc
00000080: 2144 993d 9aeb a2bc 1ccb a93d 9603 1f3c
00000090: 9e2c b83b 7a33 f0bd 1333 dc3c ebc4 0fbc
000000a0: 05b0 8b3c 76ea bf3d 7ded 2fbe 2a92 d2bd
000000b0: d3af 4ebd 4c9c b7bd 9534 f7bb 427c c83d
000000c0: b02c aabd 4e0a a43d 6e9d 98bd 7294 34be
000000d0: 6a37 1a3d 20be d83d fd8f 14bd e98c 75bd
000000e0: df98 983a 563c acbc c518 713c b553 6f3d
000000f0: eeb7 43bc 8b6a 3c3d a06f 0d3d 80fd 863d
00000100: 324c 463d 50f1 813c fa7e 48bd 4545 133d
00000110: 5918 2c3d 98fa d8bd cbba 6dbd e921 a1bc
00000120: 3a61 d93c 5f87 0d3d 7328 25bd 17fe 393e
00000130: 5a55 903b 53bd 8fbd 42a5 8b3c a9dd b2bc
00000140: 6924 34be 828f 193a 16ff 073d 445a e5bd
-0.09431809 -0.039401714 0.034127895 -0.00023593666 0.000120115576 0.013509442 0.03275559 0.07058218
0.03109766 -0.045357987 -0.057268046 -0.02768156 0.092199914 -0.057639826 0.070646785 0.024857258
0.15128425 0.06393789 0.056451306 0.0211592 0.11499543 -0.049553666 0.19851165 0.014859389
0.11321831 0.21386729 -0.12401979 -0.203623 -0.15178497 -0.11265336 -0.056794375 -0.009648509
0.07483698 -0.019887734 0.08290693 0.009705445 0.005620553 -0.117285684 0.026879823 -0.008774976
0.017051706 0.09370892 -0.17180438 -0.10281785 -0.050460648 -0.08965358 -0.00754411 0.09789325
-0.08309305 0.08009778 -0.07451902 -0.17634752 0.037650503 0.105831385 -0.03627013 -0.059948836
0.0011642239 -0.021024864 0.014715378 0.05842944 -0.011945708 0.046000045 0.034530282 0.0659132
0.04841251 0.015862137 -0.04894922 0.035954732 0.042015407 -0.10594672 -0.058039468 -0.01966949
0.026535619 0.034552928 -0.04032178 0.18163334 0.004404706 -0.070185326 0.017046575 -0.021834211
-0.17592014 0.0005857871 0.033202253 -0.111988574

fc.weight f4 [10, 84]
00000000: df8f b2bc 7999 e83e 71ee 39be 5b0c cabd
00000010: 48cf 193d 6b33 61be 7d4f 703e 1b2c 82be
00000020: ff38 823d 0f86 8abd eab0 9fbd 7401 093d
00000030: 180b 96be 7cd8 b4bd f4c2 3bbe 8392 d3bd
00000040: 40dd 9e3e bd7c d03d 4e77 00bd 7467 49bd
00000050: a34b 6bbe 4bdc 99be 5653 cd3e 862e 9bbe
00000060: 6d4f fd3c 4e48 8d3d ac6d b2bd f850 d43e
00000070: 278e 84bd 73c6 60be efca 85bd 6d10 b83d
00000080: d74f 753e 9293 c8bd 84f4 05be 214a 163e
00000090: 571c 8a3e 845a 6c3d e45e a33d 8285 c03d
000000a0: 5cc5 8dbe 7709 673e c1fc 02be a231 473e
000000b0: 98be 1bbe 7604 1f3e 7b00 7f3e df8d cdbe
000000c0: 737d c23e 55f7 58be 6ee2 29bd 41f3 3dbe
000000d0: 0c63 6c3d 66cd 403e ce68 1f3d dcd2 823e
000000e0: 1a1e c3be 9859 9e3e 6638 a8be f1d8 243e
000000f0: 5202 003e 02a9 01be 8efb 8f3d 5edf 873e
00000100: f469 e03e c834 6d3c 2527 03bd 63c3 873e
00000110: 2a20 c9be 3d76 59be 7f8b 8fbe 56f3 a93e
00000120: 4756 ca3d 22ea 5bbd 4430 44be 960e 88be
00000130: cbff 6abd 3c11 febd 8438 c1bc 4750 44be
00000140: d358 98be f202 f33c ccd1 08bf 9b5c 51be
00000150: d101 303c 2fd8 96be e3af b43e 223c d23d
00000160: ac00 9f3e c0ad 923d 4607 b7bd c36d 4b3e
00000170: d34f c5be a88e 7cbe 0fc3 c43d 7d2f 933e
00000180: 41c0 863e 84b0 9c3e 6499 41be 639d 9fbd
00000190: e7ef a53e cf2a 9d3c 556a 5d3e e985 503d
000001a0: 8556 7b3e ca9c cebd 58d7 47be aa47 50be
000001b0: 3dfb 173e cb68 01be e292 44be 0fc3 2d3e
000001c0: a562 e53e 6748 7d3e c573 8fbe 0271 0cbe
000001d0: 8fe7 60bc 4250 4a3e 12b0 8fbd cfd3 cdbe
000001e0: 801d b0be 1734 77bd ebaf fabd de4f 37bd
000001f0: 7ea6 bf3d 7953 c73e 4f1f a6be 3b5f ce3e
00000200: c203 703e 690e 38be 46a8 f6bc 8199 a33c
00000210: 1d43 883e 1b8d d33e 7876 c0bd f82a 05be
00000220: c500 863e 62fc 26be 98e0 c93c d46f 9ebd
00000230: f2bb c73d 800a 8ebc cf2c 6abe 6f18 243d
00000240: 2b73 9fbe 1e6a c23e bcc0 423d 3469 9abe
00000250: 2036 1cbe 0d91 82be 9736 4dbe 4984 dfbe
00000260: fd3c 59bd bed2 a3bd ff29 9ebe ad37 0abd
00000270: 1bd4 833e b7e4 6b3c b620 3a3d fe00 953d
00000280: 3f45 903e b40a d7ba 9154 bb3e 660a 953e
00000290: f313 44bd d623 6d3e a48b c5be 78d5 0c3e
000002a0: 088c 9abe 2af2 75be 5b0f 503e 0a10 503b
000002b0: 76f1 c93d ee8e 333e b433 963e dd4d b63e
000002c0: 11ca fe3e edc2 ae3c a1e5 c4bd 2441 54be
000002d0: e241 ecbd 1653 3b3d 481d 473d 4a95 e33b
000002e0: 9374 1abe d80d d03d 4cb9 a3be 560d 933e
000002f0: 2a53 693e 8fe5 9e3e 54be 1abe 34d3 82be
00000300: 1dfa 483e ecc4 0cbd 0f7b f13d 6c9a 2fbe
00000310: 5815 a73d 452b 07be 449b 28bd afa2 63be
00000320: 52c9 fc3d 87e2 14bd 71fd 063f 3a87 a23d
00000330: 2216 863d 6695 2abd 1c0f 22be a9eb 9b3e
00000340: e6e1 2c3e 0d50 1d3b d364 3d3d e5c2 d6bd
00000350: 2933 1a39 f0fc 09be 4664 02be a974 6dbe
00000360: 10ef 80be 39d4 a4bd 2b51 d43e 3fee 98bd
00000370: 7daf 3d3e 88f3 ccbe df76 873e f487 d63d
00000380: 45cf 7fbe 43a5 a2be 5896 383e 705e 813e
00000390: 2711 3a3d b61c cc3d 94ac efbd 93a3 39be
000003a0: 5946 e3bc 628c 0e3f 5eb1 653e 3b52 48bd
000003b0: ded9 793d 3eb8 9f3e ed09 e4bd d3d3 1b3e
000003c0: 45df c0be 02bb 663e 8c22 fa3d b507 ea3d
000003d0: e329 61bd 8846 36be c1ff 59bd 3c42 cbbe
000003e0: 2f51 41be 85af 47be a066 7d3e 48b8 7e3d
000003f0: 6073 5e3e 5868 04bd 7542 b3bd db6d 8a3e
-0.021797119 0.4542959 -0.18157364 -0.09865638 0.037551194 -0.2199227 0.23467822 -0.25424275
0.063585274 -0.06763851 -0.077974156 0.03344865 -0.2930534 -0.088303536 -0.18336087 -0.10330679
0.31028175 0.10180042 -0.031363778 -0.049170926 -0.22978072 -0.30050883 0.40102643 -0.30308932
0.030921662 0.06898557 -0.087123245 0.41468024 -0.06472426 -0.21950702 -0.06532847 0.08987508
0.23956238 -0.09793772 -0.13081557 0.14676715 0.26974747 0.05770351 0.07977083 0.094004646
-0.27689636 0.22562204 -0.1279173 0.19452527 -0.15209424 0.15529045 0.24902527 -0.40147302
0.37986335 -0.211881 -0.041475706 -0.18549825 0.057711646 0.18828353 0.03891831 0.25551498
-0.38108903 0.3092773 -0.3285553 0.16098382 0.12500885 -0.12662128 0.07030402 0.26537603
0.43830836 0.014477916 -0.032019753 0.26516256 -0.39282352 -0.2123651 -0.28036115 0.33193463
0.09879737 -0.053690083 -0.19159037 -0.26573628 -0.05737285 -0.12405631 -0.023586519 -0.19171248
-0.29755268 0.02966449 -0.53445125 -0.20445482 0.010742621 -0.2946181 0.3529044 0.10265376
0.310552 0.071620464 -0.08936934 0.1986609 -0.38537464 -0.24663794 0.09607517 0.28747168
0.26318553 0.3060342 -0.1890617 -0.07793691 0.32409593 0.019185452 0.21622594 0.050908957
0.24544723 -0.10088499 -0.19515741 -0.20339838 0.14841934 -0.12637632 -0.19196656 0.1696894
0.44801822 0.2473465 -0.28018013 -0.13714984 -0.013727083 0.19757178 -0.070160046 -0.4020066
-0.34397507 -0.06035241 -0.12240585 -0.0447539 0.09357928 0.38930872 -0.32445762 0.4030703
0.23438933 -0.17974247 -0.030109536 0.019970657 0.26613703 0.41318592 -0.09397596 -0.13004673
0.26172462 -0.16307214 0.024643227 -0.07736173 0.097526446 -0.017338991 -0.22868656 0.040062364
-0.31142554 0.37971586 0.047547087 -0.3015839 -0.15255022 -0.2550129 -0.20040356 -0.43655613
-0.05303668 -0.0799918 -0.30891415 -0.033744503 0.2574776 0.014397792 0.04544135 0.0727558
0.2817783 -0.0016406388 0.36587957 0.29109496 -0.047870588 0.23158202 -0.385831 0.13753307
-0.3018496 -0.2401816 0.20318358 0.0031747841 0.09860508 0.17534992 0.2933632 0.3560628
0.4976354 0.021333182 -0.09614111 -0.20727974 -0.11536004 0.045733534 0.04861191 0.006945287
-0.15083532 0.101588905 -0.31977308 0.28721112 0.22785631 0.31034514 -0.15111667 -0.2555176
0.1962666 -0.034367487 0.1179105 -0.17148751 0.08158368 -0.132001 -0.041163698 -0.22230028
0.12343086 -0.036348846 0.5273047 0.07935949 0.0654719 -0.041646384 -0.15826076 0.30453232
0.16883048 0.0024004013 0.04623873 -0.10486392 0.00014705643 -0.13475394 -0.12733564 -0.23189034
-0.2518239 -0.08048291 0.41468176 -0.07467317 0.18523975 -0.4002955 0.2645788 0.1047515
-0.24981411 -0.3176671 0.18026102 0.25267363 0.045426514 0.09966414 -0.117028385 -0.18128805
-0.027743505 0.5568296 0.22430941 -0.048906546 0.06099879 0.31195253 -0.11134706 0.15217523
-0.3767034 0.22532275 0.122136205 0.11427251 -0.054971587 -0.17800343 -0.05322242 -0.3969897
-0.18878625 -0.19500549 0.2474618 0.062187463 0.217237 -0.032326072 -0.0875291 0.27036938

fc.bias f4 [10]
00000000: d1da 143e bcdd 02bd 23ff 46bd 89ad 02be
00000010: e328 f8bd 00c1 debe d56b 5ebb ea7b 1e3e
00000020: 6584 c83d dbce a23e
0.14536597 -0.031949744 -0.04858316 -0.12761511 -0.121171735 -0.43506622 -0.0033938785 0.15476957
0.09790877 0.31798443
