models/FashionMNIST_LeNet5.pth (torch, 254661 bytes, 10 tensors)

weight f4 [6, 1, 5, 5]
0	0xbe4b5d42	-0.19859794
1	0xbc998a64	-0.018742748
2	0x3db5c97b	0.0887632
3	0xbdc4045e	-0.095711455
4	0xbd938a59	-0.07204122
5	0xbe2ec05b	-0.17065565
6	0x3ee7320c	0.4515537
7	0x3f3a431a	0.7275864
8	0x3f2a50be	0.6652945
9	0x3e797e62	0.24364617
10	0x3e856baf	0.2605872
11	0x3f70b4a3	0.9402563
12	0x3f8fd810	1.1237812
13	0x3f0cb682	0.54965985
14	0x3df27d51	0.118403085
15	0x3e6e8987	0.2329465
16	0x3f4419e8	0.7660203
17	0x3e58ac5a	0.21159497
18	0xbf1d0e21	-0.61349684
19	0xbec09ef3	-0.3762127
20	0xbdbf7a31	-0.09349478
21	0xbe72fae9	-0.23728527
22	0xbf5fdc20	-0.8744526
23	0xbf3a3310	-0.72734165
24	0xbe2b3418	-0.16719091
25	0x3db3e08a	0.08783062
26	0x3dc68171	0.09692658
27	0xbe8b2822	-0.27179056
28	0xbf318a44	-0.693516
29	0xbf24c0e1	-0.6435681
30	0x3ed72286	0.42018527
31	0x3f0e21db	0.5552041
32	0x3e2bddb6	0.16783795
33	0xbf103325	-0.5632804
34	0xbf7335f6	-0.9500421
35	0x3ef0b379	0.47011927
36	0x3f2ba3d7	0.67046875
37	0x3f33a885	0.70179015
38	0x3ef4031b	0.4765862
39	0xbe84bc84	-0.25925076
40	0x3e554a5e	0.2082915
41	0x3f0ea872	0.5572578
42	0x3f097d2f	0.5370664
43	0x3ed875c0	0.42277336
44	0xbd3db812	-0.04631812
45	0xbea3a642	-0.31962782
46	0xbd9350b3	-0.071931265
47	0x3e0744fa	0.13209906
48	0x3e302617	0.1720203
49	0xbe0b7648	-0.1361934
50	0xbde496e8	-0.111615956
51	0xbdf425d9	-0.11921281
52	0x3d0c0f1f	0.034194108
53	0x3ed2544d	0.4107994
54	0xbe1f9e90	-0.1558783
55	0xbdc125c2	-0.0943103
56	0xbe9ab147	-0.30213377
57	0x3ea247d1	0.31695417
58	0x3f170185	0.58986694
59	0xbf013539	-0.50471836
60	0xbe85d232	-0.2613693
61	0xbe1b19d8	-0.15146577
62	0x3f38a5f3	0.7212822
63	0x3f1b46bd	0.60654813
64	0xbf538e91	-0.82639414
65	0x3dbf5067	0.093415074
66	0x3ef7e282	0.48415
67	0x3f8ae6cd	1.0851685
68	0xbec0528e	-0.37562984
69	0xbfa0dd47	-1.2567528
70	0x3eb41238	0.3517015
71	0x3ef4b403	0.47793588
72	0x3eea968a	0.45817977
73	0xbf0b3a6a	-0.5438601
74	0xbf5e90b1	-0.8693953
75	0xbc0238a9	-0.007948079
76	0xbef16a55	-0.47151437
77	0x3f3de83e	0.741825
78	0xbdeb0ffb	-0.114776574
79	0xbde20601	-0.110363014
80	0xbe55b01d	-0.20867963
81	0xbf3acd13	-0.7296917
82	0x3f845eff	1.034149
83	0x3d3b7aa6	0.045771264
84	0xbe190329	-0.14942612
85	0xbed965eb	-0.4246057
86	0xbece95b0	-0.40348577
87	0x3f824a4d	1.0178925
88	0xbe3df3a1	-0.18549968
89	0xbcde57d0	-0.027141482
90	0xbe803378	-0.25039268
91	0xbe1b2760	-0.15151739
92	0x3f51d429	0.81964356
93	0xbea5c4be	-0.32376665
94	0xbdbe9449	-0.09305627
95	0xbd9e4929	-0.07728798
96	0xbd9d18ad	-0.07670722
97	0x3ee5dc73	0.44894752
98	0xbe485bd6	-0.19566283
99	0xbda852e6	-0.082189366
100	0x3dff1310	0.12454808
101	0x3e43a5ba	0.19106188
102	0x3e6d1052	0.23150757
103	0xbe4cd956	-0.20004782
104	0x3e8c7962	0.27436358
105	0x3cc22e51	0.023703726
106	0x3e0d8530	0.13820338
107	0xbee1078e	-0.43951076
108	0xbf84cdf5	-1.0375353
109	0xbde6c3b6	-0.11267798
110	0x3f12c0e7	0.57325596
111	0x3f362d75	0.7116311
112	0xbf084a5f	-0.5323848
113	0xbfabf219	-1.3433257
114	0xbf12dd2e	-0.57368743
115	0x3eb21be1	0.34786895
116	0x3ef6e023	0.48217878
117	0x3e3eb153	0.18622331
118	0xbf4ea18d	-0.80715257
119	0xbef336c8	-0.47502732
120	0x3e5750c4	0.21026903
121	0x3e953b0c	0.29146612
122	0x3ed44429	0.41458252
123	0xbd244140	-0.04010129
124	0x3e82e2d7	0.2556369
125	0xbd039fea	-0.032134928
126	0xbdb2e31b	-0.08734723
127	0xbe3b7c11	-0.18309046
128	0x3f0c2d38	0.547565
129	0xbe0836c7	-0.13302146
130	0x3cf49099	0.029854106
131	0xbeb3ae85	-0.35094085
132	0xbf116d3e	-0.56807315
133	0x3f8e99bc	1.1140666
134	0xbe3fee3b	-0.18743221
135	0x3cdaacec	0.026693784
136	0xbf57fd12	-0.8437053
137	0xbeb93bee	-0.36178535
138	0x3fbc0c89	1.4691325
139	0xbe9fe52b	-0.3122953
140	0xbe8b31a3	-0.27186307
141	0xbf0ffcac	-0.5624492
142	0xbd2765d5	-0.0408686
143	0x3f8992b7	1.0747899
144	0xbe771e18	-0.24132574
145	0x3dfd3af6	0.123647615
146	0xbd5b520e	-0.05354505
147	0xbdc3372f	-0.0953201
148	0x3f32061c	0.6954057
149	0xbe85270a	-0.26006347

bias f4 [6]
0	0xbc71ac7e	-0.014750598
1	0xbc8be9d2	-0.017079268
2	0x3cb14b7d	0.02164244
3	0xbbc2c8ca	-0.005944346
4	0x3f83c517	1.0294522
5	0xbd4341f2	-0.047670312

weight f4 [16, 6, 5, 5]
0	0xbe294768	-0.16531146
1	0xbd07c181	-0.033143524
2	0x3d004f00	0.03132534
3	0x3d3ca0c4	0.046051756
4	0x3bf146c5	0.0073631727
5	0xbd79a3cb	-0.06094722
6	0xbc68e219	-0.014214062
7	0x3b0608fd	0.0020452135
8	0xbdf5185d	-0.119675376
9	0xbe304f50	-0.17217755
10	0xbe1bc602	-0.15212253
11	0xbdfa654c	-0.12226352
12	0xbe047c74	-0.129381
13	0xbe7fa6d1	-0.24965979
14	0xbe60dac4	-0.21958452
15	0xbd886535	-0.06659929
16	0x3c9fdbbd	0.019513959
17	0xbde3679b	-0.111037455
18	0xbe38aa2d	-0.18033667
19	0xbe418b93	-0.189009
20	0xbdd5556a	-0.10416682
21	0xbdf0a3a3	-0.11749961
22	0xbdd22e1f	-0.10262703
23	0xbdcf3b0f	-0.101186864
24	0xbdea4853	-0.11439576
25	0xbd5aa4ea	-0.05337993
26	0xbe31efb5	-0.17376597
27	0xbd57b92a	-0.05266682
28	0xbd496a8d	-0.04917388
29	0xbda84a0c	-0.08217248
30	0xbe1f0a4f	-0.15531276
31	0xbda68df4	-0.08132544
32	0xbda0df89	-0.07855136
33	0xbe2a125b	-0.16608565
34	0xbe324f8a	-0.17413154
35	0xbe5dba69	-0.21653141
36	0xbdf7dbd2	-0.12102474
37	0xbd82aefd	-0.063810326
38	0xbe1ed3f5	-0.15510543
39	0xbe203894	-0.15646583
40	0xbe118f79	-0.14214887
41	0x3b750874	0.0037389072
42	0x3cd3f7eb	0.025875052
43	0xbd8cde35	-0.0687832
44	0xbe103df2	-0.1408613
45	0xbe311e04	-0.17296606
46	0xbda4b4c8	-0.08042294
47	0xbd6eb9c4	-0.05828263
48	0x3ad07a02	0.0015905502
49	0xbdb607e5	-0.088882245
50	0xbd7a44bb	-0.061100703
51	0xbb4e2d17	-0.003145998
52	0x3e1d0ae5	0.15336187
53	0xbd0fe75f	-0.035132762
54	0xbd96b4a7	-0.073586755
55	0xbdd5b6e1	-0.10435272
56	0xbc604f5b	-0.013690795
57	0x3d967e94	0.073483616
58	0xbd9f2916	-0.077715084
59	0xbda6a436	-0.081367895
60	0xbdb25c9d	-0.08709071
61	0x3c0f493f	0.008745491
62	0x3d687bdb	0.056758743
63	0xbd49b7b9	-0.049247477
64	0xbdb60435	-0.08887521
65	0x3c6eb7bc	0.014570173
66	0xbd891144	-0.06692746
67	0xbd492dd4	-0.04911597
68	0xbd122d01	-0.03568745
69	0xbd9f36b5	-0.077741064
70	0xbd740cd4	-0.059582546
71	0xbe210ef0	-0.15728354
72	0xbd44046e	-0.047855787
73	0xbb92a5f2	-0.0044753486
74	0xbd7895b0	-0.060689628
75	0xbb964248	-0.004585538
76	0xbd9dd605	-0.077068366
77	0xba7a3277	-0.0009544263
78	0x3bac6fe4	0.005262362
79	0xbda80b67	-0.082053
80	0xbd0433e9	-0.032276068
81	0xbd57eecd	-0.052717973
82	0xbbbcfa2d	-0.005767128
83	0xbcfba7aa	-0.030719597
84	0xbdd1f6da	-0.10252161
85	0x3d1240bb	0.035706263
86	0xbd699dbf	-0.057035204
87	0xbccb3c1e	-0.02480894
88	0xbd023f9e	-0.03179895
89	0xbdff8925	-0.1247733
90	0xba8aed20	-0.0010599233
91	0xbd6e466c	-0.05817263
92	0xbdb8cde3	-0.09023645
93	0xbd600fea	-0.054702677
94	0xbdca3c9f	-0.09874844
95	0xbcd46fd0	-0.025932223
96	0xbd09d353	-0.0336488
97	0xbdaff6b5	-0.085919775
98	0xbd290d63	-0.041272532
99	0xbd9256b1	-0.07145441
100	0x3dae18f7	0.085008554
101	0xbbb268f0	-0.0054446384
102	0x3e2b3d89	0.16722693
103	0x3e365ee4	0.17809635
104	0x3db3d892	0.08781542
105	0x3c9314c6	0.017954241
106	0x3dca46e3	0.09876802
107	0x3e80487e	0.25055307
108	0x3e5e6335	0.21717532
109	0x3e2bc96f	0.1677606
110	0x3ddc4144	0.10754636
111	0x3dfdaefc	0.12386891
112	0x3e836177	0.25660297
113	0x3e5ddc15	0.21665986
114	0x3e255d5e	0.16148898
115	0x3dff1b99	0.12456436
116	0x3def5ba9	0.11687405
117	0x3e641667	0.22274171
118	0x3e872375	0.2639424
119	0x3e60cfa4	0.21954209
120	0x3e2de229	0.16980805
121	0x3c80906d	0.015693868
122	0x3d43ecdc	0.04783331
123	0x3e5edc62	0.21763757
124	0x3e561539	0.20906533
125	0x3d0cd483	0.034382354
126	0xbd2e884d	-0.042610455
127	0xbdb76b2c	-0.08955988
128	0xbdb6de1c	-0.08929083
129	0xbc953dc0	-0.018217921
130	0x3bacb8a0	0.0052710325
131	0xbd104abf	-0.035227533
132	0xbdd3fbea	-0.10350783
133	0xbdddced7	-0.10830467
134	0xbc9a8ad7	-0.018865032
135	0x3dee27a7	0.11628657
136	0xbd7f0227	-0.062257912
137	0xbe0b13bc	-0.13581747
138	0xbdc2e9ce	-0.09517251
139	0xbca7ea1b	-0.020497372
140	0x3df43e8d	0.11925993
141	0xbe234ca0	-0.15947199
142	0xbe245307	-0.16047297
143	0xbde093be	-0.109656796
144	0xbd018b71	-0.031627122
145	0xbc8b089d	-0.01697188
146	0xbe315bde	-0.17320201
147	0xbe42685f	-0.18985127
148	0xbdfcb784	-0.1233969
149	0xbdd2d9bb	-0.10295435
150	0xbc194e20	-0.009357005
151	0xbda09ff7	-0.07843011
152	0xbd96b7f8	-0.07359308
153	0x3d374405	0.044742603
154	0x3e2007f8	0.1562804
155	0xbd38ca4b	-0.045114797
156	0xbdc22ff8	-0.094818056
157	0xbde8db50	-0.113699555
158	0x3dccd4dc	0.10001537
159	0x3e3ab873	0.18234424
160	0xbca87e98	-0.020568177
161	0xbe71b973	-0.236059
162	0x3dee8767	0.1164692
163	0x3ed84360	0.42238903
164	0x3e4b7a42	0.19870856
165	0x3e83b267	0.25722048
166	0x3deb820f	0.11499416
167	0x3e0f4d08	0.13994229
168	0xbded71d3	-0.11593976
169	0xbe2cca75	-0.16874106
170	0x3e5e33ed	0.21699496
171	0xbd6260aa	-0.055267967
172	0xbe4790b5	-0.19488795
173	0xbe8da040	-0.27661324
174	0xbe76c1f9	-0.24097432
175	0xbcd747f2	-0.026279423
176	0xbdf3ac47	-0.11898094
177	0xbddafbd3	-0.10692563
178	0x3d8312ca	0.06400068
179	0x3c42815e	0.011871664
180	0xbda19f18	-0.07891673
181	0xbe4c0dd5	-0.19927152
182	0xbe5ddc83	-0.2166615
183	0x3daf22f3	0.08551588
184	0x3e2d024d	0.16895409
185	0x3cb5ede2	0.022208158
186	0xbc9d3b5b	-0.019193342
187	0xbe8c0b3b	-0.27352318
188	0xbdad30b6	-0.084565565
189	0x3d9a7a14	0.07542816
190	0x3e2dc520	0.16969728
191	0x3e4c2b82	0.19938472
192	0x3e34edb9	0.17668809
193	0xbe191d79	-0.14952649
194	0xbe9a5d9a	-0.30149537
195	0x3cc8cd1b	0.024511864
196	0x3d8398f3	0.06425657
197	0x3e837a71	0.25679353
198	0x3e34dc72	0.17662218
199	0xbe482d56	-0.19548544
200	0xbd90f83c	-0.07078597
201	0xbda4fcac	-0.08056006
202	0xbddcfeec	-0.1079081
203	0x3d8ed0a2	0.06973387
204	0xbcb1714f	-0.021660475
205	0xbca8b2ec	-0.02059313
206	0x3d55477d	0.05207013
207	0xbe812575	-0.2522389
208	0x3d7987d3	0.060920548
209	0x3ca91d48	0.020643845
210	0x3d007b8a	0.031367816
211	0x3d6aa375	0.05728479
212	0x3e69eb0e	0.22843572
213	0xbb920042	-0.004455597
214	0xbdfd1023	-0.123565935
215	0xb807470a	-3.225267e-05
216	0x3c899837	0.016796215
217	0x3d337a9d	0.043818105
218	0xbd994942	-0.07484676
219	0xbe27b73d	-0.16378494
220	0xbdc4367c	-0.095807046
221	0xbd1400a2	-0.036133416
222	0xbe146485	-0.1449147
223	0xbe184694	-0.14870673
224	0xbe014c1c	-0.1262669
225	0x3b3f89bf	0.002922639
226	0x3cb0161f	0.021494923
227	0xbd24d84d	-0.040245343
228	0x3d9eb9d9	0.077502914
229	0xbcb2c286	-0.021821272
230	0x3d272f2c	0.04081647
231	0x3c877b68	0.016538337
232	0xbd0e91ed	-0.034807134
233	0x3d77e89c	0.060524568
234	0xbd8f5ba8	-0.06999904
235	0x3da11226	0.0786479
236	0xbd9c63a8	-0.076361954
237	0x3deead2e	0.11654125
238	0xbe0aa0f6	-0.13537964
239	0xbd811dc8	-0.063045084
240	0x3d9852ee	0.074376926
241	0xbd29a9bf	-0.041421648
242	0x3b849418	0.0040459745
243	0xbe993387	-0.29922125
244	0x3cf2d2b7	0.029641492
245	0x3c279b1d	0.010229853
246	0x3c3bb04f	0.011455609
247	0xbdd08d41	-0.10183192
248	0xbe3c3148	-0.18378174
249	0xbca18dcc	-0.019720934
250	0x3ac90b23	0.0015338402
251	0xbe384954	-0.17996722
252	0xbdc0dcf5	-0.09417144
253	0xbd8af3b0	-0.06784761
254	0x3df14849	0.117813654
255	0x3c1b4783	0.009477499

bias f4 [16]
0	0x3e2b6398	0.16737211
1	0xba88efc9	-0.0010447438
2	0x3c5b2cff	0.013377427
3	0xbd2a5149	-0.041581426
4	0xbdcbe64e	-0.099560365
5	0xbcafd664	-0.021464534
6	0xbd2797f8	-0.040916413
7	0x3b227283	0.0024787493
8	0x3c15d7d4	0.009145696
9	0x3cf44a91	0.029820712
10	0xbdb1d3ef	-0.08683001
11	0x3dd89141	0.1057458
12	0x3d3ddee2	0.046355136
13	0x3e791f67	0.24328385
14	0x3cd4a9c0	0.02595985
15	0xbe140126	-0.14453563

weight f4 [120, 400]
0	0xbc10145d	-0.0087939175
1	0xbc5f01c1	-0.013611258
2	0x3b984899	0.004647326
3	0x3db02f19	0.08602733
4	0x3b8d25a6	0.0043074666
5	0x3ca57129	0.02019556
6	0x3989136d	0.0002614515
7	0x3b97d129	0.004633088
8	0x3d67dc10	0.056606352
9	0x3d8836ae	0.06651054
10	0xbd0621ad	-0.03274696
11	0xbc0900e4	-0.008362029
12	0xbd2db128	-0.042405277
13	0x3d013359	0.03154311
14	0x3d3012ed	0.0429868
15	0xbd99c978	-0.0750913
16	0xbce880a0	-0.028381646
17	0xbc160962	-0.0091575105
18	0x3d3c9a96	0.046045862
19	0x3c9cf2e7	0.019158794
20	0xbde8cf2a	-0.113676384
21	0xbd25f347	-0.04051521
22	0xbce4df96	-0.027938645
23	0x3bc94f0f	0.0061434577
24	0x391337fd	0.0001403987
25	0xbd2a40ee	-0.041565828
26	0xbc8062b4	-0.015672065
27	0xbd12d75e	-0.03584992
28	0x3caed3ea	0.021341283
29	0xbc35531a	-0.011067176
30	0xbcb6229d	-0.022233302
31	0x3cf2bb15	0.029630223
32	0x3bfaba82	0.007651628
33	0x3bbd8af6	0.0057843877
34	0xbc335caa	-0.010947386
35	0x3cf354cc	0.02970352
36	0x3d1386da	0.036017276
37	0x3c6e51f6	0.014545908
38	0xbd2f3eb7	-0.04278442
39	0xbc6fbd2d	-0.014632505
40	0x3c7dc0c8	0.015487857
41	0xbb8811ba	-0.004152504
42	0x3d2dc8fb	0.042427998
43	0x3cbb7892	0.02288464
44	0xbc90bc36	-0.017667871
45	0xbcbb2319	-0.022843884
46	0xbd8d3753	-0.06895318
47	0x3c61c0c3	0.013778868
48	0xbd2c11b1	-0.04200906
49	0x3d697b0e	0.05700212
50	0xbd5de884	-0.054176822
51	0xbcb14303	-0.021638399
52	0xbbce8084	-0.0063019414
53	0xbd7a0b10	-0.061045706
54	0xbc87f8a2	-0.01659805
55	0x3ca88fde	0.020576414
56	0xbd267952	-0.040643044
57	0xbd5b0b0e	-0.05347734
58	0x3b907c02	0.004409314
59	0xbd5f8ec9	-0.05457953
60	0xbd26de91	-0.0407396
61	0x3c9c2ab2	0.019063327
62	0x3b5ce4b7	0.003370566
63	0xbd31ec74	-0.04343839
64	0xbda2f487	-0.07956796
65	0x3d869bfe	0.06572722
66	0x3d947394	0.07248607
67	0x3c953062	0.018211547
68	0xbd1dff33	-0.038573455
69	0x3c352d79	0.011058205
70	0x3d816a5f	0.06319117
71	0xbd80fd0d	-0.062982656
72	0xbcbab451	-0.02279106
73	0xbd3b4e29	-0.045728836
74	0x3def98e6	0.11699085
75	0x3b9704bc	0.0046087187
76	0x3df7a194	0.120913655
77	0xbd79f6e8	-0.061026484
78	0x3d578387	0.05261567
79	0xbd5e6f79	-0.054305527
80	0x3c889091	0.016670497
81	0xbc6c5de3	-0.014426681
82	0xbd09a47c	-0.03360413
83	0xbd10dd04	-0.035367027
84	0x3db7fec0	0.089841366
85	0xbce91f39	-0.028457271
86	0xbd06591a	-0.032799818
87	0xbb80e7af	-0.003933869
88	0xbcb6ea58	-0.02232854
89	0x3d743788	0.05962327
90	0x3ceb9d21	0.028761448
91	0x3c4cf028	0.01250843
92	0x3d1469ac	0.03623359
93	0xbbd33ab7	-0.0064462083
94	0xbe0166ec	-0.12636918
95	0xbd435032	-0.047683902
96	0xbdd4491c	-0.10365507
97	0x3d5b1090	0.053482592
98	0x3d6b1984	0.05739738
99	0xbe133776	-0.14376625
100	0xbcc0d9cc	-0.023541354
101	0x3cbe845c	0.023256473
102	0xbd93ba6e	-0.07213293
103	0xbc0cb607	-0.008588321
104	0xbc9fbc10	-0.019498855
105	0x3d775d5e	0.060391776
106	0x3ce15e62	0.027510826
107	0xbd544fc0	-0.051833868
108	0x3c967fc2	0.018371467
109	0x3c684f62	0.014179083
110	0x3cb4e945	0.022083888
111	0xbbb2c995	-0.0054561594
112	0xbba02889	-0.0048876447
113	0xbccb809d	-0.024841601
114	0x3b6ea6be	0.0036415304
115	0xbc82b299	-0.015954303
116	0xbd3d3c52	-0.046200104
117	0x3d053947	0.032525327
118	0x3d595369	0.05305806
119	0x3b68973e	0.0035490538
120	0x3c755c33	0.014975595
121	0xbc890cad	-0.016729677
122	0x3c926af6	0.017873269
123	0x3c98f8ec	0.018673383
124	0x3c4be4ee	0.012444718
125	0xbca767bd	-0.020435208
126	0xbd1c8930	-0.03821677
127	0xbc2fb419	-0.010724091
128	0x3c8121e3	0.015763229
129	0xbd7e329a	-0.062059976
130	0xbdb5fd45	-0.08886198
131	0xbcf83f86	-0.030303728
132	0x3c268b58	0.010165058
133	0xbda78b61	-0.08180881
134	0x3c428d50	0.011874512
135	0xbd8f2fda	-0.06991549
136	0x3ce6ecc7	0.028189076
137	0x3d35ccc9	0.04438475
138	0x3bf0cba8	0.0073484965
139	0xbb979cea	-0.00462686
140	0xbc5b171f	-0.013372212
141	0xbd105401	-0.035236362
142	0xbc86b2a8	-0.016442612
143	0x3b88bf57	0.0041732
144	0xbd1c95c7	-0.038228776
145	0xbcce3755	-0.025172869
146	0x3dafa358	0.08576077
147	0xbcdfead8	-0.027333662
148	0x3d216121	0.03939927
149	0x3d860755	0.06544367
150	0x3c9b9e8c	0.0189965
151	0xbda1f9f2	-0.079090014
152	0x3d3015c9	0.042989526
153	0x3d67da9e	0.056604974
154	0x3d06c40f	0.03290182
155	0xbd5a8a6d	-0.05335467
156	0x3c2ddbf8	0.010611527
157	0x3c25e0e6	0.010124421
158	0xbc612ebd	-0.013744053
159	0x3ba29d5c	0.0049626064
160	0xbc4d84c1	-0.012543858
161	0x3c98e33a	0.018663038
162	0x3d63a7da	0.055579998
163	0xbe159339	-0.14606942
164	0xbc81f354	-0.015863098
165	0x3dcb25a8	0.09919292
166	0x3c060d49	0.008181878
167	0x3b25c320	0.0025293306
168	0x3dcf4006	0.101196334
169	0x3c8ce631	0.017199608
170	0x3d12adb7	0.0358102
171	0xbdd81d00	-0.10552406
172	0xbcdeb3eb	-0.027185401
173	0x3d184253	0.037172627
174	0x3c10d571	0.008839951
175	0x3c04eb63	0.008112761
176	0x3d245641	0.04012132
177	0x3e0bdb20	0.13657808
178	0x3de3886f	0.11110007
179	0xbbb55bf1	-0.005534642
180	0xbcee6956	-0.029102962
181	0xbde8df90	-0.11370766
182	0xbd11cd68	-0.03559628
183	0x3e0254ef	0.12727712
184	0xbd3f323c	-0.046678767
185	0x3c9c94aa	0.019113857
186	0x3d218678	0.03943488
187	0x3c841057	0.016121073
188	0x3d317a0c	0.043329284
189	0xbda9de33	-0.08294334
190	0xbbe8ae63	-0.0071008666
191	0xbd2a574f	-0.04158717
192	0x3d235719	0.039877985
193	0xbc0862ff	-0.008324384
194	0xbd206e73	-0.039167833
195	0xbca12a97	-0.019673629
196	0xbcbd22dc	-0.023087911
197	0xbd93705a	-0.07199164
198	0x3ca5ad91	0.020224364
199	0xbdd014d5	-0.101602234
200	0xbc9aeaa6	-0.018910717
201	0x3d92b55b	0.07163497
202	0xbd0f1b3c	-0.034938082
203	0x3cb9dd9e	0.022688683
204	0xbe17c805	-0.14822395
205	0xbd0b5c38	-0.034023494
206	0xbd8e2e89	-0.069424696
207	0xbd8bc972	-0.06825532
208	0xbc50b40c	-0.012738239
209	0xbd2c436a	-0.04205648
210	0x3c2144c4	0.009843055
211	0xbda8ee51	-0.0824858
212	0xbb107127	-0.00220401
213	0x3bb3301d	0.005468382
214	0x3c4d4fc9	0.012531229
215	0xbd435947	-0.047692563
216	0xbca5a551	-0.02022043
217	0x3d19ac69	0.03751794
218	0xbce32e7e	-0.02773213
219	0x3d7f6116	0.062348448
220	0x3d72ceac	0.05927913
221	0xbb2f3d8c	-0.0026739566
222	0x3d45eb7c	0.04832028
223	0x3e0ebca8	0.13939154
224	0x3d8c3026	0.06845121
225	0x3d5b7ecb	0.053587716
226	0xbcd872f1	-0.026421996
227	0xbc82053d	-0.015871638
228	0x3dcec70d	0.1009656
229	0x3d64eefc	0.055891976
230	0xbd324e92	-0.04353196
231	0x3d5747c7	0.052558687
232	0x3d554350	0.052066147
233	0x3d218131	0.039429847
234	0xbe370e33	-0.1787651
235	0xbbc39f65	-0.005969929
236	0x3da6777c	0.081282586
237	0x3dceedd9	0.101039596
238	0x3b9ef6a6	0.00485118
239	0xbd4fcfb3	-0.050735187
240	0x3d5cba1e	0.053888433
241	0xbc8f7eeb	-0.017516574
242	0xbc0b195b	-0.008489932
243	0xbd674eea	-0.056471743
244	0xbca3e17d	-0.020004982
245	0x3d3f9e00	0.04678154
246	0xbd72b6bd	-0.059256304
247	0xbdabe92c	-0.083940834
248	0xbe10c392	-0.14137104
249	0xbd32fab4	-0.04369612
250	0xbd052fdf	-0.032516357
251	0xbc020a68	-0.007937051
252	0xbd9788c3	-0.07399132
253	0x3e0b28ba	0.13589755
254	0x3b9db4da	0.004812819
255	0xbd0889ac	-0.03333442

bias f4 [120]
0	0xbcb23477	-0.021753533
1	0x3c833990	0.016018659
2	0xbcdf80a6	-0.027283024
3	0xbad4ff5b	-0.0016250418
4	0x3c2778be	0.010221658
5	0x3c70ffb1	0.014709399
6	0x3d8148cc	0.06312713
7	0xbd13b970	-0.03606552
8	0xbc55f94b	-0.013059924
9	0x3cb8eb9b	0.022573283
10	0xbb2addf2	-0.002607223
11	0xbc85a861	-0.01631564
12	0x3c8774ef	0.01653525
13	0xbd0a8f6d	-0.033828188
14	0x3c763786	0.015027886
15	0xbac22e04	-0.0014814739
16	0x3c182b9e	0.009287743
17	0x3d1ec02f	0.0387575
18	0x3c7b50e1	0.015339107
19	0xbcd1b83d	-0.025600547
20	0x3c6e93e4	0.014561627
21	0xbb58caac	-0.0033079786
22	0xbc952d4d	-0.018210078
23	0x3cc44cd5	0.023962418
24	0x3c06bc3e	0.008223591
25	0x3d4b6fe0	0.04966724
26	0x3d296f72	0.04136605
27	0xbb80df25	-0.003932851
28	0x3d39c8c7	0.04535749
29	0x3d225836	0.039634906
30	0x3ca3ab22	0.019979063
31	0xbc380bbb	-0.0112332655
32	0x3b76366a	0.0037569054
33	0xbbf2ed44	-0.007413538
34	0x3b439227	0.0029841752
35	0x3c716d5d	0.014735547
36	0xbc76003b	-0.015014703
37	0x3c975c1c	0.018476538
38	0x3c8ed416	0.017435115
39	0xbca6b949	-0.020352023
40	0x390c9bd1	0.00013409487
41	0x3ba36491	0.0049863537
42	0xbd39a9f0	-0.04532808
43	0x3c17a14c	0.009254765
44	0x3cab27d6	0.020893019
45	0x3d89df44	0.06732038
46	0xbc14d329	-0.009083548
47	0x3d05581a	0.032554723
48	0xbcf4250b	-0.02980282
49	0xbce939f3	-0.028470015
50	0x3c485c07	0.012228972
51	0x3d2a31a6	0.041551255
52	0xbd6ef2fb	-0.058337193
53	0xbcc3583a	-0.02384578
54	0x3cc8aa28	0.0244952
55	0xbd1a9406	-0.037738822
56	0x3c4f69f2	0.012659537
57	0x3d58fff0	0.052978456
58	0x3a94eb1b	0.0011361571
59	0x3d21625f	0.039400455
60	0x3d26a2d4	0.04068263
61	0x3d236420	0.03989041
62	0x3ccb62b6	0.024827342
63	0x3c1d8635	0.009614517
64	0x3c4f6d6d	0.0126603665
65	0x3a0ccc0e	0.00053709827
66	0x3d4cf7b3	0.050040912
67	0xbb876f1b	-0.004133118
68	0x3b19a5f0	0.0023444854
69	0xbd3a1fcf	-0.04544049
70	0x3d7476f2	0.059683748
71	0xbb86b857	-0.0041113305
72	0xbcbf8224	-0.023377486
73	0x3d1878e3	0.03722466
74	0xbc8acb2e	-0.016942587
75	0xbc79f52e	-0.015256209
76	0xbc508c9a	-0.0127288345
77	0x3d4c6475	0.04990049
78	0x3d08242e	0.03323763
79	0xbb57ed4b	-0.0032947834
80	0x3d6cb966	0.057793997
81	0xbb8cb603	-0.0042941584
82	0xbb925acc	-0.0044663902
83	0x3cd9d3ab	0.026590189
84	0x3c872e20	0.016501486
85	0xbc029430	-0.007969901
86	0xb91323d5	-0.00014032361
87	0x3d33b5e8	0.04387465
88	0xbd10c2cd	-0.035342027
89	0x3c8fa2a3	0.017533606
90	0xbbfc7564	-0.0077044237
91	0x3cd2ac5a	0.02571695
92	0x3ba2ff1a	0.004974258
93	0xbc46ffb8	-0.012145929
94	0x3ca15671	0.019694539
95	0x3d072287	0.032991912
96	0x3cc0545a	0.023477722
97	0x3c6754a0	0.014119297
98	0xbc7a99bd	-0.015295443
99	0x3d23338e	0.03984409
100	0x3ca37b0a	0.01995613
101	0xbac391ca	-0.0014920768
102	0xbb5d8b8a	-0.0033805096
103	0x3af7c156	0.0018902223
104	0xbc66303e	-0.014049588
105	0x3c71b1c9	0.01475186
106	0x3c1c53d5	0.0095414715
107	0xbbfd47b2	-0.007729494
108	0xbd0f6799	-0.035010908
109	0xbc7e5f69	-0.015525677
110	0x3d0532eb	0.032519262
111	0x3c4d7f32	0.012542533
112	0xbce682ec	-0.0281386
113	0xbc5840a8	-0.013199009
114	0x3cab8f6d	0.020942414
115	0x3d1d4a34	0.038400844
116	0x3cca01da	0.024659086
117	0x3d661642	0.05617357
118	0xb9999199	-0.00029290913
119	0x3c78c5f8	0.015183918

weight f4 [84, 120]
0	0xbc1f39a8	-0.009718336
1	0x3c759f4f	0.014991595
2	0xbbc7d516	-0.0060984
3	0x3b496c82	0.0030734842
4	0x3bd9b9fe	0.0066444864
5	0x3b73e4c7	0.003721522
6	0x3bfee371	0.007778578
7	0xbabadcbf	-0.0014256461
8	0xb877cb58	-5.9078768e-05
9	0x3b84dc67	0.0040545943
10	0xbb93aef9	-0.0045069424
11	0x3be46d34	0.006971026
12	0x3b84bdf7	0.004050966
13	0xbbb0b426	-0.005392569
14	0xbc44b828	-0.012006797
15	0xbb4a83ad	-0.0030901239
16	0x3b80d4a7	0.0039316
17	0x3c10540b	0.0088091
18	0xbbbce702	-0.005764843
19	0xbb2730fe	-0.002551138
20	0x3bb25199	0.005441856
21	0xbbb25e8e	-0.0054434007
22	0x3bb98876	0.0056620194
23	0xbbe5c67f	-0.007012188
24	0xba9f5ff6	-0.0012159336
25	0xbb214169	-0.0024605638
26	0x3b2c4011	0.0026283304
27	0x3c27cf56	0.010242304
28	0x3afb9a79	0.0019195817
29	0xbb3b9d73	-0.0028627783
30	0xb987f2c1	-0.00025930072
31	0x39bede1f	0.00036405117
32	0xbb7eaeb1	-0.0038861448
33	0x3b0d3d2d	0.0021551356
34	0xbc20938a	-0.009800801
35	0x3af7c7a5	0.0018904103
36	0x3b473537	0.0030396709
37	0xbb9a34fe	-0.004706024
38	0x39dfc5a3	0.00042681125
39	0x39b7173e	0.00034921797
40	0xbbda18f0	-0.006655805
41	0xbba0bfb4	-0.0049056653
42	0xbbb76ff5	-0.005598063
43	0x3bd43aeb	0.00647675
44	0xbb01cd23	-0.001980611
45	0xb962c01a	-0.00021624603
46	0xbc6384d9	-0.013886654
47	0x3a01a537	0.00049455784
48	0xba902b05	-0.0010999149
49	0x3a73e3a4	0.00093036355
50	0x3be50237	0.0069887894
51	0x3af81767	0.0018927873
52	0xbbe54410	-0.006996639
53	0x3b6d94f3	0.003625211
54	0x3af8436a	0.0018940989
55	0x3afa6954	0.0019104877
56	0xbc173d0b	-0.009230862
57	0x3b6846e1	0.0035442638
58	0xbbb3297f	-0.005467593
59	0x3b43b3a0	0.0029861704
60	0x3b9b2009	0.0047340435
61	0x3ba69852	0.005084076
62	0x3c14b9ba	0.009077484
63	0xbc0430c9	-0.008068272
64	0x3b8a3711	0.00421799
65	0x39f25251	0.00046219167
66	0x3a1ac281	0.0005903617
67	0x3c060401	0.008179666
68	0xbbade31d	-0.005306615
69	0x39d28507	0.00040153434
70	0x3b229e18	0.002481347
71	0x3bb3e26b	0.0054896376
72	0xba776b7f	-0.00094383204
73	0x3c103849	0.008802482
74	0xbbad7e82	-0.005294622
75	0xbb120ffa	-0.0022287355
76	0xb9fd98dd	-0.00048369812
77	0x3b5b3c5c	0.0033452725
78	0x3bdb9f8b	0.0067023686
79	0xbc19087b	-0.009340401
80	0x3bd4cc7a	0.006494102
81	0xb9b9d041	-0.0003544111
82	0xbacca271	-0.0015612376
83	0x3b91f4d4	0.0044542346
84	0x3baba3a3	0.005238013
85	0xbb7fc964	-0.003902995
86	0xba164813	-0.0005732786
87	0x3c13ef04	0.009029154
88	0xbbf110d5	-0.007356743
89	0x3a943202	0.0011306407
90	0xbb524b09	-0.0032088181
91	0x3c30c951	0.010790185
92	0xbafdded7	-0.001936878
93	0xbb38a7b0	-0.0028176121
94	0x3b01ba95	0.001979505
95	0x3bf7e197	0.007564734
96	0x39428a20	0.00018552737
97	0xbbd9897d	-0.0066387043
98	0x3c2cf051	0.010555343
99	0x3b33544b	0.0027363475
100	0xba87f36b	-0.0010372227
101	0xbb79195d	-0.0038009502
102	0xbc193cba	-0.009352857
103	0x3b9ae1d8	0.0047266297
104	0xbbf86405	-0.0075802826
105	0xbba98d0d	-0.0051742853
106	0x3bdb7661	0.0066974615
107	0xba0cf4a7	-0.0005377032
108	0xbb4a98fc	-0.003091394
109	0xbbfb8be0	-0.0076765865
110	0xb9d6d4c3	-0.0004097578
111	0x3c3af081	0.01140988
112	0x3b9e74f6	0.00483572
113	0x3ba4c504	0.005028369
114	0x3b1a63c9	0.0023558012
115	0xbbe587a3	-0.0070046945
116	0xbb212655	-0.0024589498
117	0x3c151a0a	0.0091004465
118	0x3a630b41	0.000866104
119	0x3bd96a22	0.0066349665
120	0x3c930e95	0.01795129
121	0xbb1994ee	-0.0023434716
122	0x3d234a5a	0.03986583
123	0x3cc16495	0.023607532
124	0xbe31e7fe	-0.17373654
125	0xbd470c0e	-0.04859548
126	0xbd204b69	-0.039134417
127	0x3c8465eb	0.01616188
128	0x3cd208e2	0.025639001
129	0xbe017023	-0.12640433
130	0xbe54915d	-0.20758577
131	0xbc78056d	-0.015138012
132	0xbe188421	-0.14894153
133	0xbd8ff8e8	-0.07029897
134	0x3de12f32	0.1099533
135	0x3e1f0587	0.15529452
136	0xbca2c4e8	-0.019869283
137	0xbc9a70c3	-0.018852597
138	0x3df620ea	0.120179966
139	0x3d64b33f	0.055835005
140	0xbdf4370f	-0.11924564
141	0x3df9ff0e	0.12206851
142	0xbc52a659	-0.012857043
143	0x3d5ca955	0.053872425
144	0x3d96e01f	0.073669665
145	0x3dc40cfe	0.095727906
146	0x3d31eeb0	0.04344052
147	0xbe1d03e1	-0.15333511
148	0xbd2b8eb4	-0.04188414
149	0x3cfd156f	0.03089401
150	0x3e1a5b6f	0.15073942
151	0xbdc7bcf9	-0.097528405
152	0x3e45eb3f	0.1932802
153	0x3cb2bc13	0.021818196
154	0x3e2356a2	0.15951017
155	0x3e495068	0.19659579
156	0xbcabe630	-0.020983785
157	0x3de3487a	0.11097808
158	0xbdd46201	-0.10370255
159	0xbe033106	-0.1281167
160	0x3c0c95c8	0.0085806325
161	0x3e149a0c	0.14511889
162	0x3e5be150	0.21472669
163	0xbdb1281f	-0.086502306
164	0x3d628949	0.055306707
165	0xbd5a90df	-0.053360816
166	0x3e4690e3	0.19391207
167	0x3dbd0bb9	0.092307515
168	0x3dace7e7	0.08442669
169	0x3dab3bcd	0.083610155
170	0xbd510c17	-0.05103692
171	0x3d9e8511	0.07740224
172	0x3e1ae195	0.15125115
173	0x3d5798e4	0.052636042
174	0xbe0840c5	-0.13305958
175	0x3e7b6bef	0.24552892
176	0x3ce51d64	0.027968116
177	0x3dc8c22f	0.098026626
178	0x3e19d4c9	0.15022577
179	0xbe2ac5cc	-0.16677016
180	0xbc100a62	-0.008791538
181	0x3d976c53	0.07393708
182	0xbd813a09	-0.063098975
183	0x3e549e06	0.20763406
184	0x3e21d21a	0.15802804
185	0xba0a6c15	-0.00052803877
186	0xbd95326b	-0.07285007
187	0xbe4630f2	-0.19354609
188	0x3e153ea4	0.14574677
189	0x3d693879	0.056938622
190	0xbe1219d4	-0.14267665
191	0xbe0d811f	-0.13818787
192	0x3e0cc14d	0.13745613
193	0xbe22f53b	-0.1591386
194	0x3e23842d	0.1596839
195	0x3e3698f7	0.17831789
196	0x3c2e8920	0.01065281
197	0xbe221d04	-0.15831381
198	0xbe4fb56a	-0.20284048
199	0x3e45cb47	0.19315825
200	0xbe470ee1	-0.1943927
201	0xbd926f65	-0.07150153
202	0xbddcecb6	-0.107873365
203	0xbd5d93da	-0.05409608
204	0xbd104432	-0.035221286
205	0xbc567d04	-0.0130913295
206	0xbc2a31da	-0.010387862
207	0xbcfcb1a3	-0.030846423
208	0x3dbc82f1	0.092046626
209	0x3da22e4b	0.07918986
210	0xbbb4dfa9	-0.0055198264
211	0xbe46e6de	-0.19424006
212	0x3e1d9c67	0.15391694
213	0x3d81a562	0.063303724
214	0x3b0a1f12	0.0021075648
215	0xbe32deb0	-0.17467761
216	0x3de360d8	0.11102456
217	0x3d5d7950	0.05407077
218	0xbdbd88c1	-0.09254599
219	0xbde0d425	-0.10977963
220	0xbe10ea54	-0.14151889
221	0xbe15c77e	-0.14626881
222	0x3e55aa23	0.20865683
223	0x3d5fa289	0.054598365
224	0x3dff8229	0.12475998
225	0x3da559cd	0.08073769
226	0x3d03f80a	0.03221897
227	0xbd4154d7	-0.04720005
228	0x3de38b94	0.11110607
229	0x3dd76ecd	0.105191804
230	0xbd303916	-0.04302319
231	0xbd7e95f7	-0.062154736
232	0x3d1e1b05	0.038599987
233	0x3dade364	0.08490637
234	0xbbc24065	-0.0059280866
235	0x3e239f17	0.15978657
236	0x3c629731	0.013829992
237	0xbcaeede8	-0.021353677
238	0x3dcdbb5e	0.10045503
239	0xbda15dd4	-0.078792244
240	0xbd890dd9	-0.06692094
241	0xbd41c5b8	-0.0473077
242	0x3d12daba	0.035853125
243	0xbdd68747	-0.10475021
244	0x3d5734c4	0.052540556
245	0x3e3d22fc	0.18470377
246	0xbde90771	-0.113783725
247	0xbda43fae	-0.080199584
248	0xbd85ca00	-0.06532669
249	0x3c0beac3	0.008539858
250	0x3d97dab9	0.07414765
251	0xbdb2d718	-0.08732432
252	0xbdc6d78a	-0.097090796
253	0x3dcffcc1	0.10155631
254	0xbca1e0b4	-0.019760467
255	0xbda52dd3	-0.08065381

bias f4 [84]
0	0x3b98fa68	0.0046685226
1	0xbc249cad	-0.01004712
2	0x3da19c0d	0.078910924
3	0xbb7192b7	-0.003686113
4	0x3cc12b53	0.023580229
5	0x3d042fe9	0.032272253
6	0x3d8d7edc	0.06908962
7	0x3c4a8766	0.012361383
8	0x3c402700	0.011728048
9	0xbb64c341	-0.003490642
10	0x3bdc22bf	0.0067180092
11	0x3d1eb9a7	0.03875127
12	0x3d39f12a	0.045396008
13	0x3b7fa2aa	0.0039006867
14	0x3c40818a	0.0117496345
15	0xbc68566d	-0.014180762
16	0x3bcba8bd	0.0062151835
17	0x3bb7af0f	0.0056055854
18	0x3defecfd	0.11715124
19	0x3cc72d2e	0.024313536
20	0x3d11d791	0.03560597
21	0x3cfa257f	0.030535458
22	0x3d3952d9	0.045245025
23	0x3cedd44f	0.0290319
24	0x3d833574	0.0640668
25	0x3c888a7c	0.016667597
26	0x3a878776	0.0010340053
27	0x3d52db4e	0.051478676
28	0xbc197062	-0.009365173
29	0x3d736fb8	0.059432715
30	0x3d15415b	0.03643928
31	0x3c0748c6	0.008257097
32	0x3d06dea6	0.032927178
33	0x3c530762	0.012880178
34	0x3df3088c	0.118668646
35	0x3d5f1e9e	0.05447256
36	0x3cf180ba	0.029480327
37	0x3d86ace3	0.06575944
38	0xbc7153df	-0.014729469
39	0xbb151cae	-0.002275269
40	0xba87f023	-0.0010371249
41	0xbc8b5021	-0.017005982
42	0x3c6f1934	0.014593411
43	0x3d633ba4	0.0554768
44	0x3cf598d4	0.0299801
45	0x3bf03f53	0.0073317676
46	0x3b90c1e8	0.0044176467
47	0x3ac3a65c	0.0014926898
48	0x3a3a2efd	0.0007102339
49	0x3c84ecd0	0.016226202
50	0x3c22c1a7	0.009933866
51	0x3c8b27c2	0.016986731
52	0x3b476c94	0.0030429708
53	0xbaddc35a	-0.0016919181
54	0x3cc6246b	0.024187287
55	0x3ae76cf0	0.0017656367
56	0x3d0e09d7	0.034677353
57	0x3e286789	0.16445746
58	0x3baf250d	0.005344993
59	0xbc58f4f7	-0.013241998
60	0x3d9a72fb	0.07541462
61	0x3b904579	0.004402813
62	0xbb92e056	-0.0044823093
63	0x3d6ccf46	0.05781486
64	0x3c140352	0.009033995
65	0x3ceb609c	0.02873259
66	0x3b579d47	0.003290014
67	0x3cf8a38d	0.030351425
68	0x3da93309	0.08261687
69	0x3d7ef98a	0.062249698
70	0x3b99c6ac	0.004692873
71	0x3cd4ed05	0.025991926
72	0x3cb99c34	0.022657491
73	0x3d67cd7d	0.056592453
74	0x3cf5cdfb	0.030005446
75	0x3aa88ea9	0.0012859899
76	0xbc27ec7e	-0.010249255
77	0x3d23f8c4	0.040032163
78	0x39b9a73b	0.00035410546
79	0x3cbbd90e	0.022930648
80	0xbbf9b7ec	-0.007620802
81	0x3a81b20f	0.0009894985
82	0x3cac94b8	0.021067008
83	0xbc29b314	-0.010357637

weight f4 [10, 84]
0	0xbcbf3271	-0.023339482
1	0x3f51d031	0.819583
2	0xbef0c44c	-0.47024763
3	0xbc3f7360	-0.011685222
4	0xbdf70fb2	-0.120635405
5	0xbe9d1512	-0.30680138
6	0x3eaf806a	0.3427766
7	0xbde0bfe3	-0.109740995
8	0x3e9c267f	0.3049812
9	0xbd23f0c5	-0.040024538
10	0xbce9b033	-0.028526401
11	0xbde37795	-0.11106793
12	0xbdd9ca19	-0.1063425
13	0xbceddc83	-0.029035812
14	0x3e5856ff	0.21126936
15	0xbd13a21e	-0.03604328
16	0x3eecc5cb	0.46244654
17	0xbd1ddfba	-0.03854344
18	0xbe38b0e0	-0.18036222
19	0xbe2064a1	-0.15663387
20	0xbe9b77b2	-0.30364758
21	0xbe101cfb	-0.14073555
22	0x3e529f20	0.20568514
23	0x3ca448cc	0.020054244
24	0xbdc7fba8	-0.097647965
25	0xbd711e5f	-0.058866855
26	0x3d94df11	0.07269109
27	0x3e990f81	0.2989464
28	0x3e820261	0.2539244
29	0xbef0970e	-0.46990246
30	0xbe63f490	-0.22261262
31	0xbd7539e2	-0.059869654
32	0x3dd5ef1b	0.104459964
33	0xba7e9c01	-0.00097125774
34	0xbc84fc60	-0.016233623
35	0xbdd1fefd	-0.10253713
36	0x3bfdfc5d	0.0077510313
37	0xbe953107	-0.29138967
38	0x3a51a0e7	0.00079966936
39	0x3e6498aa	0.22323862
40	0xbd4cd0af	-0.050003704
41	0x3e29c3a7	0.16578542
42	0x3d0559c1	0.0325563
43	0xbe5564ca	-0.20839229
44	0x3e4c7eb6	0.19970211
45	0x3f0a24e9	0.5396257
46	0x3e264783	0.16238217
47	0xbb77d66a	-0.003781701
48	0x3e983e4b	0.29735026
49	0x3b90a4df	0.0044141854
50	0xbda639b5	-0.081164755
51	0xbe012a12	-0.12613705
52	0xbd0d7ce7	-0.034542944
53	0xbd18d46b	-0.037311953
54	0xbe3842d4	-0.17994243
55	0x3cda937f	0.02668166
56	0xbe7fe318	-0.24988973
57	0x3f40beae	0.75290954
58	0xbcc1fe65	-0.023680875
59	0x3e9516ca	0.2911895
60	0x3e21faf9	0.15818395
61	0x3c428832	0.011873292
62	0x3deb39ad	0.1148561
63	0xbeb33aa4	-0.35005677
64	0xbd91e3b7	-0.07123511
65	0xbe29916b	-0.16559379
66	0xbc18d714	-0.009328622
67	0xbe1eb02e	-0.15496895
68	0xbf146756	-0.5797018
69	0xbdcb919f	-0.099398844
70	0x3e039a55	0.12851842
71	0x3e6e1c49	0.23252977
72	0x3d371786	0.044700168
73	0x3ef8e70a	0.4861377
74	0xbd890c39	-0.066917844
75	0xbdfc5f18	-0.12322825
76	0x3e1151ab	0.1419131
77	0xbe2fb802	-0.17160037
78	0xbbad25d7	-0.005284052
79	0xbe2c3fb2	-0.16821173
80	0xbe03c204	-0.1286698
81	0x3bb2599a	0.0054428102
82	0xbe1af367	-0.15131913
83	0x3d80eae9	0.062948056
84	0xbb45c268	-0.003017569
85	0xbe1f1e89	-0.15538992
86	0x3ee6dcf8	0.4509046
87	0xbb3c6510	-0.0028746761
88	0x3adfa5fc	0.0017063017
89	0x3d92b413	0.07163253
90	0xbe4acedf	-0.19805478
91	0x3b9b43d6	0.0047383113
92	0xbd67692b	-0.05649678
93	0xbd1d0d42	-0.03834272
94	0xbcb1ee13	-0.021719968
95	0x3e4a03bd	0.19727989
96	0xbadd1bd1	-0.0016869252
97	0x3cd2fdf0	0.025755852
98	0x3d47b9bc	0.048761114
99	0xbc6ed7fa	-0.01457786
100	0xbd03d5b2	-0.032186218
101	0x3c76ff5d	0.015075532
102	0xbe3c3fec	-0.1838376
103	0xbcf33fff	-0.029693602
104	0xbdd07a21	-0.10179544
105	0x3b8387e0	0.0040140003
106	0xbd191002	-0.037368782
107	0xbe000735	-0.1250275
108	0x3b8a5acb	0.004222249
109	0xbd91a49c	-0.07111475
110	0x3d242b7d	0.040080536
111	0xbe1021ec	-0.1407544
112	0x3d1e1f5d	0.03860413
113	0xbe16d34f	-0.14729045
114	0xbca52c99	-0.020162867
115	0x3ce6f364	0.02819223
116	0x3d8c1fa1	0.0684197
117	0xbc542dec	-0.012950402
118	0xbe8ebab2	-0.27876812
119	0xbd597b77	-0.05309626
120	0xbe6f5a8d	-0.23374386
121	0xbd83286b	-0.064041935
122	0xbd7b26e9	-0.061316404
123	0xbdc6a286	-0.09698968
124	0xbd0ddacd	-0.034632493
125	0xbcc1def6	-0.023665886
126	0x3e20a96b	0.15689628
127	0x3d95bff1	0.073120005
128	0xbd0d3a1b	-0.03447924
129	0x3cc08f96	0.023505967
130	0xbc89cce2	-0.016821329
131	0xbabaf672	-0.001426412
132	0x3e9a9097	0.30188438
133	0x3f593e26	0.84860456
134	0xbcf4a623	-0.029864376
135	0xbd9e1293	-0.077183865
136	0x3e4e158e	0.2012541
137	0xbd83e837	-0.06440776
138	0x3bd6a77b	0.006550727
139	0xbd736977	-0.05942675
140	0xbd668a82	-0.056284435
141	0xbea12957	-0.31476852
142	0x3b8b4e30	0.004251264
143	0x3b5cd76f	0.0033697744
144	0xbcdf992b	-0.027294716
145	0x3ee434d8	0.44571567
146	0xbccb46fa	-0.024814118
147	0xbe0d2877	-0.13784967
148	0xbd26feec	-0.040770456
149	0x3da6cf35	0.0814499
150	0xbacf7cd3	-0.0015830047
151	0xbe1c8e6f	-0.15288709
152	0x3e19ad78	0.1500758
153	0xba258003	-0.0006313326
154	0xbd68eacf	-0.056864556
155	0x3ce3305c	0.02773302
156	0xbd3554f1	-0.04427046
157	0x3e6405b4	0.222678
158	0x3bf3d08b	0.0074406317
159	0x3e447cd8	0.19188249
160	0xbc7a6fa9	-0.015285411
161	0xbdb48f68	-0.08816415
162	0x3cb5497e	0.02212977
163	0xbc974ff9	-0.018470751
164	0xbdbf1bcf	-0.09331476
165	0x3d695abc	0.056971297
166	0xbe3801ed	-0.17969485
167	0x3e223dd9	0.15843906
168	0xbbeb386d	-0.0071783573
169	0xbd687d02	-0.05675984
170	0x3f477a63	0.7792112
171	0xbbccc12d	-0.0062486143
172	0x3dd292d9	0.10281915
173	0xbd01709a	-0.031601526
174	0x3ec07fe9	0.37597588
175	0xbe01b4d1	-0.12666632
176	0x3ea8fc19	0.33004835
177	0xbd053ca3	-0.03252853
178	0xbdf89e5d	-0.121395804
179	0xbe8f2be2	-0.27963167
180	0xbe783076	-0.24237236
181	0xbc7590a2	-0.014988096
182	0xbe1b86a2	-0.15188077
183	0xbca58312	-0.0202041
184	0x3e830356	0.25588483
185	0x3d593ae6	0.053034686
186	0x3deb7693	0.114972256
187	0xbdbcac7a	-0.09212585
188	0xbe7715f2	-0.24129465
189	0x3dd41d85	0.10357193
190	0xbe9bca1e	-0.3042764
191	0xbe628223	-0.22119956
192	0xbe861991	-0.2619138
193	0xbd209048	-0.039200097
194	0x3d8a31c8	0.06747776
195	0x3f1961df	0.59914964
196	0xbd7eb9df	-0.06218898
197	0x3e1f3f10	0.155514
198	0xbd76568c	-0.06014113
199	0xbd4da0f2	-0.050202318
200	0xbe293c05	-0.16526802
201	0xbe1fdc0e	-0.15611288
202	0x3f0afc37	0.542911
203	0xbedb379f	-0.42815873
204	0x3e2bfdcf	0.16796039
205	0x3f411332	0.75419915
206	0xbd8c98c5	-0.06865076
207	0x3eca8730	0.39556265
208	0xbe151303	-0.14558034
209	0xbe3bfec7	-0.18358909
210	0xbd2a1ce9	-0.041531477
211	0xbdf5d13e	-0.120028004
212	0xbd1b2897	-0.037880506
213	0xbe915565	-0.28385463
214	0x3e150236	0.14551625
215	0xbb5ec0b1	-0.0033989365
216	0x3c9278ec	0.017879926
217	0xbe853436	-0.26016396
218	0xbde105cd	-0.109874345
219	0xbdc6bdc7	-0.09704166
220	0xbd11b9f4	-0.03557773
221	0xbd811837	-0.06303447
222	0xbde11b27	-0.10991507
223	0x3d7166ee	0.058936052
224	0xbecf4768	-0.40484166
225	0x3e86e998	0.26350093
226	0xbb871e5f	-0.0041234936
227	0xbe64cfc1	-0.22344877
228	0xbe6778db	-0.22604696
229	0xbd0d3ec2	-0.03448368
230	0xbda3e7cf	-0.08003198
231	0xbe99fc8f	-0.300755
232	0xbda9748a	-0.08274181
233	0xbe25abb3	-0.1617878
234	0x3c119799	0.008886241
235	0x3e95102b	0.29113898
236	0x3dbcf882	0.092270866
237	0xbe7ffd78	-0.24999034
238	0xbd9aaf3a	-0.07552953
239	0xbe62f189	-0.22162451
240	0x3e055730	0.1302154
241	0xbf20bdf3	-0.6278984
242	0xbe28b5fe	-0.16475675
243	0xbd905ae4	-0.07048586
244	0x3d9c5a92	0.076344624
245	0xbdc361c9	-0.095401354
246	0xbb7d55b3	-0.0038655817
247	0xbed7eddd	-0.42173663
248	0xbd002761	-0.031287555
249	0xbc6dc85e	-0.014513103
250	0x3ecfd4da	0.4059208
251	0x3d2d880d	0.042366076
252	0xbb3fd697	-0.0029272193
253	0xbe521760	-0.2051673
254	0xbec342f0	-0.38137007
255	0xbbbe3d6f	-0.0058056633

bias f4 [10]
0	0xbbf55f2e	-0.007488153
1	0xbc355818	-0.0110683665
2	0x3d2c9471	0.042133752
3	0x3ceaed86	0.028677713
4	0xbcabc67a	-0.020968664
5	0xbd9386f0	-0.07203472
6	0x3dbaea6f	0.09126746
7	0xbcedf5f4	-0.029047944
8	0x3c3663e9	0.011132219
9	0xbd059acc	-0.03261833
