models/KuzushijiMNIST_LeNet5.pth (torch, 254693 bytes, 10 tensors)

weight f4 [6, 1, 5, 5]
-0.1232975 -0.016038802 0.16311257 0.12860113 -0.069755256 -0.06527051 0.37898904 0.8064693
0.6040623 0.20039065 0.238086 0.9877989 1.5140746 1.0769365 0.38607687 0.4516665
1.1261487 1.4741557 0.93152195 0.22384244 0.17402004 0.5736154 0.6969246 0.32913607
-0.06466217 -0.015599461 0.15309496 0.23050536 0.10422937 -0.0051850956 0.1291812 0.43464413
0.4350638 0.16038299 0.022243386 0.30528602 0.6146827 0.44281915 0.08861781 -0.02461761
0.28525913 0.46162266 0.22283515 -0.04217712 -0.058563013 0.14602374 0.1830762 0.016202785
-0.077178605 -0.055438947 0.03959034 0.31267437 0.3690197 0.17454249 0.0345586 0.28727627
0.6757546 0.58959067 0.21681502 0.05049649 0.4616339 0.76992977 0.47064415 0.05558152
-0.050359897 0.33696264 0.46737394 0.15052561 -0.10223794 -0.09554201 0.13592261 0.13447101
-0.05716006 -0.12361111 -0.075443864 0.10902412 0.052681264 -0.11147036 -0.16237421 -0.14311187
0.17126094 0.19910741 -0.005004588 -0.12258052 -0.12077612 0.213927 0.35694945 0.20723487
0.03210642 -0.013777602 0.17739664 0.3984729 0.3832165 0.23672616 0.12716144 0.046184573
0.20186749 0.28575265 0.2210752 0.12623833 0.02001283 0.019935962 0.0058173602 -0.0059973896
-0.0054803276 0.018947562 0.0035925999 -0.009883887 -0.011863423 -0.00034170377 0.008402363 -0.011374038
-0.015019505 -0.008580018 0.00945388 -0.0040360508 -0.016813844 -0.013768548 0.0014490021 0.016731987
-0.011599202 -0.013027451 -5.2865846e-05 0.01602389 0.0160233 0.051629454 0.09757649 0.05552511
-0.012146499 -0.042488515 0.10609765 0.1635985 0.049104463 -0.041239195 -0.045536082 0.15242292
0.19077195 0.030707583 -0.05305909 -0.045129627 0.14838618 0.15923917 0.024694 -0.041038822
-0.03348619 0.1015872 0.102655515 0.022238038 -0.015275798 -0.015888501
00000000: 6683 fcbd ce63 83bc fb06 273e 04b0 033e
00000010: d8db 8ebd 8cac 85bd da0a c23e c674 4e3f
00000020: d4a3 1a3f 3533 4d3e d1cc 733e 64e0 7c3f
00000030: 32cd c13f 0ed9 893f deab c53e d540 e73e
00000040: a425 903f 22b1 bc3f 3978 6e3f f436 653e
00000050: 4f32 323e 75d8 123f a769 323f 8684 a83e
00000060: 9a6d 84bd e294 7fbc edc4 1c3e 9909 6c3e
00000070: 3576 d53d bce7 a9bb 1448 043e ad89 de3e
00000080: afc0 de3e 703b 243e c337 b63c 734e 9c3e
00000090: d85b 1d3f 31b9 e23e 417d b53d dfaa c9bc
000000a0: 7c0d 923e ce59 ec3e e62e 643e eac1 2cbd
000000b0: c5df 6fbd 3f87 153e 5478 3b3e b4bb 843c
000000c0: d10f 9ebd f313 63bd 7b29 223d db16 a03e
000000d0: 26f0 bc3e 44bb 323e 528d 0d3d e015 933e
000000e0: 41fe 2c3f 6aef 163f c204 5e3e 68d5 4e3d
000000f0: 475b ec3e 1e1a 453f 45f8 f03e 73a9 633d
00000100: 2e46 4ebd 5e86 ac3e a34b ef3e 6323 1a3e
00000110: 2062 d1bd 88ab c3bd 4c2f 0b3e c5b2 093e
00000120: ab20 6abd d227 fdbd 5082 9abd 0a48 df3d
00000130: 4fc8 573d 924a e4bd 6d45 26be eb8b 12be
00000140: 075f 2f3e d0e2 4b3e 87fd a3bb 7f0b fbbd
00000150: 7859 f7bd ae0f 5b3e 14c2 b63e 6135 543e
00000160: 0582 033d 74bb 61bc 77a7 353e a404 cc3e
00000170: f434 c43e 5868 723e 9c36 023e 092c 3d3d
00000180: 5ab6 4e3e 2c4e 923e 8a61 623e 9f44 013e
00000190: f2f1 a33c be50 a33c 8e9f be3b c085 c4bb
000001a0: 5294 b3bb eb37 9b3c d371 6b3b 07f0 21bc
000001b0: cd5e 42bc b426 b3b9 11aa 093c 2c5a 3abc
000001c0: 5f14 76bc 3493 0cbc 72e4 1a3c d940 84bb
000001d0: 30bd 89bc 7a95 61bc 71ec bd3a 8511 893c
000001e0: 940a 3ebc 1771 55bc 45bc 5db8 8844 833c
000001f0: 4c43 833c 6879 533d 2fd6 c73d 4c6e 633d
00000200: 1c02 47bc 7008 2ebd ba49 d93d 5d86 273e
00000210: c321 493d 6eea 28bd 0b84 3abd c114 1c3e
00000220: b959 433e 788e fb3c 7d54 59bd d8d9 38bd
00000230: 8cf2 173e 980f 233e 124b ca3c 5318 28bd
00000240: d128 09bd f30c d03d 0e3d d23d 8c2c b63c
00000250: 5747 7abc 9a28 82bc

bias f4 [6]
0.00016763552 0.022120288 0.05476498 0.015451286 0.014841957 0.03409563
00000000: 51c7 2f39 9b35 b53c 3e51 603d 6427 7d3c
00000010: ae2b 733c dca7 0b3d

weight f4 [16, 6, 5, 5]
-0.08783625 -0.37272573 -0.27787456 -0.0098530315 0.05865796 -0.41805416 -0.15695782 0.16225736
0.16200638 -0.010889175 -0.053706296 0.37073737 0.24368244 0.005854625 -0.07300856 0.22535332
0.2420627 -0.07189054 -0.020115372 0.04091989 0.04971152 -0.19303934 -0.12663522 0.081368126
-0.04442757 0.041183505 -0.03363948 -0.13484782 -0.05327968 0.022208337 -0.07755205 -0.165424
-0.012888896 0.04379794 0.03649881 -0.122927435 0.06412432 0.13707295 0.03303046 -0.022028819
0.027482888 0.14803174 0.054058675 -0.038281612 0.008373942 0.06485031 0.0061018406 -0.07166261
0.019263597 0.031486735 0.06982725 0.011179864 -0.1483297 -0.08545263 0.026468005 -0.058721926
-0.22142039 -0.06695886 0.040327262 0.054427005 -0.17079006 0.038836535 0.17635143 0.059217043
-0.023312673 0.019832034 0.20240796 0.10372546 -0.050578352 -0.0034042858 0.09562214 0.045136448
-0.08668362 0.007635705 0.052787315 -0.06560565 -0.08892942 -0.064833164 -0.02219148 -0.001482716
-0.0615896 -0.025112666 -0.0066446397 -5.8671092e-05 -0.00081738766 -0.009033808 0.022386726 0.012228351
-0.010386374 0.006760433 -0.014138212 -0.014685961 -0.0035498983 -0.0039498056 0.0047712093 -0.033120733
-0.03164671 -0.026429474 -0.015797557 -0.011480598 -0.0018527084 0.0055176085 0.007073007 0.0017222217
-0.0030941572 0.007790879 0.010202763 0.0009147209 -0.0023399584 -0.00070364715 0.009647086 0.001045607
-0.0020534806 0.002556922 0.0014216804 0.001079792 0.0008657984 0.008142559 0.003516082 -0.0020590553
0.00023125185 0.005638179 0.00458945 -0.0025249694 -0.00046298112 0.0021552376 -0.016443204 -0.050689004
-0.027194895 0.0026992406 -0.013607559 -0.057307795 -0.032492112 0.00070388085 0.012455691 -0.03807494
-0.018224118 0.018975364 0.0028388698 0.002651485 -0.01636785 0.021049388 0.011628732 -0.015320616
0.0057316106 0.008949133 0.0055399435 -0.02655026 -0.0035595226 0.014311597 -0.088939145 0.046836607
0.21135922 -0.06784519 -0.18299848 -0.1823557 -0.0677888 0.26558623 0.056182034 -0.19392884
-0.22553124 -0.17384245 0.25415817 0.11835751 -0.10649954 -0.22519755 -0.24368529 0.15302026
0.15228947 0.02888103 -0.18235797 -0.26080456 -0.018024422 0.114302985 0.055144366 -0.010070788
-0.007735906 0.06716701 0.028483916 -0.075400665 -0.028359246 -0.06686378 0.07158284 0.06890723
-0.060943868 -0.039701343 -0.106623776 0.0538798 0.09450387 -0.03698151 -0.043471746 -0.1181483
0.008232523 0.069388665 0.011777096 -0.038648378 -0.100809276 -0.034543417 0.045268927 0.027007043
-0.00708474 -0.0049733855 0.07590867 0.037708487 -0.09606531 -0.028960122 -0.08096622 0.08075175
0.086548716 -0.07622757 -0.04649196 -0.13380173 0.058923848 0.12369813 -0.054799344 -0.05244948
-0.14836478 0.0007429693 0.09398178 0.0085467985 -0.04680257 -0.12926713 -0.04252196 0.06378175
0.03643701 -0.03453736 -0.0057622977 0.076417096 0.018531417 -0.05398731 -0.043150924 -0.046861585
0.08432117 0.0656192 -0.052752588 -0.035731964 -0.07740121 0.055507373 0.10753929 -0.009677958
-0.031692866 -0.077749304 0.0046363925 0.10506781 0.034946933 -0.019946715 -0.06809638 -0.043222003
0.045509066 0.028238557 -0.00052925764 0.0022902498 0.00039854497 0.000220766 0.00015802744 -0.00086273864
00000000: 7ee3 b3bd e8d5 bebe 9345 8ebe 9c6e 21bc
00000010: 5443 703d 320b d6be 8db9 20be cb26 263e
00000020: 00e5 253e 8368 32bc 22fb 5bbd 4ad1 bd3e
00000030: e487 793e 27d8 bf3b 8385 95bd 05c3 663e
00000040: 49df 773e 593b 93bd fec8 a4bc 9d9b 273d
00000050: 4f9e 4b3d 1bac 45be aaac 01be 55a4 a63d
00000060: aff9 35bd 09b0 283d 8dc9 09bd 8c15 0abe
00000070: cb3b 5abd 42ee b53c 9cd3 9ebd e964 29be
00000080: f32b 53bc 7865 333d c77f 153d 61c1 fbbd
00000090: 9d53 833d da5c 0c3e f34a 073d c875 b4bc
000000a0: cb23 e13c a295 173e a16c 5d3d 2ecd 1cbd
000000b0: dc32 093c 3dd0 843d f3f1 c73b d9c3 92bd
000000c0: b1ce 9d3c 3cf8 003d 9701 8f3d c02b 373c
000000d0: bee3 17be ca01 afbd 6ed3 d83c 6786 70bd
000000e0: 07bc 62be ba21 89bd 332e 253d daee 5e3d
000000f0: 97e3 2ebe 0f13 1f3d 7895 343e 928d 723d
00000100: 38fa bebc ca76 a23c 0844 4f3e 046e d43d
00000110: 3f2b 4fbd 701a 5fbb 8ad5 c33d ffe0 383d
00000120: 2f87 b1bd f034 fa3b 8337 583d 415c 86bd
00000130: a120 b6bd 40c7 84bd e8ca b5bc b157 c2ba
00000140: 6045 7cbd 14b9 cdbc 47bb d9bb 9b15 76b8
00000150: f545 56ba 8902 14bc 5e64 b73c 6c59 483c
00000160: 9c2b 2abc 9f86 dd3b f6a3 67bc 639d 70bc
00000170: 69a5 68bb 5f6d 81bb ce57 9c3b 9ba9 07bd
00000180: fb9f 01bd a082 d8bc e169 81bc 1e19 3cbc
00000190: 94d6 f2ba 0ecd b43b afc4 e73b 2cbc e13a
000001a0: 58c7 4abb a14a ff3b 7d29 273c e1c9 6f3a
000001b0: fd59 19bb f674 38ba d00e 1e3c c00c 893a
000001c0: b093 06bb 0892 273b ae57 ba3a cf87 8d3a
000001d0: bff6 623a 5e68 053c 116e 663b 37f1 06bb
000001e0: 327c 7239 79c0 b83b 1963 963b f579 25bb
000001f0: 46bc f2b9 e33e 0d3b e6b3 86bc 469f 4fbd
00000200: d4c7 debc bee5 303b 3df2 5ebc 94bb 6abd
00000210: 7316 05bd a584 383a f412 4c3c 78f4 1bbd
00000220: bf4a 95bc 3972 9b3c 550c 3a3b 89c4 2d3b
00000230: df15 86bc c46f ac3c 7086 3e3c 5203 7bbc
00000240: 3cd0 bb3b 629f 123c 6a88 b53b ee7f d9bc
00000250: e146 69bb 307b 6a3c ba25 b6bd bed7 3f3d
00000260: 8d6e 583e 6bf2 8abd f463 3bbe 74bb 3abe
00000270: dbd4 8abd ebfa 873e 221f 663d 4895 46be
00000280: a9f1 66be c103 32be 0521 823e 6c65 f23d
00000290: 6e1c dabd 309a 66be a388 79be 58b1 1c3e
000002a0: c5f1 1b3e e997 ec3c 0cbc 3abe 2d88 85be
000002b0: f4a7 93bc af17 ea3d 0fdf 613d f2ff 24bc
000002c0: 7c7d fdbb db8e 893d 1a57 e93c aa6b 9abd
000002d0: a651 e8bc e1ef 88bd 069a 923d 3c1f 8d3d
000002e0: 47a0 79bd e09d 22bd 915d dabd 11b1 5c3d
000002f0: 3f8b c13d ed79 17bd 6e0f 32bd bcf7 f1bd
00000300: b4e1 063c a51b 8e3d b9f4 403c c34d 1ebd
00000310: 1875 cebd 667d 0dbd e96b 393d e03d dd3c
00000320: 1b27 e8bb c8f7 a2bb 0176 9b3d 3774 1a3d
00000330: e4bd c4bd c73d edbc 9ed1 a5bd 2c61 a53d
00000340: 7440 b13d 331d 9cbd 5a6e 3ebd 5203 09be
00000350: 225a 713d 7255 fd3d 4775 60bd 44d5 56bd
00000360: f0ec 17be d3c3 423a 8579 c03d df07 0c3c
00000370: 0db4 3fbd 9a5e 04be 822b 2ebd 02a0 823d
00000380: f93e 153d 0c77 0dbd a8d1 bcbb 9180 9c3d
00000390: 33cf 973c cc21 5dbd 06bf 30bd eff1 3fbd
000003a0: 94b0 ac3d 5c63 863d 1913 58bd ae5b 12bd
000003b0: 8784 9ebd b35b 633d 8f3d dc3d 4c90 1ebc
000003c0: 61d0 01bd 073b 9fbd e1ec 973b cb2d d73d
000003d0: 8424 0f3d 4b67 a3bc 1d76 8bbd 8e09 31bd
000003e0: b767 3a3d 8c54 e73c e1bd 0aba 0418 163b
000003f0: cdf3 d039 6c7d 6739 2bb4 2539 6929 62ba

bias f4 [16]
-0.022633828 0.0048298324 -0.02935886 0.008093083 -0.033014506 -0.015890438 0.013970677 0.00019241602
-0.04016992 0.019028056 -0.024523733 0.0046462924 0.0011972681 -0.01341014 -0.00096781965 -0.0072950446
00000000: 946a b9bc 9243 9e3b fe81 f0bc da98 043c
00000010: 383a 07bd aa2c 82bc 44e5 643c 48c3 4939
00000020: 3789 24bd bae0 9b3c ffe5 c8bc ed3f 983b
00000030: a7ed 9c3a 34b6 5bbc 47b5 7dba 450b efbb

weight f4 [120, 400]
0.03112053 0.025190897 0.015914625 0.011202971 -0.020453418 0.003957026 -0.046185404 -0.0057905163
-0.030314943 -0.017396059 -0.0035373063 0.020922942 -0.037552133 -0.03387964 0.018383993 -0.018657042
-0.043106798 -0.03183355 -0.0035083466 0.0074208905 -0.044497937 -0.0043626097 0.013309366 0.035694554
0.041403078 -0.0021076126 0.028744837 -0.038157485 0.009999857 0.027794274 0.0027576876 0.013786954
0.0027029074 -0.003598784 0.014338128 -0.026171833 0.0553402 0.011160264 0.00043192218 0.020285556
-0.013963271 0.032594685 5.2391692e-06 0.021979164 0.018707246 -0.0013691946 0.0144719435 -0.035490498
0.0053325365 -0.02566404 0.01058872 0.04615024 0.012850112 0.014459412 -0.016748577 -0.00089391414
-0.0166531 0.0012764587 -0.00093001995 -0.012833982 -0.01694783 -0.0073969583 -0.038492158 0.010367111
-0.0049453243 -0.015294046 0.009006799 -0.011876715 0.017475188 0.014530244 0.046296842 0.029414676
-0.0032019145 0.012891062 0.02639813 0.0121479705 0.015434334 -0.06052783 0.008980855 -0.0082271155
0.02003673 0.0004458965 -0.042678062 -0.027889173 -0.014112193 0.010873331 0.0019466341 -0.042047665
0.00029432378 0.02794427 -0.0031263777 -0.015459357 -0.0030360976 0.015022419 0.00921681 -0.03872293
-0.001266892 0.024091545 0.033837534 0.027075827 0.02921821 0.0042140963 -0.03614697 0.007716862
0.032201696 0.05076485 -0.025452642 -0.0003292276 0.021028953 0.0066437433 0.043744233 0.0021655487
-0.036557186 0.033736344 0.012269278 0.03465537 0.014498331 -0.0159854 -0.011164324 0.0012101968
0.01281552 -0.01908759 -0.025989491 -0.018690461 -0.009300019 -0.0016893683 -0.018575178 0.01277231
-0.0038100714 -0.06365482 -0.025506942 -0.015634175 1.2755342e-05 0.013674001 -0.010148247 -0.04843254
-0.03467121 -0.009059278 0.029401219 0.015906654 -0.028260428 0.012317237 0.02417192 0.07194502
0.01712142 0.010146403 -0.0029444122 0.039817583 0.00038691668 0.0029593 -0.010417895 -0.02743294
-0.022192076 0.016156418 -0.005494426 -0.03072636 -0.015410926 0.012501036 0.017296903 -0.015583669
-0.014424637 0.02150228 0.0039822794 0.02555954 0.029418997 0.0036119886 0.018094342 0.014574658
0.011852866 0.035638325 0.020079885 -0.011665279 0.0019422517 0.017013676 -0.016365899 -0.011393888
0.036525093 0.00016099261 0.0072764517 -0.023117306 -0.013054421 0.010973566 -0.0018211845 -0.039030865
-0.017820042 -0.01920363 0.021918552 -0.023546869 -0.011157702 0.010887778 -0.044784304 0.020428566
0.015721416 0.0020817034 0.0010997804 0.0091174925 0.038718794 0.05123672 0.04106058 0.0069475314
-0.010944915 -0.05718155 -0.027391678 0.076979905 0.027985865 0.0054716063 -0.014260196 -0.008938252
0.06393286 0.019695072 0.013057732 0.03634088 0.00039497216 -0.0026388085 -0.013225383 0.024265375
0.010778196 -0.025758786 -0.006354514 -0.042937238 0.003914428 -0.008654518 -0.042689078 -0.0044790967
-0.035867848 -0.00094163045 0.016168842 0.040070564 0.027932107 -0.042778883 0.015928378 0.02817999
0.008016711 -0.002468773 -0.07521884 -0.016183276 -0.0014974804 0.033975266 0.028608555 -0.0363584
-0.041036956 -0.0068946127 0.0114971725 0.051334903 -0.027346715 0.013496773 -0.00022420503 -0.014790512
0.037246104 0.0094810845 -0.018907279 0.0019890948 -0.009140125 0.0014381952 -0.035133038 0.017904457
00000000: 7bf0 fe3c 245d ce3c 635f 823c ab8c 373c
00000010: ed8d a7bc f1a9 813b e82c 3dbd 5fbe bdbb
00000020: 0b57 f8bc 2e82 8ebc 27d2 67bb 9766 ab3c
00000030: 44d0 19bd 61c5 0abd 079a 963c a7d6 98bc
00000040: c190 30bd e663 02bd 4aec 65bb f12a f33b
00000050: 7843 36bd 39f4 8ebb 870f 5a3c 7434 123d
00000060: 4696 293d df1f 0abb 4b7a eb3c 064b 1cbd
00000070: 71d6 233c d1b0 e33c 52ba 343b ade2 613c
00000080: 4323 313b 94d9 6bbb 78ea 6a3c 5066 d6bc
00000090: 68ac 623d 8ad9 363c 9d73 e239 e52d a63c
000000a0: 34c6 64bc 0182 053d 1fcc af36 a60d b43c
000000b0: f03f 993c 8c76 b3ba bb1b 6d3c 7c5e 11bd
000000c0: 8fbc ae3b 653d d2bc 507c 2d3c 0908 3d3d
000000d0: 4789 523c 2be7 6c3c 5034 89bc 9055 6aba
000000e0: 156c 88bc d94e a73a 95cc 73ba 9f45 52bc
000000f0: 2dd6 8abc 2f62 f2bb f4a9 1dbd d1da 293c
00000100: 630c a2bb e193 7abc 4191 133c 8e96 42bc
00000110: 2028 8f3c 4310 6e3c c2a1 3d3d 0cf7 f03c
00000120: 36d7 51bb 0835 533c e440 d83c 4808 473c
00000130: 4ae0 7c3c 08ec 77bd 7024 133c 06cb 06bc
00000140: 1224 a43c 37c7 e939 31cf 2ebd d677 e4bc
00000150: d436 67bc 0e26 323c 3426 ff3a 2c3a 2cbd
00000160: 784f 9a39 62eb e43c eae3 4cbb 3e49 7dbc
00000170: 44f9 46bb 9820 763c 1a02 173c ef9b 1ebd
00000180: d70d a6ba a25b c53c 3a99 0a3d 20ce dd3c
00000190: 075b ef3c 6716 8a3b d80e 14bd bbdd fc3b
000001a0: ede5 033d ceee 4f3d 0f82 d0bc 2e9c acb9
000001b0: e944 ac3c c2b3 d93b 272d 333d e1eb 0d3b
000001c0: fdbc 15bd 1f2f 0a3d 1505 493c caf2 0d3d
000001d0: 688a 6d3c d0f3 82bc 92ea 36bc 779f 9e3a
000001e0: 30f8 513c 945d 9cbc eae7 d4bc bd1c 99bc
000001f0: 1b5f 18bc cb6d ddba f92a 98bc f342 513c
00000200: 64b2 79bb 755d 82bd eff3 d0bc 3e13 80bc
00000210: c7ff 5537 eb08 603c d544 26bc 3361 46bd
00000220: 6603 0ebd 5e6d 14bc d3da f03c ac4e 823c
00000230: 6a82 e7bc 3dce 493c 3104 c63c e957 933d
00000240: 3842 8c3c 193d 263c 0af7 40bb c317 233d
00000250: 14db ca39 d1f0 413b d2af 2abc 0cbb e0bc
00000260: 28cc b5bc 775a 843c 960a b4bb d9b5 fbbc
00000270: 1c7e 7cbc 25d1 4c3c 3cb2 8d3c a552 7fbc
00000280: 5055 6cbc 8d25 b03c c87d 823b 3e62 d13c
00000290: 1c00 f13c 1db7 6c3b 963a 943c 8cca 6e3c
000002a0: 8632 423c 7ef9 113d 927e a43c ba1f 3fbc
000002b0: 2793 fe3a 4460 8b3c c711 86bc 6ead 3abc
000002c0: 569b 153d 20d0 2839 4d6f ee3b 8160 bdbc
000002d0: 36e2 55bc 79ca 333c d0b4 eeba d4de 1fbd
000002e0: 56fb 91bc ee50 9dbc 898e b33c 5de5 c0bc
000002f0: cbce 36bc a762 323c bf6f 37bd cf59 a73c
00000300: 33ca 803c 306d 083b 8226 903a 8961 153c
00000310: 9997 1e3d 98dd 513d 242f 283d 1ea8 e33b
00000320: 4d52 33bc 3337 6abd 8364 e0bc a4a7 9d3d
00000330: 9d42 e53c 294b b33b 99a3 69bc bf71 12bc
00000340: 3bef 823d 8f57 a13c 19f0 553c 2dda 143d
00000350: 4414 cf39 dcef 2cbb 47af 58bc 2ec8 c63c
00000360: 0897 303c 1704 d3bc 8739 d0bb f5de 2fbd
00000370: 9a44 803b aecb 0dbc beda 2ebd 63c5 92bb
00000380: 2aea 12bd c0d7 76ba 8574 843c 0821 243d
00000390: e0d1 e43c e938 2fbd 3b7c 823c b9d9 e63c
000003a0: 8658 033c 23cb 21bb 560c 9abd ca92 84bc
000003b0: 1b47 c4ba a629 0b3d 7d5c ea3c 8cec 14bd
000003c0: 5e16 28bd 34ec e1bb a35e 3c3c 8c44 523d
000003d0: 3806 e0bc 9221 5d3c 9418 6bb9 e753 72bc
000003e0: 5f8f 183d 8d56 1b3c 70e3 9abc 795b 023b
000003f0: 76c0 15bc d381 bc3a a9e7 0fbd 5eac 923c

bias f4 [120]
0.013796933 -0.0045204326 -0.0013325865 -0.0039893673 -0.008633026 0.0044669085 0.0056177927 -0.007367691
-0.0032375918 0.008265582 0.0071820864 -0.0067989347 0.0018340319 -0.008172208 0.003983141 0.0023430178
0.0005271467 -0.008069835 1.4218101e-05 -8.075403e-05 0.0025161984 0.0055948156 -0.0051871636 0.006501849
-0.004011233 -0.0012414311 -0.0046381876 -0.003961796 -0.00046428505 0.0017724535 -0.0010613281 -0.0075218147
-0.0021397993 0.0033252013 0.009764233 0.005430621 0.004702114 -0.00038003142 5.098755e-05 -0.004397472
0.0055735265 -0.00010977224 -0.0033500313 0.007991298 -0.00026995598 0.0049059046 0.0028137108 -0.0015876484
0.0046163 0.00751819 0.006643738 0.009033699 0.00994083 0.0015383036 0.0020250825 0.010498788
-0.0023851364 -0.0029572197 0.0014013731 0.004458358 -0.0012306885 0.007366359 0.0032749504 -0.0012022997
-0.0052805906 -0.004624224 0.0050120847 0.010020829 -0.0034859707 0.0011104179 0.0075080045 -0.0034771364
0.004523537 0.0015798173 -0.00060454966 -0.0033849098 0.006974953 0.007581713 0.0005747483 0.0048118364
6.4648106e-05 0.008704717 -0.013880666 -0.002739877 0.0034091354 0.0024077375 -0.0046796273 0.00077531266
-0.007861252 0.003172716 0.012022765 0.010240777 0.0031376611 -0.00015602699 0.003015634 0.009418855
-0.0060590566 -0.0062794955 0.0010448352 0.009122719 -0.005356467 -0.0019876552 -0.0051205917 0.0089449985
-0.0035807563 -0.0021264832 -0.012118189 0.0006082652 0.0050822576 -0.004899259 -0.0034992872 -0.0011879302
0.017967815 -0.0042857653 0.0025131458 -0.0022168132 -0.0009121102 0.0036368032 -0.0040336796 0.00061349914
00000000: 880c 623c 2320 94bb 2faa aeba 3db9 82bb
00000010: 8971 0dbc 255f 923b 7615 b83b ac6c f1bb
00000020: c72d 54bb 5d6c 073c b557 eb3b 99c9 debb
00000030: e663 f03a bae4 05bc 0285 823b 518d 193b
00000040: 3730 0a3a 5737 04bc 478a 6e37 7d5a a9b8
00000050: cee6 243b b754 b73b 15f9 a9bb 760d d53b
00000060: a970 83bb 84b7 a2ba f0fb 97bb f4d1 81bb
00000070: 496b f3b9 ac51 e83a 431c 8bba 8e79 f6bb
00000080: e03b 0cbb 9feb 593b 29fa 1f3c 5af3 b13b
00000090: 3114 9a3b f43e c7b9 77db 5538 ab18 90bb
000000a0: 21a2 b63b 8635 e6b8 338c 5bbb efed 023c
000000b0: e188 8db9 b6c1 a03b 3c66 383b a418 d0ba
000000c0: 5544 973b 265b f63b b7b3 d93b 1402 143c
000000d0: ddde 223c e7a0 c93a 3fb7 043b 1c03 2c3c
000000e0: f34f 1cbb eacd 41bb 47ae b73a 6b17 923b
000000f0: 0e4f a1ba 7f61 f13b 8da0 563b 7c96 9dba
00000100: ce08 adbb cd86 97bb 6a3c a43b 672e 243c
00000110: e274 64bb 718b 913a b505 f63b abe0 63bb
00000120: 2e3a 943b df11 cf3a a47a 1eba 5dd5 5dbb
00000130: 268e e43b 0570 f83b b5aa 163a 9cac 9d3b
00000140: b093 8738 3b9e 0e3c bc6b 63bc 828f 33bb
00000150: cd6b 5f3b 22cb 1d3b 8f57 99bb 5a3e 4b3a
00000160: 7bcc 00bc 57ed 4f3b 22fb 443c efc8 273c
00000170: 38a1 4d3b 2d9b 23b9 f1a1 453b 8b51 1a3c
00000180: 0d8b c6bb 3ac4 cdbb daf2 883a 7577 153c
00000190: 4d85 afbb 5243 02bb a3ca a7bb 0b8e 123c
000001a0: 1fab 6abb 785c 0bbb 5e8b 46bc fd73 1f3a
000001b0: 1189 a63b f789 a0bb 4c54 65bb 53b4 9bba
000001c0: 3d31 933c 9b6f 8cbb 97b3 243b f447 11bb
000001d0: ae1a 6fba 6f57 6e3b f52c 84bb 3bd3 203a

weight f4 [84, 120]
0.02292197 -0.005403728 -0.005079798 0.026508654 0.04170195 0.027139151 0.0168306 0.015197735
0.011221195 0.018620582 -0.0063777557 -0.0046124947 0.0037299513 -0.00088685116 0.034450322 0.020944009
-0.018167496 0.0027580417 -0.0284225 0.012199304 0.031020444 -0.01025787 -0.00671756 0.0066444543
-0.0014735879 0.00646978 0.011883064 -0.005525437 0.013385434 0.021584466 -0.0041342024 0.0060076932
0.003541036 -0.016551776 0.041774064 0.013722002 0.0037332892 0.0047752676 -0.0029076142 -0.005939704
0.0038873763 0.0067200237 0.05723502 0.0126460465 0.03367606 -0.025613206 0.008551105 -0.02998882
0.0147959115 0.030398035 0.009168756 0.021097625 -0.0050273337 0.0059234244 -0.008971494 -0.010825738
0.009535725 -0.018287852 0.017375655 0.013773385 -0.022616832 0.00044697706 0.036249805 7.966278e-05
0.009524444 -0.0143339755 -0.007295769 0.00588633 -0.01761528 0.026431069 -0.03714636 0.017598726
0.005631833 -0.02889537 0.022814386 -0.0014515473 0.043179482 0.0074038454 -0.017018838 0.0150673175
-0.010871241 -0.002947764 0.0005367137 0.04238015 -0.016479626 -0.004775683 -0.014184183 -0.01656325
-0.009726567 0.032126267 -0.02812958 -0.0029683379 -0.0134482 0.004812343 -0.007009519 -0.02300201
-0.02790049 0.003886277 -0.040290687 0.046504643 0.019193329 -0.007933087 -0.0153824985 -0.011300409
0.02988255 -0.001510614 -0.018191356 0.013864722 -0.009018636 -0.013069542 -0.023671992 -0.017731704
0.017086029 0.009084211 -0.0007298907 0.03695267 -0.00088199845 0.021099292 -0.030720852 -0.011585648
0.0006633115 -0.02793442 -0.041479584 -0.009428082 -0.049972303 0.038296785 0.052861646 0.018596608
0.014428994 -0.04879204 0.017884942 -0.028106472 -0.07058608 -0.057404727 -0.088642016 0.037852023
-0.040683825 0.08104287 0.1479075 -0.10255996 0.05251338 0.038926035 -0.017667368 0.04239558
-0.09744786 0.015698135 -0.049490456 -0.004028881 0.0020540461 -0.037766036 0.13608706 0.0011574917
0.0950901 0.12807882 -0.007546157 -0.06603756 0.062044732 0.00012182865 0.0025261578 0.010398182
0.030729666 -0.0120026935 -0.046491526 -0.0748483 0.061568704 0.05649687 -0.071739025 0.046511322
0.016096618 0.048090156 -0.035287157 -0.03875368 -0.046008736 -0.1129324 0.104254596 0.019116988
-0.079997666 -0.06470845 -0.033194806 0.0082899 0.0626862 0.088310845 -0.027815305 -0.016582282
0.06822316 0.13046208 0.010411956 -0.122959316 0.024397869 -0.014320975 -0.04027103 -0.020883866
-0.013954351 -0.00226951 0.0032260076 -0.040385406 -0.050707262 0.1391139 0.039452013 -0.051076245
0.0036233342 0.030698616 -0.058128 0.012375741 0.027295994 -0.08729863 -0.0019725119 0.037320066
-0.09443036 -0.06230164 0.055844653 0.048954595 0.08745219 -0.059368208 0.07520784 0.1559897
0.05769946 -0.09090487 -0.0021286008 -0.0037491908 -0.027071273 -0.05366511 0.010499553 0.13861132
-0.011449742 0.12687963 0.06593571 -0.07913135 0.092425175 0.066198036 0.073448874 0.08919319
0.009622928 -0.033730853 0.022449883 -0.016872594 0.037753318 -0.09991015 -0.060885083 0.07542202
0.13760695 -0.014649153 -0.04745383 -0.0034306492 -0.049067162 0.08763696 0.04605272 -0.025888132
-0.010826214 0.086610556 0.00044112647 -0.07978945 -0.029319838 -0.06932184 0.054585174 0.050759394
00000000: dbc6 bb3c c211 b1bb 6f74 a6bb ad28 d93c
00000010: aacf 2a3d ed52 de3c 54e0 893c ecff 783c
00000020: 1ad9 373c 318a 983c 7efc d0bb 6924 97bb
00000030: 3372 743b 937b 68ba c81b 0d3d c592 ab3c
00000040: 00d4 94bc 43c0 343b 4dd6 e8bc 97df 473c
00000050: 961e fe3c a010 28bc fa1e dcbb b9b9 d93b
00000060: 6825 c1ba 7300 d43b 2fb1 423c ba0e b5bb
00000070: 944e 5b3c e8d1 b03c 3478 87bb 2fdc c43b
00000080: ba10 683b 9797 87bc 481b 2b3d 3fd2 603c
00000090: 33aa 743b d979 9c3b ac8d 3ebb d9a1 c2bb
000000a0: 5ac3 7e3b a533 dc3b 456f 6a3d 5d31 4f3c
000000b0: e9ef 093d c9d2 d1bc ef19 0c3c 1dab f5bc
000000c0: 8d6a 723c 4d05 f93c 8d38 163c edd4 ac3c
000000d0: 55bc a4bb 4919 c23b 2cfd 12bc 705e 31bc
000000e0: bb3b 1c3c 68d0 95bc 6457 8e3c c4a9 613c
000000f0: ef46 b9bc 3f58 ea39 ad7a 143d a110 a738
00000100: 6a0c 1c3c 0dd9 6abc 5911 efbb 1de2 c03b
00000110: eb4d 90bc f885 d83c c826 18bd 342b 903c
00000120: 3d8b b83b fcb5 ecbc 3ce5 ba3c d841 beba
00000130: f8dc 303d f59b f23b 176b 8bbc e9dc 763c
00000140: 4a1d 32bc 462f 41bb 3fb2 0c3a cf96 2d3d
00000150: 4800 87bc 557d 9cbb c764 68bc a7af 87bc
00000160: 2e5c 1fbc d596 033d 0170 e6bc 7288 42bb
00000170: d755 5cbc dcb0 9d3b 1bb0 e5bb b66e bcbc
00000180: 928f e4bc e9b0 7e3b d907 25bd a77b 3e3d
00000190: 543b 9d3c c7f9 01bc e006 7cbc 5a25 39bc
000001a0: 40cc f43c cbff c5ba 0a06 95bc dc28 633c
000001b0: e7c2 13bc a221 56bc c4eb c1bc 1442 91bc
000001c0: 00f8 8b3c f1d5 143c 2356 3fba af5b 173d
000001d0: ea35 67ba 6cd8 ac3c 4caa fbbc bbd1 3dbc
000001e0: 15e2 2d3a bad6 e4bc 7fe6 29bd 3e78 1abc
000001f0: c2af 4cbd 17dd 1c3d 7485 583d ea57 983c
00000200: 9667 6c3c 2ada 47bd 7183 923c 8b3f e6bc
00000210: 6f8f 90bd 3821 6bbd f289 b5bd b90a 1b3d
00000220: 15a4 26bd cef9 a53d 1075 173e f50a d2bd
00000230: 4518 573d e870 1f3d 28bb 90bc fda6 2d3d
00000240: be92 c7bd 6099 803c 81b6 4abd b404 84bb
00000250: 2d9d 063b 8fb0 1abd 685a 0b3e fab6 973a
00000260: 99be c23d 1827 033e c145 f7bb b33e 87bd
00000270: 9e22 7e3d 427e ff38 e58d 253b 235d 2a3c
00000280: c8bc fb3c f2a6 44bc e66d 3ebd 114a 99bd
00000290: 772f 7c3d 4369 673d e9eb 92bd a882 3e3d
000002a0: 0edd 833c 2ffa 443d 4489 10bd 2ebc 1ebd
000002b0: a873 3cbd 1a49 e7bd 6f83 d53d 3b9b 9c3c
000002c0: d1d5 a3bd dd85 84bd 47f7 07bd 5cd2 073c
000002d0: 9f61 803d 51dc b43d ecdc e3bc 91d7 87bc
000002e0: 96b8 8b3d da97 053e e996 2a3c 18d2 fbbd
000002f0: 0ade c73c 86a2 6abc 3cf3 24bd a414 abbc
00000300: caa0 64bc 0fbc 14bb 6d6b 533b 2b6b 25bd
00000310: 6bb2 4fbd e073 0e3e 6f98 213d 5335 51bd
00000320: 7675 6d3b aa7b fb3c a017 6ebd 9fc3 4a3c
00000330: d99b df3c a0c9 b2bd 4245 01bb eddc 183d
00000340: b464 c1bd 0130 7fbd 5dbd 643d 9d84 483d
00000350: 221a b33d 142c 73bd 9106 9a3d c4bb 1f3e
00000360: 4556 6c3d 552c babd ff7f 0bbb fcb4 75bb
00000370: 93c4 ddbc f2cf 5bbd 5106 2c3c 20f0 0d3e
00000380: b397 3bbc bcec 013e 4d09 873d 9e0f a2bd
00000390: 6949 bd3d d692 873d 5d6c 963d ebaa b63d
000003a0: 7ca9 1d3c 5d29 0abd d1e8 b73c 6538 8abc
000003b0: 39a3 1a3d b19d ccbd a362 79bd dc76 9a3d
000003c0: d6e8 0c3e 0003 70bc f25e 42bd bed4 60bb
000003d0: a6fa 48bd 027b b33d c7a1 3c3d 5913 d4bc
000003e0: 6f60 31bc e060 b13d fe46 e739 a768 a3bd
000003f0: 2830 f0bc 9cf8 8dbd b494 5f3d 15e9 4f3d

bias f4 [84]
0.0059145247 0.009371565 0.020586299 0.01761951 -0.0030592824 0.01857588 0.0049377023 0.004586676
0.008075618 0.00065090857 0.004065839 -0.0046270546 -0.0016062567 0.002762763 0.025439344 -1.3390547e-05
-0.01148791 0.0057258816 0.011455428 0.013926275 0.0018376329 -0.001124373 0.007900483 0.0023593642
0.007993739 -0.0019260264 -0.0072497637 0.009542743 -6.363594e-06 0.0031422952 0.0060113133 0.022394896
0.009770448 -0.0005861424 0.011887705 0.0016831065 0.004382554 0.015848357 -0.008708614 -0.001148558
0.014153325 0.00027779955 0.025684802 -0.016182775 0.0023471734 0.023410674 -0.0032346197 0.00036072868
0.0029153882 -0.011130236 0.008602926 0.0018741229 0.010180944 0.02181987 0.013478729 0.012230481
-0.0048361034 0.0018748497 0.0046051713 0.0053483197 0.013242745 0.0012380369 0.0054364093 0.0012363329
0.011888624 0.016488632 -0.00084111816 0.0041609425 -0.0011244667 0.004351409 0.018270956 0.009266132
0.0063408026 0.000700904 0.006271035 0.009435079 0.023089588 0.027704675 0.016724339 -0.009694231
0.0005608269 0.014738227 0.013948432 0.005971549
00000000: a1ce c13b 318b 193c 99a4 a83c ca56 903c
00000010: 3e7e 48bb 722c 983c 73cc a13b d44b 963b
00000020: 994f 043c bca1 2a3a bb3a 853b 8c9e 97bb
00000030: 0889 d2ba 790f 353b 2c66 d03c f6a7 60b7
00000040: c937 3cbc 2da0 bb3b 8caf 3b3c 082b 643c
00000050: badc f03a b35f 93ba 0771 013c 909f 1a3b
00000060: 2cf8 023c b972 fcba 6d8f edbb 2a59 1c3c
00000070: db86 d5b6 f7ee 4d3b 8dfa c43b 8075 b73c
00000080: 3b14 203c 5aa7 19ba a6c4 423c af9b dc3a
00000090: 879b 8f3b 6ad4 813c 93ae 0ebc 368b 96ba
000000a0: 59e3 673c a0a5 9139 ef68 d23c bd91 84bc
000000b0: 09d3 193b bec7 bf3c eafb 53bb 2f20 bd39
000000c0: 1910 3f3b 985b 36bc 49f3 0c3c 21a5 f53a
000000d0: f9cd 263c 96bf b23c e3d5 5c3c 5b62 483c
000000e0: 2d78 9ebb 84bd f53a fae6 963b f540 af3b
000000f0: 19f8 583c a045 a23a e823 b23b 730c a23a
00000100: 81c8 423c 2b13 873c 7c7e 5cba 8458 883b
00000110: d762 93ba 4496 8e3b f9ac 953c f9d0 173c
00000120: 82c6 cf3b dfbc 373a 417d cd3b 9795 1a3c
00000130: 6026 bd3c eaf4 e23c 7b01 893c 8dd4 1ebc
00000140: 7504 133a 9b78 713c f787 643c fcac c33b

weight f4 [10, 84]
0.08014269 -0.0873663 -0.12525539 -0.058395717 -0.012924192 0.04579551 -0.09326767 -0.102565326
0.5093274 0.08058201 0.12783779 -0.04876932 -0.08974875 -0.014178795 -0.074207984 -0.0020883214
-0.046003036 0.2784614 -0.009152373 -0.04313068 0.045250602 0.07876017 -0.030042727 0.1042575
0.09845116 -0.055770256 -0.16841747 -0.06783927 -0.00010624545 -0.0927775 -0.01011886 -0.084136106
0.013531566 0.023724461 -0.06006666 -0.03927078 -0.11749186 -0.15821555 -0.09810457 0.21926437
-0.025627997 0.012195126 -0.13766502 -0.14874929 -0.020107469 -0.13968569 0.0077715567 -0.0008461175
-0.06198955 0.2942559 0.26387548 -0.026394185 -0.17194359 -0.059322115 -0.08732125 -0.028328141
0.20588134 -0.009081434 0.28101003 -0.1761526 -0.11967036 -0.0063114585 -0.039964594 -0.0034437305
-0.060541295 -0.020095542 -0.02407578 -0.014853542 -0.024738403 -0.04033458 -0.067190304 -0.06356431
0.30812392 -0.014115158 -0.00981827 0.41046032 -0.06341322 -0.083324894 -0.1028389 -0.02335099
-0.01809729 -0.062334538 -0.1457049 -0.05805536 -0.05263413 -0.07297948 0.009100904 -0.15272048
-0.005479517 -0.07775557 0.18049817 -0.10745398 0.09137905 -0.06785552 -0.08210782 -0.052751116
0.122303694 0.013870882 -0.17460304 -0.0024120526 -0.13932769 -0.053496305 0.023553994 0.5999906
0.19797026 -0.00267731 -0.08360366 0.13752815 -0.036693625 -0.0128881605 -0.13685548 -0.11733932
-7.785923e-05 0.21781705 -0.038591053 -0.16387649 0.20471053 -0.01815698 -0.14502577 -0.02508499
-0.16141935 0.06458759 -0.056484398 -0.057487775 0.18840457 -0.007175173 0.22997406 -0.09848545
-0.03677407 0.16459532 0.085900635 0.0035339042 -0.05340407 -0.1468929 -0.0690697 -0.03866562
-0.053570848 -0.100324705 0.3202649 0.3168811 0.11698639 -0.02372663 -0.0076496387 -0.13550203
-0.072283074 -0.017894622 -0.04053428 0.016998403 -0.096702754 0.042286646 -0.012192802 -0.07551363
-0.074150756 0.20393357 -0.12339645 0.13322534 -0.09869139 -0.012591898 0.19252531 -0.091456816
-0.11251529 -0.124268636 -0.15191768 -0.1221235 0.03923939 0.4238992 0.34884077 -0.06758117
-0.051252183 0.45006233 0.15009862 0.019450549 -0.006390062 0.036804643 0.055206764 0.19306718
0.027038388 0.057624303 -0.22709279 0.0469793 -0.19867142 0.07470376 0.08444431 0.0062648207
0.16023615 -0.1141507 -0.029397978 -0.20230192 -0.10318723 0.16025299 0.23800318 -0.17048395
0.0016782437 0.10396888 -0.26113945 0.061943974 -5.4336706e-06 -0.19519366 -0.096975386 -0.18274355
0.14239226 -0.13258804 0.09576531 -0.046363063 -0.17434417 -0.17853488 -0.08334137 0.19001377
-0.16580558 0.038454905 0.30375752 0.18765466 0.20253864 0.3147218 0.011267771 -0.0016603175
-0.05773344 -0.21738915 -0.032924473 0.13546583 -0.07789046 -0.1380388 0.18246871 -0.15548056
-0.10470328 0.05245628 -0.16133307 0.15752603 -0.17413071 0.053380776 0.2923327 0.017765578
-0.08435992 -0.12918179 -0.021467566 0.24589111 0.423416 -0.102672465 0.14287291 0.11600233
-0.11859571 -0.0058252225 -0.06575944 -0.11842212 0.02772231 -0.23072582 0.080679506 0.24853572
-0.009430891 0.19569236 -0.2310621 -0.0016194833 0.006137188 -0.097378336 -0.10845427 -0.054250464
00000000: da21 a43d 1aed b2bd f342 00be 5930 6fbd
00000010: fdbf 53bc 1394 3b3d 1f03 bfbd c50d d2bd
00000020: 4863 023f 2e08 a53d e9e7 023e 57c2 47bd
00000030: 31ce b7bd 2d4e 68bc 5bfa 97bd 38dc 08bb
00000040: ae6d 3cbd 7e92 8e3e d6f3 15bc cca9 30bd
00000050: b258 393d 034d a13d 2a1c f6bc f584 d53d
00000060: c3a0 c93d 5a6f 64bd a175 2cbe 51ef 8abd
00000070: 17d0 deb8 2102 bebd 93c9 25bc 8d4f acbd
00000080: 80b3 5d3c cd59 c23c 7508 76bd 66da 20bd
00000090: 939f f0bd 4203 22be 0ceb c8bd d786 603e
000000a0: cef1 d1bc 11ce 473c 0ff8 0cbe bc51 18be
000000b0: 6bb8 a4bc c409 0fbe 8ba8 fe3b fccd 5dba
000000c0: c1e8 7dbd b6a8 963e b01a 873e 9e38 d8bc
000000d0: fb11 30be bffb 72bd 7cd5 b2bd 6b10 e8bc
000000e0: 8fd2 523e 4cca 14bc 8ce0 8f3e 5961 34be
000000f0: bc15 f5bd 5ad0 cebb eab1 23bd 36b0 61bb
00000100: 26fa 77bd 689f a4bc 923a c5bc 455c 73bc
00000110: 31a8 cabc df35 25bd 129b 89bd 012e 82bd
00000120: 6bc2 9d3e 4343 67bc cfdc 20bc db27 d23e
00000130: cade 81bd 3ea6 aabd 349d d2bd 934a bfbc
00000140: c540 94bc 8052 7fbd aa33 15be 75cb 6dbd
00000150: e396 57bd 4476 95bd f51b 153c c262 1cbe
00000160: 858d b3bb 503e 9fbd 83d4 383e d510 dcbd
00000170: f024 bb3d d6f7 8abd 2528 a8bd 8e11 58bd
00000180: 5c7a fa3d b242 633c 24cb 32be 8713 1ebb
00000190: ebab 0ebe f11e 5bbd 4ef4 c03c fc98 193f
000001a0: b7b8 4a3e cf75 2fbb 6538 abbd 2ed4 0c3e
000001b0: 0e4c 16bd dd28 53bc d823 0cbe 994f f0bd
000001c0: 5b48 a3b8 6f0b 5f3e a711 1ebd 3dcf 27be
000001d0: a39f 513e f2bd 94bc a381 14be 097f cdbc
000001e0: 1d4b 25be 8046 843d 2f5c 67bd 4d78 6bbd
000001f0: 21ed 403e b71d ebbb 527e 6b3e bdb2 c9bd
00000200: 68a0 16bd ad8b 283e acec af3d 1399 673b
00000210: 3abe 5abd 186b 16be 6a74 8dbd d75f 1ebd
00000220: 1b6d 5bbd 0a77 cdbd c3f9 a33e 3d3e a23e
00000230: 8f96 ef3d 595e c2bc d2a9 fabb 0bc1 0abe
00000240: 2609 94bd be97 92bc 4607 26bd 3c40 8b3c
00000250: 180c c6bd c334 2d3d 51c4 47bc e4a6 9abd
00000260: 5adc 97bd f6d3 503e 47b7 fcbd 396c 083e
00000270: b61e cabd 404e 4ebc 5b25 453e b64d bbbd
00000280: 6b6e e6bd 8e80 febd 4f90 1bbe e31b fabd
00000290: 7cb9 203d 5109 d93e 429b b23e ff67 8abd
000002a0: cfed 51bd 926e e63e 74b3 193e c256 9f3c
000002b0: ba63 d1bb 77c0 163d 7d20 623d 67b3 453e
000002c0: 9c7f dd3c 7607 6c3d 038b 68be 5e6d 403d
000002d0: 8570 4bbe 49fe 983d 23f1 ac3d 2049 cd3b
000002e0: f214 243e d8c7 e9bd 07d4 f0bc 3c28 4fbe
000002f0: d453 d3bd 5c19 243e 1bb7 733e 5893 2ebe
00000300: 84f8 db3a a3ed d43d 12b4 85be f7b8 7d3d
00000310: e052 b6b6 d9e0 47be 089b c6bd 2021 3bbe
00000320: 47cf 113e 29c5 07be 9a20 c43d 32e7 3dbd
00000330: 4787 32be d9d1 36be e1ae aabd f892 423e
00000340: f0c8 29be e482 1d3d 1b86 9b3e 8b28 403e
00000350: 4a66 4f3e 3723 a13e 759c 383c 039f d9ba
00000360: e679 6cbd 439b 5ebe d0db 06bd 8eb7 0a3e
00000370: 0985 9fbd 0b5a 0dbe 14d9 3a3e 4c36 1fbe
00000380: ac6e d6bd 65dc 563d 7f34 25be 814e 213e
00000390: 524f 32be cda5 5a3d a2ac 953e 1e89 913c
000003a0: e5c4 acbd 3b48 04be c0dc afbc e1ca 7b3e
000003b0: fbc9 d83e f145 d2bd 474d 123e a192 ed3d
000003c0: 4fe2 f2bd 82e1 bebb e3ac 86bd 4c87 f2bd
000003d0: e619 e33c 6443 6cbe 4c3b a53d 2680 7e3e
000003e0: 0684 1abc 9463 483e 8b9b 6cbe d844 d4ba
000003f0: 771a c93b 4b6e c7bd 461d debd bc35 5ebd

bias f4 [10]
-0.010866438 0.009618952 0.004682427 0.0043395115 -0.017582476 -0.044516817 0.01529291 0.0041245385
0.01508338 0.019811323
00000000: 2509 32bc cf98 1d3c 0b6f 993b 7632 8e3b
00000010: 2009 90bc 4457 36bd 1d8f 7a3c 2327 873b
00000020: 4820 773c 5b4b a23c
